PEFT-PT/modelo_juridico_prompt_tuning/checkpoint-1442/adapter_model.safetensors (safetensors, 211664 bytes, 2 tensors)

base_model.score.weight f4 [9, 896]
0	0xbd14302f	-0.036178764
1	0x3bcf82d1	0.006332733
2	0x3d114da2	0.035474427
3	0xbca8f15a	-0.020622898
4	0xb94ccee0	-0.00019532023
5	0xbc6c4c6f	-0.01442252
6	0xbce04c50	-0.027380139
7	0x3ce542c7	0.027985943
8	0xbc5771e2	-0.01314971
9	0xbcd74070	-0.026275843
10	0xbcd7e18b	-0.026352664
11	0x3cbda98f	0.02315214
12	0xbc0ab36b	-0.008465628
13	0x3c9b521e	0.018960055
14	0x3ca093a0	0.019601643
15	0x3ce2eb82	0.02770019
16	0x3d1287f6	0.035774194
17	0xbc87c007	-0.016571058
18	0xbc4ea215	-0.012611886
19	0x3c2fbaeb	0.010725717
20	0x3ca06669	0.019580083
21	0xbb100f74	-0.0021981867
22	0x3b876e6f	0.0041330378
23	0xbd0857bd	-0.0332868
24	0x3bbf24fa	0.0058332654
25	0xbb6e2520	-0.0036338046
26	0x3b240a01	0.0025030377
27	0xba307f1d	-0.00067328085
28	0xbc264446	-0.010148114
29	0x3bce0d91	0.0062882383
30	0xbc00f8c1	-0.007871808
31	0x3d2bff5c	0.041991577
32	0x3a4cc13e	0.0007810778
33	0xbc86522d	-0.016396606
34	0x3d167476	0.03673216
35	0x3b344d62	0.0027511944
36	0x3ce9b5bd	0.028529042
37	0xbc8a018c	-0.01684644
38	0x3cacdb5c	0.021100692
39	0xbd1d3841	-0.038383726
40	0x3c3e07f6	0.011598578
41	0x3c855596	0.016276162
42	0x3cc530c8	0.024071112
43	0x3c09c61d	0.00840905
44	0x3a80e3ef	0.0009833555
45	0xbc479bf6	-0.01218318
46	0x3b37a0ec	0.00280195
47	0x3cc9b2dd	0.024621421
48	0x3c1b535b	0.009480323
49	0x3cc158f3	0.023601985
50	0x3d2ff859	0.042961452
51	0xbbfebb94	-0.007773826
52	0xbc87b78f	-0.01656702
53	0x3c28c531	0.01030092
54	0x3d1c43dd	0.038150657
55	0xb91aa85c	-0.00014749303
56	0xbcd43574	-0.025904395
57	0x3c86c321	0.016450467
58	0x3ca11337	0.019662483
59	0x3cd6d000	0.026222229
60	0x3ba1fcc8	0.004943464
61	0x3cf373c5	0.02971829
62	0x3c23e55e	0.010003416
63	0x3c5dd125	0.0135386335
64	0xbc0ac397	-0.008469484
65	0x3cc088f5	0.023502806
66	0x3c04d6e7	0.008107877
67	0xbcfd0d0b	-0.030890008
68	0xbc5d4282	-0.013504626
69	0x3cfcd7fe	0.030864712
70	0xbd4f733d	-0.05064701
71	0xbc2d6f5b	-0.010585631
72	0xbc940239	-0.018067466
73	0x3bf9b948	0.007620964
74	0x3d06be34	0.032896236
75	0xbcf33a27	-0.029690815
76	0x3bb7babb	0.005606977
77	0x3b51b758	0.003200015
78	0xbd8b9e1c	-0.06817266
79	0x3b19b9a9	0.002345661
80	0x3b96ad6a	0.0045983093
81	0x3c020f7d	0.007938263
82	0xbc543a12	-0.012953298
83	0x3d255d4b	0.040372174
84	0xbcb9e791	-0.022693427
85	0x3c08f7cc	0.008359861
86	0x3cdc7337	0.026910407
87	0xbcaa3abd	-0.020779962
88	0x3cc1994f	0.023632674
89	0x3ccee13c	0.025253884
90	0x3c8782bd	0.016541833
91	0xbd101b58	-0.035182327
92	0xbc6d14ee	-0.014470322
93	0xba5314b8	-0.00080520986
94	0xbc8335db	-0.016016891
95	0xbcd1894c	-0.025578164
96	0xbc182d4b	-0.009288142
97	0x3b725a5f	0.0036980135
98	0x3d1b6771	0.037940446
99	0x3b26e7f2	0.002546784
100	0x3b925869	0.0044661057
101	0xba57ee9f	-0.00082371564
102	0x3c88e917	0.016712708
103	0x3c918be2	0.017766897
104	0x3c01bf57	0.007919154
105	0xbb05e3db	-0.0020430002
106	0x3bb3122a	0.005464812
107	0xbc4d797f	-0.012541174
108	0x3d285d13	0.041104387
109	0x3c1c4a6f	0.009539231
110	0xbc78b74f	-0.015180423
111	0xbc9b0c60	-0.0189268
112	0xbd39cae2	-0.0453595
113	0xbc391750	-0.011297062
114	0x3bd9a147	0.00664154
115	0xbcd2c6f7	-0.02572964
116	0x3b4dcf02	0.0031403904
117	0xb9ad0447	-0.00033000318
118	0x3cbdc144	0.023163445
119	0x3cb3d21c	0.021950774
120	0xbc806ce2	-0.01567692
121	0x3cddbe5c	0.02706831
122	0x3cd383dd	0.025819713
123	0x3af1440a	0.0018407118
124	0x3c87c6e6	0.016574334
125	0x3cb7b5cf	0.02242556
126	0xbd4d74a8	-0.05016008
127	0xbc5cc4ca	-0.013474653
128	0xbaaf13e9	-0.0013357374
129	0xbc8a2cf9	-0.016867148
130	0xbcdc8939	-0.026920902
131	0x3d20a225	0.039217133
132	0x3d29237f	0.041293617
133	0x3cb9b4ac	0.022669159
134	0x3c2ae545	0.010430639
135	0xbcc18c25	-0.023626396
136	0x3c93f1dd	0.018059665
137	0x3d029677	0.031881776
138	0xbb879306	-0.0041373996
139	0xb9cb10e2	-0.00038731756
140	0x3b6876f3	0.003547129
141	0x3c8e2785	0.017352829
142	0x3c307304	0.010769609
143	0x3b8c7155	0.004285971
144	0xbcd63406	-0.026147854
145	0x3c6a28f9	0.014291995
146	0xbb955188	-0.0045568384
147	0x3d1218a3	0.035668027
148	0xbcad1b93	-0.021131312
149	0x3c44d3df	0.012013405
150	0x3d3e15d3	0.046407532
151	0x3ce8e864	0.028431125
152	0xbd366737	-0.044532027
153	0x3a8c91b8	0.001072458
154	0x3b63bb40	0.003474906
155	0xbb5b2dc6	-0.003344403
156	0x3c5b26a8	0.013375916
157	0xbbf50394	-0.007477233
158	0xbbe68177	-0.0070344764
159	0xbb1d33b1	-0.002398711
160	0x3cd3dfca	0.025863547
161	0x3d03ecaf	0.03220814
162	0xbbf13d78	-0.007362064
163	0x3ba834de	0.0051332554
164	0xbc392779	-0.011300915
165	0x3cd85afd	0.026410574
166	0xbcd3313d	-0.025780315
167	0x3c3c938a	0.011509785
168	0xbcce359c	-0.025172047
169	0xbae01d5a	-0.0017098591
170	0xbc45ada1	-0.012065322
171	0x3b13dc47	0.0022561715
172	0xbc2afe19	-0.010436558
173	0xbca653d2	-0.02030364
174	0x3b9b04a8	0.0047307797
175	0x3aaef6da	0.0013348714
176	0x3c2b435b	0.0104530705
177	0xba8e7781	-0.0010869355
178	0xbc70e2fd	-0.014702556
179	0x3b13e2df	0.0022565646
180	0xbc73d17b	-0.014881487
181	0xbd186f34	-0.037215427
182	0x3cf4da5e	0.029889282
183	0x3b408cde	0.0029380838
184	0xbd38ac9c	-0.045086488
185	0xbc2d28a6	-0.010568773
186	0x3cbbcc42	0.022924546
187	0x3c809b24	0.015698977
188	0xbc411fd2	-0.011787372
189	0xbce7e59c	-0.028307728
190	0xbb446d13	-0.002997224
191	0xbcd96b03	-0.026540285
192	0xbc71d8c5	-0.014761155
193	0x3c4f8855	0.012666781
194	0xbcb0f04d	-0.02159896
195	0x3c69d6f8	0.014272444
196	0x3c9498cc	0.018139265
197	0x3c1165a0	0.008874327
198	0xbc616474	-0.01375686
199	0x3c14ee09	0.009089955
200	0x3b519d30	0.003198456
201	0xbc250c40	-0.010073721
202	0xbcf27b7a	-0.029599894
203	0x3b7de0e5	0.0038738784
204	0xbc9f9b86	-0.019483339
205	0x3d2cea9f	0.04221594
206	0xbc6dceed	-0.014514667
207	0xbd20a2b4	-0.039217666
208	0xbbcae393	-0.0061916797
209	0x3c8f1cbc	0.017469756
210	0x3d0e1cad	0.034695316
211	0xbc10c867	-0.008836842
212	0xbb95d2ff	-0.004572272
213	0x3cc0774b	0.023494383
214	0xbccee30e	-0.025254752
215	0xbccc62cc	-0.024949454
216	0xbc924029	-0.01785286
217	0x3aa9e748	0.0012962604
218	0x3c84a589	0.016192215
219	0x3d4671a3	0.048448216
220	0x3cbd905e	0.023140129
221	0xbbb05425	-0.0053811246
222	0xbd6e1881	-0.058128837
223	0xbbcde4db	-0.006283385
224	0xbc7bf40e	-0.015378011
225	0xbcbe450a	-0.02322628
226	0xb785e2e6	-1.5960493e-05
227	0x3c320a53	0.010866719
228	0x3aa4139b	0.001251805
229	0x3c2aaa95	0.0104166465
230	0xbd231e9c	-0.039824113
231	0x3c8fb51b	0.017542413
232	0xbbc3cc07	-0.0059752497
233	0xbd3ad578	-0.045613736
234	0xbc1f6b27	-0.009730137
235	0x3c107152	0.00881608
236	0x3cf7888a	0.030216474
237	0x3ca1fcde	0.019773897
238	0xbbc873b7	-0.00611731
239	0xbd066f90	-0.032821238
240	0x3c0af48a	0.008481154
241	0x3cde97c5	0.027171979
242	0x3cb82d2f	0.022482483
243	0x3b4d5606	0.0031331792
244	0xbbfd11f5	-0.007723088
245	0x3cdcddda	0.026961256
246	0x3d0614dd	0.03273474
247	0xbcc2da83	-0.023785835
248	0xbb79c1a2	-0.00381098
249	0xbd2f4753	-0.04279263
250	0x3cf0b32f	0.029382316
251	0x3d020e9e	0.03175222
252	0x3c3a342a	0.011364976
253	0x3c4685c7	0.012116856
254	0x3c8e20c6	0.017349612
255	0x3c591482	0.013249518

prompt_embeddings f4 [50, 896]
0	0x3ceb68b7	0.028736455
1	0xbbea0a77	-0.007142361
2	0xbc8a69b7	-0.016896112
3	0xbc410af0	-0.011782393
4	0xbc4667db	-0.012109722
5	0x3cb81ae8	0.022473767
6	0xbab7df3a	-0.0014028319
7	0xbc918964	-0.017765708
8	0xbbd3ac82	-0.0064597735
9	0x3ba5edd9	0.005063754
10	0xbbd84c45	-0.006600889
11	0xbcae48f6	-0.021275025
12	0xbd009506	-0.03139212
13	0xb9a2ed8e	-0.0003107604
14	0x3ca3f52f	0.020014374
15	0x3c98ba5f	0.018643556
16	0x3c2311c1	0.009952963
17	0x3bdc5f74	0.006725246
18	0x3b23b6fd	0.0024980896
19	0xbc9e6ed8	-0.019339964
20	0x3c3571a6	0.011074459
21	0x3c9e2f3b	0.01930963
22	0x3b3396f7	0.0027403214
23	0x3bea66a2	0.007153348
24	0xbcf92da2	-0.030417267
25	0xbc91593c	-0.017742746
26	0xbc327e87	-0.010894424
27	0x3ce79a2e	0.02827176
28	0xbc5e7b82	-0.013579251
29	0xbcb6bc7d	-0.022306675
30	0x3c98ef6e	0.018668856
31	0x3bd82a7c	0.0065968614
32	0xbb354de1	-0.0027664828
33	0x3c310fd7	0.010806999
34	0x3bedf8f6	0.0072623445
35	0x3c214468	0.0098429695
36	0xbc1839bd	-0.00929111
37	0xbbc386fc	-0.005967019
38	0xbcec58bc	-0.028850906
39	0xbc9c2d22	-0.01906449
40	0xbc228875	-0.009920229
41	0xbc3f7e13	-0.011687773
42	0x3bb41722	0.0054959217
43	0x38dfc150	0.00010669476
44	0xbd064160	-0.03277719
45	0xbc911e6d	-0.017714703
46	0xbc8fab45	-0.017537722
47	0xbc0d02c6	-0.008606618
48	0xbcef3b8c	-0.029203199
49	0x3ca28173	0.019837117
50	0x3c8ab695	0.016932765
51	0xbb44f453	-0.0030052855
52	0xbc6331b6	-0.0138668325
53	0xbcb2b263	-0.021813577
54	0xbc64aabc	-0.013956722
55	0x3ca5104d	0.020149374
56	0xbc13ba59	-0.009016597
57	0x3b6c713b	0.0036078233
58	0x3c3c0cc1	0.01147765
59	0xbbd4f073	-0.0064983903
60	0xbb6480e9	-0.0034866876
61	0xbc3e0976	-0.011598935
62	0xbba51b3d	-0.0050386474
63	0xbcf043e0	-0.02932924
64	0x3b33018a	0.002731415
65	0xbc20a1e2	-0.009804221
66	0x3c2cf85b	0.010557259
67	0x3c8b4c6d	0.017004216
68	0x3cfbfa9b	0.030759146
69	0xbb3d605b	-0.0028896544
70	0xba51cdc3	-0.0008003378
71	0xbc8f222c	-0.01747235
72	0xbc6f0d2d	-0.014590544
73	0x3c38d6f3	0.011281717
74	0xbad12bbe	-0.0015958471
75	0xbc089ddb	-0.008338417
76	0xbc023328	-0.007946767
77	0x3c37de55	0.011222442
78	0x3c193fb5	0.009353568
79	0x3c3aa6a0	0.011392266
80	0x3bf26152	0.0073968554
81	0xbcaa6edb	-0.020804813
82	0x3c151229	0.009098568
83	0xbbdf9f4d	-0.00682441
84	0xbd0ba02f	-0.03408831
85	0x3b8b0130	0.004242085
86	0xbc60dc23	-0.01372436
87	0xbc985717	-0.018596215
88	0xbce98783	-0.028507
89	0x3b956d1e	0.004560127
90	0xbc4b3266	-0.012402153
91	0xbb8171af	-0.0039503197
92	0x3bdd51da	0.006754142
93	0xbcbea4ce	-0.023271944
94	0x3ceeb0ae	0.029136982
95	0xbc88698b	-0.01665189
96	0x3b0e4ffd	0.0021715157
97	0x3c04ba95	0.008101125
98	0x3b9d860c	0.0048072394
99	0x3aab14c6	0.0013052456
100	0x3be46442	0.0069699595
101	0x3be0cce1	0.006860361
102	0x3cc5859d	0.024111563
103	0xbb2c3f0c	-0.0026282696
104	0xbb9af1e4	-0.0047285426
105	0x3ca05cef	0.019575564
106	0xbc6c7f13	-0.014434594
107	0x3c1e5ee3	0.009666177
108	0x3abf2378	0.0014582714
109	0xbbe1bc25	-0.0068888837
110	0x3c851d40	0.016249299
111	0x3a87d52a	0.001036321
112	0xbca53e2d	-0.02017125
113	0x3c266df8	0.0101580545
114	0x3bdeacde	0.0067955097
115	0x3ca7843d	0.020448798
116	0xbba13bd9	-0.0049204645
117	0xbcf24abb	-0.02957665
118	0x3c84ef4e	0.01622739
119	0xbad32df7	-0.0016111721
120	0xbbbc97ac	-0.0057553854
121	0x3b5f20bb	0.0034046608
122	0x3bc3a06d	0.005970052
123	0xbc070d11	-0.008242861
124	0xbd03898a	-0.03211359
125	0x3c8165ef	0.015795676
126	0xbc4ee866	-0.01262865
127	0xbc462338	-0.012093358
128	0xbc8dce51	-0.017310293
129	0xbca57802	-0.020198826
130	0x3bc176ab	0.005904039
131	0xbb2fd04f	-0.0026827042
132	0x3b6e6d96	0.0036381236
133	0x3bbc6487	0.0057492885
134	0x3c748352	0.014923887
135	0x3b5283a6	0.0032121926
136	0x3a93888f	0.0011255908
137	0xbc5768f1	-0.013147579
138	0xbc3eec5f	-0.011653035
139	0x3c2147a3	0.00984374
140	0xbc347510	-0.011014238
141	0x3cd6a2de	0.026200708
142	0x3c835715	0.016032735
143	0xbc85d56d	-0.01633712
144	0x3b21365c	0.002459905
145	0x3cd7ad61	0.02632779
146	0x3bcdb34f	0.0062774788
147	0xbc931053	-0.01795212
148	0xbc88568c	-0.016642831
149	0xbc4c75e6	-0.012479281
150	0x3c715df8	0.014731877
151	0x3cf508b9	0.029911386
152	0x3cb384ae	0.021913853
153	0xbc86055f	-0.016359983
154	0x3b89d7c5	0.00420663
155	0x3bd73c82	0.0065684924
156	0x3c63bce2	0.013900014
157	0x3cbd82d7	0.023133678
158	0x3ab94904	0.001413614
159	0xbc6724b3	-0.014107871
160	0xbba95c20	-0.005168453
161	0xbac9fe91	-0.001541095
162	0xbb0d7bfd	-0.0021588795
163	0x3d0f4f0e	0.0349875
164	0x3c0211ce	0.007938815
165	0x3c1ccfa9	0.009570994
166	0x3c9e5aab	0.019330343
167	0x3b46a76e	0.0030312198
168	0x3c2be013	0.010490435
169	0x3bbc116b	0.005739381
170	0xbc94d104	-0.018166073
171	0xbb955eec	-0.0045584347
172	0x3c93df99	0.018050956
173	0x3cb46965	0.022022912
174	0x3c3dc231	0.011581943
175	0x3c5bb1ef	0.013409122
176	0xbbdd36ca	-0.006750916
177	0xbd01d14e	-0.03169375
178	0xbbce4d9f	-0.0062958742
179	0xbcfe8715	-0.031070272
180	0x3d0324ff	0.032017704
181	0xbc81c91f	-0.015842972
182	0x3b2538cd	0.0025210858
183	0xbbf3796b	-0.0074302456
184	0xbb534d6d	-0.0032242194
185	0x3b944360	0.0045246333
186	0x3cc2ef0b	0.023795625
187	0x3c61fb20	0.013792783
188	0xbc80ea9c	-0.01573687
189	0x3bcbea75	0.006223018
190	0x3cc70a26	0.024296831
191	0x3c776cd5	0.015101631
192	0xbc4e8d51	-0.012606935
193	0xbc56551d	-0.013081816
194	0xbc1e5238	-0.009663157
195	0xbc681481	-0.014165045
196	0xbb87572b	-0.0041302643
197	0xbc3ba7a4	-0.011453543
198	0x3c0e9f83	0.008705023
199	0x3c03678f	0.008020296
200	0xbbcc7d10	-0.0062404945
201	0x3bf77752	0.007552066
202	0x3cb1fa5d	0.021725828
203	0xbb846186	-0.004039946
204	0xbcb5f193	-0.022209918
205	0xbb86ddd4	-0.0041157994
206	0x3c17ae41	0.009257854
207	0xbb8b7d50	-0.004256882
208	0x3b1f8b45	0.0024344486
209	0xbcb3f025	-0.021965096
210	0xbbc02e57	-0.005864899
211	0x3c5d183a	0.013494546
212	0xbc9ed0ee	-0.019386735
213	0x3c8d1eed	0.01722666
214	0xbcb00f82	-0.02149177
215	0x3c0e4ad8	0.008684836
216	0xbbc0cb2c	-0.005883595
217	0xbcb09323	-0.021554535
218	0xbc051e1f	-0.008124857
219	0xbca9e0a4	-0.020737
220	0xbad85868	-0.0016505839
221	0x3ca26403	0.01982308
222	0x3c632714	0.013864297
223	0x3b6e9a99	0.0036408065
224	0xbc585d35	-0.013205816
225	0xba962375	-0.0011454659
226	0x3c54457e	0.012956021
227	0xbc35dbc4	-0.0110997595
228	0xbc257d29	-0.010100641
229	0xbc151d2a	-0.009101192
230	0xbc936c9a	-0.017996121
231	0xbc3eed0c	-0.011653196
232	0x3c38120a	0.01123477
233	0x3bd0fa1f	0.006377473
234	0x39a8b840	0.00032180734
235	0x3b04ffbd	0.0020294033
236	0xbb940319	-0.004516971
237	0x3c7bd9f9	0.015371793
238	0xbc802c0f	-0.015646009
239	0xbc58e708	-0.013238676
240	0x3c6fc1ce	0.014633609
241	0xbc3b61da	-0.011436904
242	0xbc321b19	-0.010870718
243	0xbc3264a0	-0.010888249
244	0x3a8e2ca2	0.0010847042
245	0xbc8b4bb7	-0.017003877
246	0xbcc85be9	-0.024457889
247	0x3c759582	0.014989259
248	0xbc092c25	-0.008372341
249	0xbcc55d41	-0.024092318
250	0x3c8b10ce	0.016975787
251	0xbbf7c58f	-0.0075613926
252	0xbc09344d	-0.008374286
253	0x3c28254b	0.010262798
254	0x3c8db4f4	0.0172982
255	0xbc5aa9c9	-0.013346144
