PEFT-PT/modelo_juridico_prompt_tuning/adapter_model.safetensors (safetensors, 211664 bytes, 2 tensors)

base_model.score.weight f4 [9, 896]
-0.036182556 0.0063346163 0.035475552 -0.020617358 -0.00019398492 -0.0144207915 -0.027383389 0.027988365
-0.01314732 -0.026271513 -0.026359621 0.023173667 -0.008474656 0.018963382 0.01959816 0.027713856
0.035774972 -0.016580261 -0.012620683 0.01073975 0.019582083 -0.0021905021 0.0041271364 -0.033296186
0.005827523 -0.0036376785 0.0025103374 -0.0006806978 -0.010145175 0.006288264 -0.007879974 0.041996237
0.00078247755 -0.01639976 0.03673919 0.0027494407 0.028537124 -0.01685184 0.021096945 -0.038378168
0.011606278 0.01627106 0.02407066 0.008397316 0.0009795865 -0.012184485 0.0027987985 0.024631472
0.009495758 0.02360516 0.042965613 -0.0077744797 -0.016565338 0.010311481 0.038149398 -0.00015028803
-0.02590103 0.01644944 0.01966153 0.02621345 0.004945345 0.029714784 0.009998701 0.013540479
-0.008467522 0.023506757 0.008099761 -0.030898396 -0.013489203 0.030884586 -0.050652247 -0.010583558
-0.018072663 0.0076257912 0.032901682 -0.029694986 0.005610908 0.0032108016 -0.06818837 0.0023531893
0.004598315 0.007940629 -0.012970891 0.04037725 -0.022685913 0.008360295 0.026927214 -0.020787803
0.02362519 0.02526589 0.016547801 -0.035183422 -0.0144724855 -0.0008053375 -0.016020061 -0.025578724
-0.009283243 0.0036917634 0.037937216 0.0025445076 0.0044685286 -0.00082343264 0.016710294 0.017771848
0.007926898 -0.0020471755 0.005461455 -0.012543148 0.041104965 0.009541115 -0.015180723 -0.018925838
-0.045367103 -0.011296842 0.0066282465 -0.025725415 0.0031440062 -0.0003296977 0.023161557 0.021950275
-0.015682533 0.027067672 0.025822833 0.0018446002 0.016574202 0.022427713 -0.050169975 -0.013472014
-0.0013437817 -0.016866162 -0.026928877 0.039206028 0.04126786 0.022679182 0.010410259 -0.023629067
0.018060494 0.031890087 -0.0041390792 -0.00039467777 0.003551425 0.017333327 0.010759317 0.004282219
-0.02614637 0.014300749 -0.004553063 0.035667185 -0.02112668 0.012007358 0.046423703 0.028434025
-0.04452849 0.0010585209 0.0034783927 -0.0033333069 0.013367161 -0.007483397 -0.007035973 -0.002394037
0.02586543 0.032219283 -0.0073636635 0.0051376303 -0.011274724 0.02640638 -0.02577136 0.011526689
-0.02517149 -0.0017085407 -0.0120502105 0.002251245 -0.0104288375 -0.020308552 0.004727279 0.0013343786
0.010453291 -0.0010913723 -0.014716432 0.002252397 -0.014881801 -0.037210792 0.029892733 0.0029380908
-0.04509062 -0.01057978 0.022938935 0.015697518 -0.011790307 -0.02828803 -0.0030015616 -0.026544377
-0.0147885755 0.012675293 -0.021604242 0.014281362 0.01813889 0.008875101 -0.013767223 0.009089675
0.0031924685 -0.0100808935 -0.02958409 0.0038752647 -0.019493261 0.042216904 -0.01451171 -0.039222103
-0.006193812 0.01747252 0.03470487 -0.00883656 -0.00456628 0.023490299 -0.025245149 -0.02496278
-0.017843472 0.0012961857 0.016189393 0.048447434 0.023136877 -0.0053729797 -0.05813065 -0.0062884362
-0.015381326 -0.0232286 -1.9957615e-05 0.010858146 0.0012453297 0.010414646 -0.03982128 0.017547257
-0.0059896596 -0.045603618 -0.009725322 0.008814499 0.030218113 0.019773735 -0.0061302427 -0.032820318
0.0084691765 0.027177073 0.022481132 0.0031321293 -0.007722611 0.02697131 0.03272982 -0.023795454
-0.0038121718 -0.042792846 0.029371925 0.031751025 0.01135824 0.012121898 0.017354243 0.013254136
00000000: 2934 14bd 9d92 cf3b d04e 113d bce5 a8bc
00000010: 6e68 4bb9 2f45 6cbc 2153 e0bc db47 e53c
00000020: db67 57bc 5b37 d7bc 22f0 d7bc b4d6 bd3c
00000030: 49d9 0abc 1859 9b3c 528c a03c 2b08 e33c
00000040: c788 123d 54d3 87bc fbc6 4ebc c7f5 2f3c
00000050: 9b6a a03c 878e 0fbb ee3c 873b 9561 08bd
00000060: cef4 be3b 1e66 6ebb 7984 243b db70 32ba
00000070: f337 26bc c80d ce3b 021b 01bc 3f04 2c3d
00000080: 2e1f 4d3a ca58 86bc d57b 163d f62f 343b
00000090: b0c6 e93c df0c 8abc 80d3 ac3c 6d32 1dbd
000000a0: 4228 3e3c e34a 853c d52f c53c e594 093c
000000b0: 7865 803a 6fa1 47bc 0c6c 373b f1c7 c93c
000000c0: 1994 1b3c 9c5f c13c b6fc 2f3d 10c1 febb
000000d0: 08b4 87bc 7cf1 283c 8b42 1c3d a396 1db9
000000e0: 662e d4bc fac0 863c 3811 a13c 97bd d63c
000000f0: 900c a23b 6b6c f33c 97d1 233c e3d8 5d3c
00000100: 5dbb 0abc 3e91 c03c dcb4 043c a21e fdbc
00000110: d101 5dbc ac01 fd3c bb78 4fbd a966 2dbc
00000120: 1f0d 94bc c6e1 f93b eac3 063d e642 f3bc
00000130: b5db b73b 506c 523b 58a6 8bbd f737 1a3b
00000140: 76ad 963b 6919 023c dc83 54bc 9e62 253d
00000150: cfd7 b9bc 9ef9 083c 7696 dc3c 2f4b aabc
00000160: 9d89 c13c 69fa ce3c 418f 873c 7e1c 10bd
00000170: 011e 6dbc 491d 53ba 813c 83bc 798a d1bc
00000180: be18 18bc 83f1 713b 0e64 1b3d c1c1 263b
00000190: bc6c 923b a1db 57ba 07e4 883c 4496 913c
000001a0: d2df 013c e829 06bb 01f6 b23b c781 4dbc
000001b0: ae5d 283d 5652 1c3c 91b8 78bc 5c0a 9bbc
000001c0: dbd2 39bd 6416 39bc c331 d93b 1bbe d2bc
000001d0: ac0b 4e3b 47db acb9 4ebd bd3c 10d1 b33c
000001e0: a878 80bc 06bd dd3c 688a d33c 83c6 f13a
000001f0: 9fc6 873c 53ba b73c 087f 4dbd b9b9 5cbc
00000200: d521 b0ba e82a 8abc f399 dcbc 8096 203d
00000210: 7d08 293d b1c9 b93c ca8f 2a3c bf91 c1bc
00000220: 9af3 933c 2e9f 023d 1da1 87bb c1ec ceb9
00000230: 06bf 683b 9ffe 8d3c d947 303c db51 8c3b
00000240: ea30 d6bc b04d 6a3c dc31 95bb c117 123d
00000250: dc11 adbc 82ba 443c c826 3e3d 79ee e83c
00000260: 8263 36bd 11be 8a3a bff5 633b 9c73 5abb
00000270: f001 5b3c 4937 f5bb 058e e6bb 47e5 1cbb
00000280: bde3 d33c 5ef8 033d e34a f1bb 9159 a83b
00000290: 9fb9 38bc 3152 d83c 761e d3bc 70da 3c3c
000002a0: 7134 cebc 1df1 dfba 3f6e 45bc a089 133b
000002b0: b7dd 2abc 1f5e a6bc 4ae7 9a3b 51e6 ae3a
000002c0: 4844 2b3c 610c 8fba 311d 71bc f39c 133b
000002d0: ccd2 73bc 586a 18bd 9be1 f43c fc8c 403b
000002e0: f1b0 38bd d056 2dbc 6fea bb3c 1598 803c
000002f0: 222c 41bc 4cbc e7bc d9b5 44bb 9873 d9bc
00000300: c84b 72bc 08ac 4f3c 61fb b0bc 60fc 693c
00000310: 0298 943c df68 113c eb8f 61bc dcec 143c
00000320: bc38 513b 552a 25bc 555a f2bc 27f8 7d3b
00000330: 55b0 9fbc a2eb 2c3d 86c2 6dbc 5ba7 20bd
00000340: 76f5 cabb 8822 8f3c b226 0e3d 38c7 10bc
00000350: bca0 95bb ba6e c03c eace cebc be7e ccbc
00000360: 792c 92bc c6e4 a93a 9e9f 843c d170 463d
00000370: 8c89 bd3c d20f b0bb 681a 6ebd 3a0f cebb
00000380: f501 7cbc e849 bebc a76a a7b7 5de6 313c
00000390: 553a a33a 31a2 2a3c a31b 23bd 44bf 8f3c
000003a0: e844 c4bb dcca 3abd f556 1fbc b06a 103c
000003b0: fa8b f73c 87fc a13c 34e0 c8bb 996e 06bd
000003c0: 4dc2 0a3c 74a2 de3c 5a2a b83c 6944 4d3b
000003d0: f50d fdbb f0f2 dc3c b40f 063d afee c2bc
000003e0: a1d5 79bb 8d47 2fbd 649d f03c 5d0d 023d
000003f0: e917 3a3c ed9a 463c 7c2a 8e3c e027 593c

prompt_embeddings f4 [50, 896]
0.028729793 -0.007140441 -0.016891573 -0.01179362 -0.012105199 0.022481885 -0.0014164348 -0.017778499
-0.0064426363 0.005063692 -0.006603979 -0.021297831 -0.03139276 -0.00032890833 0.02001634 0.018645385
0.00994882 0.0067180092 0.0024958479 -0.019350547 0.0110741295 0.019305266 0.0027395536 0.0071452376
-0.030419296 -0.01772765 -0.010883704 0.028276073 -0.013584611 -0.022301039 0.01865746 0.006597034
-0.0027627433 0.010816292 0.007270269 0.0098386295 -0.009279656 -0.0059601865 -0.028847717 -0.01907014
-0.009921477 -0.01167768 0.005490617 0.00010483648 -0.032780748 -0.017702172 -0.017522734 -0.00860706
-0.029215 0.01981896 0.016908092 -0.0029955562 -0.01387952 -0.021820866 -0.013945012 0.020149728
-0.009025627 0.0036028188 0.011467877 -0.006494686 -0.0034921288 -0.011611468 -0.0050343485 -0.029341197
0.0027391308 -0.009812245 0.01055193 0.017015396 0.030757135 -0.002903237 -0.00081178814 -0.017480552
-0.014575736 0.011283296 -0.001598626 -0.008332936 -0.00794378 0.011221509 0.009361067 0.011388065
0.007389583 -0.020804424 0.009103348 -0.006844619 -0.03409107 0.0042395596 -0.0137379235 -0.018586874
-0.028495941 0.0045629204 -0.012408346 -0.0039490103 0.006750342 -0.023262883 0.02912993 -0.016635757
0.0021731306 0.008085946 0.0048011392 0.0013102684 0.0069632437 0.00684282 0.024129758 -0.0026264836
-0.004732733 0.01958396 -0.01443724 0.009665769 0.0014483769 -0.0068975496 0.016256094 0.0010364947
-0.020180708 0.010161591 0.006820343 0.02044303 -0.0049182037 -0.029565465 0.016210845 -0.0016061286
-0.005744295 0.0034019973 0.005960978 -0.008231398 -0.032113727 0.015791113 -0.0126130115 -0.012085504
-0.01731779 -0.020214833 0.00590996 -0.0026912107 0.0036251913 0.005740058 0.014934497 0.0032070957
0.0011359259 -0.013160759 -0.011658798 0.009854121 -0.011025216 0.026192507 0.016030671 -0.016336273
0.0024688805 0.026324876 0.0062659364 -0.017939271 -0.016634736 -0.012472607 0.014722905 0.029928787
0.02189937 -0.016363759 0.00420037 0.0065507884 0.013888434 0.023136823 0.0014234501 -0.014110527
-0.005168418 -0.001526858 -0.0021713448 0.03499077 0.00792879 0.0095763495 0.019325234 0.0030342003
0.010498253 0.005742335 -0.018169537 -0.0045484873 0.018042201 0.022036273 0.011596075 0.0134052485
-0.0067445715 -0.031693835 -0.006304414 -0.031085907 0.032012854 -0.015832996 0.0025001431 -0.007425497
-0.0032307885 0.0045170714 0.023802858 0.013785462 -0.01574763 0.00624399 0.024302624 0.01511038
-0.0126143815 -0.01308348 -0.009675116 -0.014178181 -0.004131761 -0.011444368 0.008707679 0.0080145905
-0.0062390547 0.0075569847 0.021729924 -0.0040640496 -0.022216648 -0.0041225543 0.009271231 -0.0042552697
0.0024293247 -0.021975938 -0.005875618 0.013487509 -0.019401098 0.017218351 -0.021498675 0.008688668
-0.0058743716 -0.021554032 -0.0081359595 -0.020734387 -0.0016533561 0.019832734 0.013859062 0.0036369816
-0.013209368 -0.0011531828 0.012952948 -0.011101147 -0.010099038 -0.009102723 -0.018025357 -0.01166564
0.011222522 0.0063771904 0.00031869844 0.0020171485 -0.004497034 0.015375817 -0.015636908 -0.013252724
0.0146369105 -0.01144607 -0.010863629 -0.010894408 0.0010816427 -0.017000454 -0.024440624 0.015003352
-0.0083827 -0.024102526 0.016989868 -0.0075566308 -0.008379761 0.010259555 0.017298343 -0.0133437095
00000000: be5a eb3c 5cfa e9bb 3260 8abc 073a 41bc
00000010: e254 46bc ee2b b83c aaa7 b9ba 37a4 91bc
00000020: c01c d3bb 54ed a53b 3166 d8bb ca78 aebc
00000030: b295 00bd 5471 acb9 4ff9 a33c 35be 983c
00000040: 6000 233c bf22 dc3b 6191 233b 0a85 9ebc
00000050: 4470 353c 1426 9e3c 158a 333b 9922 ea3b
00000060: e331 f9bc 9439 91bc 9051 32bc 39a3 e73c
00000070: fd91 5ebc abb0 b6bc 88d7 983c ef2b d83b
00000080: 240f 35bb d136 313c 703b ee3b 3432 213c
00000090: b309 18bc ab4d c3bb 0c52 ecbc fb38 9cbc
000000a0: b18d 22bc bd53 3fbc a2ea b33b a8db db38
000000b0: 1b45 06bd 2504 91bc d68b 8fbc a004 0dbc
000000c0: 4c54 efbc 5f5b a23c d782 8a3c 1851 44bb
000000d0: ed66 63bc acc1 b2bc 9f79 64bc 0b11 a53c
000000e0: 39e0 13bc 451d 6c3b c3e3 3b3c 60d1 d4bb
000000f0: 33dc 64bb 073e 3ebc 2df7 a4bb f35c f0bc
00000100: fd82 333b 8ac3 20bc 01e2 2c3c df63 8b3c
00000110: 63f6 fb3c 3c44 3ebb 2ece 54ba 6033 8fbc
00000120: 11cf 6ebc 93dd 383c fd88 d1ba de86 08bc
00000130: a126 02bc 6cda 373c 295f 193c 0295 3a3c
00000140: 5124 f23b 0a6e aabc 3526 153c d348 e0bb
00000150: 14a3 0bbd 01ec 8a3b 0715 61bc 8043 98bc
00000160: 5270 e9bc 8d84 953b 604c 4bbc b366 81bb
00000170: f931 dd3b cd91 bebc e4a1 ee3c b647 88bc
00000180: 156b 0e3b ea7a 043c e052 9d3b 50bd ab3a
00000190: ec2b e43b bc39 e03b c5ab c53c 1521 2cbb
000001a0: 0b15 9bbb 8a6e a03c 2c8a 6cbc 2c5d 1e3c
000001b0: 77d7 bd3a d704 e2bb 802b 853c feda 873a
000001c0: 0352 a5bc cd7c 263c 2f7d df3b 2478 a73c
000001d0: e228 a1bb 4633 f2bc 9bcc 843c bc84 d2ba
000001e0: a43a bcbb 0bf4 5e3b 4f54 c33b fcdc 06bc
000001f0: af89 03bd 5d5c 813c cea6 4ebc 4702 46bc
00000200: 0ade 8dbc 9499 a5bc 56a8 c13b 065f 30bb
00000210: 9e94 6d3b 1917 bc3b d2af 743c 232e 523b
00000220: 59e3 943a 39a0 57bc 8b04 3fbc 2e73 213c
00000230: 1ca3 34bc ab91 d63c c152 833c a6d3 85bc
00000240: f1cc 213b 44a7 d73c 7c52 cd3b 61f5 92bc
00000250: 9245 88bc e859 4cbc 5738 713c 372d f53c
00000260: 4f66 b33c 4a0d 86bc 42a3 893b ffa7 d63b
00000270: 508c 633c 6f89 bd3c 0f93 ba3a d72f 67bc
00000280: d55b a9bb da20 c8ba 1f4d 0ebb 7b52 0f3d
00000290: c1e7 013c 1fe6 1c3c f44f 9e3c 6fd9 463b
000002a0: dd00 2c3c 332a bc3b 48d8 94bc 7a0b 95bb
000002b0: 3dcd 933c 6a85 b43c 77fd 3d3c b0a1 5b3c
000002c0: 9101 ddbb 65d1 01bd 4295 cebb dfa7 febc
000002d0: e91f 033d 33b4 81bc 71d9 233b 9551 f3bb
000002e0: a3bb 53bb f103 943b 36fe c23c 6bdc 613c
000002f0: 2c01 81bc 629a cc3b 4c16 c73c 8791 773c
00000300: 8dac 4ebc 185c 56bc 6184 1ebc 9a4b 68bc
00000310: b963 87bb 2981 3bbc a7aa 0e3c a14f 033c
00000320: fc70 ccbb 95a0 f73b f402 b23c b82b 85bb
00000330: b0ff b5bc 7e16 87bb 5ce6 173c ca6f 8bbb
00000340: 4e35 1f3b e206 b4bc 4288 c0bb b7fa 5c3c
00000350: 0def 9ebc 800d 8d3c fd1d b0bc ea5a 0e3c
00000360: cd7d c0bb 1592 b0bc b04c 05bc 29db a9bc
00000370: 6db5 d8ba 4278 a23c 1f11 633c 6d5a 6e3b
00000380: 1b6c 58bc 6526 97ba 9a38 543c 96e1 35bc
00000390: 6f76 25bc 9623 15bc eaa9 93bc 3e21 3fbc
000003a0: abde 373c c0f7 d03b fb16 a739 2332 043b
000003b0: db5b 93bb daea 7b3c f918 80bc f421 59bc
000003c0: a7cf 6f3c 4c88 3bbc 5dfd 31bc 767e 32bc
000003d0: e8c5 8d3a 8944 8bbc b437 c8bc 9fd0 753c
000003e0: 9857 09bc a972 c5bc 562e 8b3c 9d9d f7bb
000003f0: 444b 09bc b117 283c 41b5 8d3c 939f 5abc
