PEFT-PT/modelo_juridico_prompt_tuning/checkpoint-1339/adapter_model.safetensors (safetensors, 211664 bytes, 2 tensors)

base_model.score.weight f4 [9, 896]
00000000: b7ff 13bd b7a0 ce3b 77e5 103d c6ca a8bc
00000010: ef64 40b9 d33b 6cbc 6242 e0bc 52aa e43c
00000020: ef93 56bc 94e6 d6bc 5e09 d8bc d608 bd3c
00000030: 7591 0bbc 5b78 9b3c 1dc1 a03c 3a3c e33c
00000040: 7d41 123d e517 87bc f617 4fbc 4cdf 2e3c
00000050: 1d0f a03c 8445 0dbb aa1e 863b 3fd4 07bd
00000060: 966d be3b c4f8 6abb 5c36 253b d3c8 31ba
00000070: e798 25bc 41cd cd3b 4405 febb 49ec 2b3d
00000080: 04fc 3e3a e83a 86bc 7581 163d 0529 363b
00000090: 6a97 e93c 16dc 89bc 0ea9 ac3c 1c0a 1dbd
000000a0: 1eb6 3e3c 2db1 843c 2a7b c53c 2bd1 0a3c
000000b0: 3434 853a 295b 48bc f1f5 333b 80e5 c93c
000000c0: 44f7 193c 7e83 c03c 41aa 2f3d 8bb3 ffbb
000000d0: 6210 88bc 89d4 283c de9d 1c3d cf38 38b9
000000e0: 66e7 d3bc 559f 863c 0eb0 a03c f037 d73c
000000f0: ebb0 a03b 0704 f33c 4f57 233c c954 5d3c
00000100: 78bc 0abc 972f c13c 2f02 063c bf1e fdbc
00000110: 696b 5dbc f2fd fb3c 33fc 4ebd 2ac5 2cbc
00000120: 91e0 94bc 4101 fb3b 3e73 063d 42a4 f3bc
00000130: b413 b93b cd12 513b 648e 8bbd 8ae4 1a3b
00000140: 0aab 953b 48ad 023c 9561 53bc 0d5d 253d
00000150: 9f30 babc 152f 083c 8326 dc3c e7d7 a9bc
00000160: 3881 c13c 344b ce3c 3694 873c 0244 10bd
00000170: db8b 6dbc c09a 46ba 0ca3 83bc 510b d2bc
00000180: a9da 18bc 352d 713b 998f 1b3d 8298 2d3b
00000190: 7ce2 913b b381 4cba 6087 883c 15d7 913c
000001a0: b070 003c 3fc6 06bb aa12 b53b 3eb8 4dbc
000001b0: 6fb4 283d 0c13 1c3c 4608 78bc 31a4 9abc
000001c0: 5fee 39bd c388 38bc d061 d83b bd67 d3bc
000001d0: 183d 4f3b 0fdf c0b9 6838 bd3c 703b b43c
000001e0: 86de 7fbc d02f dd3c e23c d33c 68e0 f53a
000001f0: 2072 873c 20f9 b73c 472d 4dbd 438c 5dbc
00000200: 20be b0ba 64e4 89bc d47b dcbc e491 203d
00000210: 0d8b 293d f209 b93c 4129 2c3c 18d6 c1bc
00000220: 1c76 933c bc95 023d c856 88bb 223d edb9
00000230: 72df 643b 0f90 8e3c 8fdc 303c 2587 8b3b
00000240: 366b d6bc d5cd 683c b5cc 93bb 2360 123d
00000250: 3198 adbc f64b 433c 1de1 3d3d 8022 e93c
00000260: be71 36bd 9227 8f3a 9265 643b a2fa 59bb
00000270: 7c77 5b3c 77f5 f2bb e1f2 e4bb 6ac9 20bb
00000280: e3cb d33c bf6d 033d 5410 efbb ae40 a83b
00000290: 8e96 3bbc 221a d83c 8193 d3bc c148 3c3c
000002a0: b6aa cdbc 2c21 e5ba 3d17 47bc 3cb3 113b
000002b0: 9198 2bbc da99 a6bc 5e88 9c3b 7bc2 a23a
000002c0: 44ef 2b3c 7c73 93ba c060 70bc 1ee7 153b
000002d0: 109d 74bc 0b62 18bd 1dfb f43c f4b3 423b
000002e0: 2ab7 38bd cfc2 2cbc 0504 bb3c 15fa 803c
000002f0: f5ad 41bc 16d0 e7bc 01ba 46bb 47e9 d8bc
00000300: a642 71bc 84fe 4f3c 9e3a b0bc 8bf9 6a3c
00000310: 2d50 943c 8052 113c 28ec 5fbc f15d 143c
00000320: 2931 553b 62b9 24bc 5805 f3bc 3d93 803b
00000330: 4685 9fbc 8da4 2c3d 127f 6dbc e7c7 20bd
00000340: 29ff c9bb c642 8f3c 8733 0e3d 6127 11bc
00000350: edb9 97bb d5c7 c03c 6c5b cfbc 3276 ccbc
00000360: 32c4 92bc 9c70 b23a f4c5 843c 8d44 463d
00000370: 2f14 bd3c 74ec b2bb 0141 6ebd 4f0e cebb
00000380: 1792 7cbc e512 bebc dd71 85b8 724c 323c
00000390: 9549 a23a 07fb 2b3c 2ff2 22bd af75 8f3c
000003a0: 1dd2 c0bb e3bb 3abd 8f40 1ebc 1d80 0f3c
000003b0: 81fe f73c ea54 a23c f026 c8bb 61a4 06bd
000003c0: 7d2f 0c3c b1f5 de3c 91ab b73c 423f 4e3b
000003d0: af38 fbbb 3633 dc3c 4a45 063d 1837 c2bc
000003e0: 3f4f 7cbb f318 2fbd f753 f03c 8f06 023d
000003f0: 0542 3b3c c0dd 463c 6da4 8d3c fa09 593c
-0.03613254 0.00630578 0.035375085 -0.020604502 -0.00018348148 -0.01441856 -0.027375404 0.027913246
-0.013096794 -0.026232995 -0.026371654 0.023075502 -0.008518566 0.018978288 0.019623334 0.02773868
0.035706986 -0.016490886 -0.01263999 0.010673355 0.019538457 -0.0021556327 0.004093011 -0.033161398
0.0058114035 -0.0035853842 0.0025209403 -0.00067819393 -0.010107256 0.0062805717 -0.0077520926 0.041973386
0.0007285478 -0.01638551 0.036744554 0.0027795446 0.028514583 -0.016828578 0.021076705 -0.03833972
0.0116401 0.016197765 0.02410658 0.008472721 0.0010162652 -0.0122287655 0.0027459825 0.024645567
0.009397332 0.0235002 0.042886976 -0.0078033856 -0.016609374 0.010304579 0.03823649 -0.0001756877
-0.025867175 0.016433397 0.0196152 0.02627179 0.0049039028 0.029665006 0.009969546 0.013508984
-0.008467786 0.023582263 0.008179232 -0.03089845 -0.013514378 0.030760739 -0.050533485 -0.010545054
-0.018173488 0.0076600616 0.032824747 -0.02974141 0.0056481007 0.0031902075 -0.06814268 0.0023634755
0.0045675086 0.007975884 -0.012901683 0.040371943 -0.022728262 0.0083120065 0.026873833 -0.020732833
0.023621187 0.025182344 0.016550165 -0.035221107 -0.014498676 -0.000757616 -0.016068958 -0.025640162
-0.009329476 0.0036800627 0.037978742 0.0026488607 0.004452048 -0.0007801309 0.016666114 0.017802754
0.007839367 -0.0020564941 0.0055259066 -0.012556134 0.0411877 0.0095260255 -0.015138691 -0.01887712
-0.045393344 -0.011263075 0.006603457 -0.025806302 0.0031622108 -0.00036787285 0.023098186 0.022000998
-0.015617019 0.027000338 0.025785867 0.0018758895 0.016533911 0.02245766 -0.050092008 -0.0135222105
-0.0013484396 -0.016832538 -0.026914515 0.039201632 0.041392375 0.02258775 0.010507883 -0.023661658
0.018000655 0.03188108 -0.0041607358 -0.0004524971 0.0034923223 0.017402677 0.010794773 0.004258054
-0.026174169 0.01420923 -0.004510487 0.035736214 -0.021190735 0.011919966 0.046357263 0.028458834
-0.044542067 0.0010921827 0.003485058 -0.003326096 0.0133951865 -0.0074145156 -0.0069869612 -0.0024534115
0.025854057 0.032087084 -0.0072956476 0.0051346635 -0.011449469 0.026379649 -0.025827171 0.011491955
-0.025105815 -0.00174812 -0.0121515365 0.0022232076 -0.010473386 -0.020337034 0.0047769984 0.0012417579
0.010494057 -0.0011249627 -0.0146715045 0.0022873352 -0.014930025 -0.037202876 0.029904896 0.0029709311
-0.045096554 -0.010544493 0.022829065 0.015744248 -0.01182126 -0.028297465 -0.003032327 -0.026478423
-0.014725363 0.012694959 -0.021512326 0.014341722 0.018104637 0.008869767 -0.013667144 0.0090556005
0.0032530522 -0.010053964 -0.029665634 0.003923802 -0.01947273 0.042149115 -0.014495628 -0.03925314
-0.0061644507 0.017487895 0.03471711 -0.008859486 -0.0046303184 0.023532787 -0.025312148 -0.024958704
-0.017915819 0.0013613882 0.016207673 0.04840522 0.023080913 -0.0054603163 -0.05816746 -0.006288327
-0.01541569 -0.023202369 -6.363143e-05 0.010882484 0.0012381548 0.010496861 -0.039781746 0.01751217
-0.0058844225 -0.04558934 -0.009658947 0.008758572 0.030272724 0.01981588 -0.0061081573 -0.032871608
0.008556244 0.027216764 0.022420676 0.003147081 -0.0076666693 0.026879888 0.032780923 -0.023707911
-0.0038499383 -0.042748403 0.029336913 0.031744536 0.0114293145 0.01213783 0.017290318 0.0132470075

prompt_embeddings f4 [50, 896]
00000000: 3a18 eb3c 66f2 e9bb 494f 8abc c393 41bc
00000010: d71e 46bc 6b92 b83c 67da b0ba f670 91bc
00000020: 83ae d5bb 705f a43b b3b9 d9bb de0b aebc
00000030: cc53 00bd b906 afb9 a139 a43c 5856 983c
00000040: 3bbf 223c a565 dd3b 03d6 213b e38b 9ebc
00000050: fb16 353c 0257 9e3c 8db6 323b 99da ea3b
00000060: 5082 f9bc 28e1 90bc 0e68 32bc 09f1 e73c
00000070: ff9b 5ebc 7692 b6bc 67e9 983c 82ab d73b
00000080: 7586 36bb 42e6 2f3c 1b51 ef3b 5f8e 213c
00000090: cbed 17bc f375 c2bb 5b38 ecbc 370a 9cbc
000000a0: a296 22bc 349c 3fbc 8dc0 b23b 4ad9 fa38
000000b0: 2029 06bd ae4e 91bc a603 90bc 5c34 0ebc
000000c0: 1c72 efbc 01c8 a23c 6aff 8a3c 1369 41bb
000000d0: 3aca 62bc 03c8 b2bc 9fff 63bc 5973 a53c
000000e0: 04ab 13bc e2a3 6a3b 6131 3c3c dd47 d2bb
000000f0: 78e3 60bb 1220 3dbc e952 a4bb 15af f0bc
00000100: e3a5 313b 96a5 1fbc ac95 2c3c 818c 8b3c
00000110: ca5e fb3c 71d1 3ebb 1887 35ba aecb 8ebc
00000120: 91d4 6ebc 9903 393c 5faf cfba 71e2 07bc
00000130: 1420 02bc 868c 363c 41ad 183c eb70 3b3c
00000140: 5029 f33b 615a aabc b3e2 153c 3594 dfbb
00000150: 5c74 0bbd d225 8b3b ba78 60bc eb3e 98bc
00000160: 41a9 e9bc 1f62 943b 6c89 4cbc 49de 80bb
00000170: 564b de3b 8bbe bebc 8cf3 ee3c e545 89bc
00000180: 8201 113b fed1 053c 2a14 9b3b 9a0c a23a
00000190: 3eb3 e43b a167 e23b 1fc3 c53c 3b8f 2abb
000001a0: 27cc 9abb 3c82 a03c fabc 6cbc 1cf2 1f3c
000001b0: eae0 ba3a d470 e4bb b8a8 853c 5bfc 933a
000001c0: b72a a5bc 4794 263c 6553 de3b 6462 a73c
000001d0: 0f0c a1bb b499 f2bc 54f6 843c 28be d9ba
000001e0: 6a30 bdbb deea 643b 1b35 c43b 7c01 06bc
000001f0: 649d 03bd 42e4 813c 78a5 4ebc c725 45bc
00000200: 3819 8ebc 3c81 a5bc 4143 c33b 7c10 2dbb
00000210: aedd 6e3b a33e be3b d64d 753c 4933 503b
00000220: daf1 9e3a 0042 57bc e53b 3fbc e995 203c
00000230: 437d 34bc 6bca d63c 11c4 823c 290f 86bc
00000240: bae6 263b 7d73 d73c 6af0 cd3b 1f29 93bc
00000250: 1f24 88bc 7caf 4cbc 609e 703c 18e7 f53c
00000260: c263 b33c 483f 86bc 4d31 883b 2387 d63b
00000270: 05fe 623c eeb7 bd3c 6921 ac3a cc6e 67bc
00000280: 5f2d aabb 61b6 c6ba 678e 0abb e42e 0f3d
00000290: 5e64 013c 0d51 1e3c 3646 9e3c 50bb 433b
000002a0: ee4b 2b3c 287f ba3b 394c 94bc 4cf2 92bb
000002b0: 5bed 933c 86eb b43c 7e78 3d3c 7415 5c3c
000002c0: 0d4e d9bb 7bbe 01bd 6667 cdbb 42c9 febc
000002d0: be8a 033d 5fb0 81bc de14 253b ff98 f3bb
000002e0: 2d8e 52bb e52f 943b a142 c33c b502 603c
000002f0: b7af 80bc 2d9f ca3b 3a48 c73c 291a 783c
00000300: 8522 4fbc c75e 57bc f96c 1ebc 1fa7 69bc
00000310: e2e0 87bb 3649 3dbc f601 0f3c 0a5a 033c
00000320: 7ba8 cbbb daca f53b b576 b23c afc6 84bb
00000330: 6667 b6bc 1715 84bb c3f7 163c a86d 89bb
00000340: 5b48 1c3b 7d38 b4bc 7250 bfbb 3617 5c3c
00000350: 8f06 9fbc fffc 8c3c 7693 afbc 425a 0d3c
00000360: 9f44 bebb f7b9 b0bc 7fb3 05bc 7105 aabc
00000370: dca7 dcba 23a8 a23c 728c 623c 935e 6d3b
00000380: 9df5 58bc 1daa 98ba 7f74 533c 864f 35bc
00000390: 6587 23bc 4347 15bc 96c6 93bc 38f0 3ebc
000003a0: a924 383c a7e8 cf3b 60a7 ad39 b9a7 043b
000003b0: 7827 96bb 7bdf 7c3c 143c 7fbc c0d3 57bc
000003c0: c240 6f3c 6579 3cbc 735b 30bc 9b2b 32bc
000003d0: 0e65 8f3a d2d9 8abc 9822 c8bc 28a8 743c
000003e0: 950e 09bc 2da0 c5bc 8ae4 8a3c 07fb f9bb
000003f0: c27c 08bc ef78 2a3c 9b42 8d3c f554 59bc
0.028698076 -0.007139492 -0.01688351 -0.011815014 -0.012092314 0.022530755 -0.0013492823 -0.01775406
-0.0065210476 0.00501626 -0.0066444515 -0.021245893 -0.031329915 -0.0003338361 0.02004701 0.01859586
0.009933288 0.0067565017 0.0024694211 -0.019353813 0.011052842 0.019328598 0.0027269453 0.007167172
-0.030457646 -0.017685488 -0.010889066 0.028313177 -0.013586997 -0.022286635 0.018665982 0.0065817246
-0.0027851139 0.01073605 0.0073033697 0.009860604 -0.009273003 -0.005934471 -0.028835466 -0.01904784
-0.009923609 -0.011694957 0.0054550827 0.00011961402 -0.032754064 -0.017737713 -0.017579865 -0.008679476
-0.029229216 0.01987076 0.016967494 -0.0029512092 -0.01384216 -0.021823889 -0.013915925 0.020196604
-0.009012941 0.0035803248 0.011486382 -0.006417258 -0.003431527 -0.011543291 -0.0050147665 -0.02938036
0.0027106933 -0.009744069 0.010533731 0.01703477 0.030684847 -0.0029116536 -0.00069247326 -0.017431106
-0.014577047 0.011292362 -0.0015845111 -0.008293734 -0.007942218 0.011141902 0.009318651 0.011440496
0.0074206963 -0.02079505 0.009148288 -0.0068230876 -0.034046516 0.004246452 -0.013700658 -0.01858469
-0.02852309 0.0045282985 -0.012483936 -0.0039327485 0.006783883 -0.023284217 0.029168867 -0.016756961
0.0022126143 0.008167742 0.0047326284 0.0012363375 0.006979375 0.006909326 0.024140893 -0.0026025313
-0.004724044 0.01959335 -0.014449352 0.009762313 0.0014257703 -0.006971458 0.016315803 0.0011290418
-0.02016197 0.010167188 0.0067848437 0.020432658 -0.0049147676 -0.029614307 0.01623074 -0.0016612457
-0.0057735937 0.003493003 0.005987776 -0.008179065 -0.03213252 0.015855912 -0.012612693 -0.012032933
-0.01734601 -0.020203225 0.005958945 -0.002640753 0.003644805 0.0058058067 0.014972171 0.003176885
0.0012126521 -0.013138294 -0.011671995 0.009801366 -0.011016193 0.026219567 0.015962632 -0.01636465
0.0025467114 0.026300186 0.006284763 -0.017963944 -0.016618786 -0.012493011 0.014686197 0.03001742
0.021898154 -0.016387597 0.0041562677 0.0065468713 0.013854508 0.023158994 0.0013132516 -0.014125537
-0.005193397 -0.0015160554 -0.0021142007 0.034956828 0.007897465 0.009662879 0.019320589 0.0029866286
0.010455115 0.0056914277 -0.018102752 -0.0044844504 0.018057516 0.022084963 0.011564372 0.013432849
-0.006631619 -0.031675797 -0.0062684296 -0.031101827 0.032114737 -0.01583117 0.002518944 -0.00743401
-0.00321282 0.004522311 0.023835482 0.01367252 -0.015708787 0.006183526 0.024326432 0.015142956
-0.012642507 -0.013145155 -0.009669536 -0.014261036 -0.004146681 -0.011553099 0.008728495 0.008017072
-0.006215153 0.0075009884 0.02178512 -0.0040520052 -0.022266101 -0.0040308344 0.009214344 -0.0041939802
0.0023846838 -0.021999592 -0.0058384473 0.013433268 -0.019412307 0.017210482 -0.02143262 0.008627476
-0.00580652 -0.02157305 -0.008160471 -0.020754548 -0.0016834694 0.019855564 0.01382743 0.00362197
-0.0132421525 -0.0011647377 0.012906193 -0.011066323 -0.009981011 -0.009111228 -0.01803903 -0.011653952
0.011239209 0.006344873 0.00033121835 0.0020241572 -0.0045823418 0.015434141 -0.015578289 -0.013173044
0.014602842 -0.011503552 -0.010763991 -0.010874654 0.0010940151 -0.016949568 -0.024430558 0.01493267
-0.008365293 -0.02412423 0.016954679 -0.0076288017 -0.008330526 0.010404809 0.017243674 -0.013264884
