PEFT-PT/modelo_juridico_prompt_tuning/checkpoint-206/adapter_model.safetensors (safetensors, 211664 bytes, 2 tensors)

base_model.score.weight f4 [9, 896]
000000 c3 a4 d8 bc 36 66 cb 3b 17 57 f6 3c 09 c6 b9 bc
       -0.026445752 0.006207253 0.030070825 -0.022677438
000010 1f d1 cf 3b 43 6e 45 bc 74 c4 e8 bc 11 f7 d4 3c
       0.006342068 -0.012050214 -0.028413989 0.025996717
000020 f3 32 6d bc 58 6b b7 bc 72 12 e2 bc b3 90 f1 3a
       -0.014477479 -0.022390053 -0.027596686 0.0018429965
000030 4c 67 13 bc 0c 34 8d 3c 0e e9 55 3c 54 a1 ac 3c
       -0.008996796 0.017236732 0.013056053 0.021073021
000040 97 e1 17 3d 01 70 07 bc f1 b5 29 bc 78 cf 39 3c
       0.037080374 -0.00826645 -0.01035832 0.011340968
000050 f8 91 a0 3c 4d 51 b0 ba 18 1b 6c 3a c7 03 da bc
       0.019600853 -0.0013451964 0.0009006723 -0.02661313
000060 70 5d d2 3b 84 8e f4 bb 68 3c 73 ba 82 d1 41 3b
       0.00641983 -0.0074632782 -0.00092787156 0.002957434
000070 7a e9 17 bc 10 02 23 3c c0 d1 0c 3c 8f 75 3a 3d
       -0.009271974 0.009949222 0.00859493 0.04552227
000080 35 85 5d bb 36 38 4c bc cb c9 07 3d ce 14 a6 3a
       -0.0033801321 -0.012464574 0.03315143 0.0012670995
000090 68 3e df 3c c5 20 6f bc 94 c0 bd 3c 95 02 20 bd
       0.027251437 -0.014595215 0.023163117 -0.039064962
0000a0 54 73 5d 3b e6 35 c6 3b ba 4a cb 3c 2b 2f 46 3c
       0.0033790665 0.0060489057 0.024815906 0.012096207
0000b0 a7 1e f6 3a e2 d9 48 bc 0e 64 ff 3a 43 80 7c 3c
       0.0018777446 -0.012258979 0.0019484775 0.015411439
0000c0 1e dd 20 39 b2 fc e0 3c 23 27 28 3d 08 67 9c bb
       0.00015341162 0.027464245 0.04105295 -0.0047730245
0000d0 e6 dc 68 bc 19 91 c6 3b 73 a7 1f 3d 8d 58 8c 3a
       -0.014212823 0.0060597775 0.03897805 0.0010707543
0000e0 d7 04 de bc 5f 3f f7 3c 19 f4 41 3c d1 ab d5 3c
       -0.027101917 0.030181585 0.011837983 0.026082905
0000f0 02 1c 82 3b ed ec e0 3c 73 44 14 3c 11 d7 82 3c
       0.003970624 0.027456725 0.009049523 0.015971692
000100 a4 40 1d bc 35 7d f0 3c e9 14 17 3c a5 00 c0 bc
       -0.009597931 0.029356578 0.009221294 -0.023437807
000110 e2 5a 99 bc f1 60 81 3c dc 5e 16 bd 7a 01 b4 bb
       -0.018720094 0.015793296 -0.03671156 -0.00549334
000120 ea 3f f3 bc 4a e2 d7 3a 3d 9e cb 3c 0e 57 f9 bc
       -0.029693563 0.0016470638 0.024855727 -0.030437019
000130 92 5c 1c 3b 7e 8d d7 3b 19 10 76 bd 85 88 76 b9
       0.0023858887 0.0065781465 -0.060073946 -0.00023511246
000140 09 b0 96 3b 7c 56 cf 3b 69 3e 20 bc 2a 90 11 3d
       0.0045986217 0.0063274484 -0.009780505 0.035537876
000150 f9 f7 ee bc 12 6b e6 3b 79 64 a2 3c 6f 3f b3 bc
       -0.029170977 0.0070318067 0.0198233 -0.021880833
000160 a3 e0 06 3d 5f c0 cb 3b 7e ed 74 3c 9d 19 17 bd
       0.032929074 0.006218001 0.014949201 -0.03688966
000170 80 94 87 bc a5 96 e4 3b b2 07 8d bc f5 c9 dc bc
       -0.016550303 0.006975966 -0.017215583 -0.02695177
000180 07 c6 2c bc 99 41 82 3b 11 56 08 3d 7e 3d 12 3c
       -0.01054526 0.003975105 0.033285204 0.008925794
000190 4d dc ac 3b e6 1c c6 39 cc 9e 63 3c 38 7b a5 3c
       0.0052752853 0.00037787034 0.013892841 0.020200357
0001a0 19 5c de 3b 1c 0c 9d ba 33 4f 49 3c c5 04 29 bc
       0.0067858812 -0.0011981758 0.012286949 -0.010316079
0001b0 57 dc 24 3d 9c b4 6f 3c 7d 9b 76 bc dc 6a 9d bc
       0.040249195 0.014630463 -0.01505172 -0.019215994
0001c0 20 79 23 bd 83 e8 29 bc ae 1f 23 3c 54 5d f5 bc
       -0.039910436 -0.0103703765 0.0099562835 -0.029951729
0001d0 7b 6a 43 3b 7d 8a d5 b8 9c 1a a1 3c eb c9 c9 3c
       0.0029818106 -0.00010182427 0.019666009 0.024632415
0001e0 29 a3 54 bc 3b 48 a7 3c 3b e3 e2 3c f4 c2 f6 3a
       -0.012978354 0.020420184 0.027696243 0.0018826411
0001f0 bd 50 80 3c 6e 36 cc 3c 93 23 3c bd 2c b0 6b bc
       0.015663499 0.024928298 -0.045932364 -0.014385264
000200 d5 88 a8 3b 49 cb 4a bc 1b 01 df bc 0b 06 21 3d
       0.005143265 -0.0123775685 -0.027222207 0.039312404
000210 06 7e 31 3d 15 e2 a3 3c 3f 79 aa 3c c4 f9 a1 bc
       0.043333076 0.020005265 0.020809768 -0.019772418
000220 c6 92 93 3c 7b 48 d0 3c ba b0 56 bb 73 7d 87 3a
       0.018014323 0.025425186 -0.0032759146 0.0010337069
000230 8d 6b 89 ba be 23 d0 3c f2 fc 61 3c 69 ef a5 3b
       -0.0010484323 0.025407668 0.013793217 0.0050639403
000240 da 46 e1 bc c4 eb d2 3b ff 9c b1 bb 33 43 16 3d
       -0.027499605 0.006436797 -0.0054203267 0.03668518
000250 2d f1 9d bc ce 79 38 3c 41 4c 11 3d 64 b8 cd 3c
       -0.01928004 0.011259509 0.035473112 0.025112338
000260 24 c4 0d bd ef c5 91 b9 11 53 03 3b c4 5d 87 b9
       -0.034610882 -0.00027804027 0.0020038525 -0.00025819067
000270 7d ab d0 3c b0 e9 b7 bb 36 cd ca bb c4 6a 76 bb
       0.025472397 -0.0056125745 -0.006189014 -0.0037600258
000280 f5 d7 cc 3c 29 e4 30 3c 1d 5d c3 bb e7 cb 22 3b
       0.02500532 0.010796585 -0.0059620277 0.0024840774
000290 af 34 ca bc 3b 79 e8 3c 95 37 c1 bc cd b9 98 3c
       -0.024683325 0.02837812 -0.023586074 0.018643284
0002a0 06 f9 c6 bc 1c 4a ef bb e7 8e 8b bc c0 73 a0 3b
       -0.024288666 -0.0073025357 -0.017035915 0.004896611
0002b0 4f f4 ab bc 1b 2b 9f bc 6d f7 40 3c 96 10 c1 3a
       -0.020990519 -0.019429734 0.011777741 0.0014729674
0002c0 f5 63 ed 3c 21 fb b1 bb 4d 54 45 3b af 6a 1a 3b
       0.028978327 -0.005431548 0.0030110062 0.0023562124
0002d0 ed 6b 75 bc 2c 32 e2 bc ee 15 c7 3c ab bb 18 3b
       -0.014979345 -0.027611814 0.02430245 0.0023305218
0002e0 2e ee 2b bd 90 70 96 bb 40 d8 92 3b 88 67 7b 3c
       -0.041975193 -0.004591055 0.0044813454 0.015344508
0002f0 fc e0 36 bc 04 76 ff bc 46 98 cc ba 7c 1c e9 bc
       -0.011162039 -0.031184204 -0.0015609346 -0.028455965
000300 d5 49 12 bc 40 ee 07 3c 8d 79 69 bc ba 30 46 3c
       -0.008928736 0.008296549 -0.014250171 0.012096578
000310 2d fc 50 3c 45 d0 d5 3b 40 0e 6f bc c1 ed 11 3c
       0.012755436 0.006525072 -0.0145908 0.008906783
000320 9a 44 59 3c 08 d1 97 bb 73 fc 1c bd 77 54 46 3b
       0.013260985 -0.0046330728 -0.03832669 0.0030262747
000330 ab e3 ac bc cd fe 10 3d af e3 89 bc 51 b0 1f bd
       -0.021104654 0.035399247 -0.0168322 -0.038986508
000340 85 87 be bb cd 4f 8d 3c 95 64 15 3d 0a 54 cf bb
       -0.005814495 0.017249966 0.036472876 -0.006327157
000350 9c 6f a0 bb 01 4c cc 3c c9 45 ce bc 84 7d c8 bc
       -0.0048961174 0.024938585 -0.02517976 -0.024473913
000360 a0 36 90 bc 0f 52 8d ba 69 30 96 3c d2 26 40 3d
       -0.017604172 -0.0010781902 0.01833363 0.046912022
000370 6c 98 96 3c d0 1a d8 bb 07 1a 64 bd b1 6a c2 b9
       0.018383227 -0.006594993 -0.055688884 -0.00037082055
000380 1e 9d 7d bc e9 e2 c0 bc 83 1d 3d b9 64 71 84 3c
       -0.015479354 -0.0235457 -0.00018035439 0.01616735
000390 20 cd 80 3b 80 8f 79 3c fb 49 24 bd 98 86 93 3c
       0.003930703 0.015231967 -0.040109616 0.018008515
0003a0 b6 9f 8d ba 57 c6 3f bd 15 32 79 b9 49 27 10 3c
       -0.0010805044 -0.04682001 -0.00023765147 0.008798429
0003b0 c5 d8 d2 3c f6 f1 8d 3c ba 9c 40 bb 79 04 09 bd
       0.02573813 0.01732729 -0.0029390291 -0.03345153
0003c0 b4 f8 44 3c 37 4b e0 3c 60 f6 ad 3c 0b b3 ce 3a
       0.012022186 0.027379615 0.021235645 0.0015769912
0003d0 0b fa 04 bc e4 d5 b2 3c 79 a5 f6 3c 7c 3e e8 bb
       -0.0081162555 0.021830507 0.0301082 -0.007087527
0003e0 9b 6d b8 bb a5 60 14 bd 4b 80 0a 3d 1c ac f6 3c
       -0.0056283004 -0.03622498 0.033813756 0.030111365
0003f0 7a 7e 85 3c 2a b5 bd 3b b1 74 30 3c a6 33 58 3c
       0.01629566 0.0057894187 0.010770009 0.013195908

prompt_embeddings f4 [50, 896]
000000 ea ad e0 3c a3 ad 05 bc 9f 24 91 bc 18 e7 7f bc
       0.027426679 -0.008159074 -0.017717658 -0.015619062
000010 ef 25 36 bc 9a 13 ae 3c ea 64 67 3a 49 47 86 bc
       -0.0111174425 0.021249581 0.0008826988 -0.016391413
000020 12 4c 85 bb 4c 9e 62 3b 60 47 b3 bb 30 53 ab bc
       -0.004067906 0.0034579216 -0.005471155 -0.02091369
000030 f1 b1 ee bc 94 af b7 3a bc f0 98 3c 90 5c 9e 3c
       -0.029137583 0.0014014118 0.018669479 0.019331247
000040 c4 d0 33 3c fd 24 00 3c aa 63 1b 3b 88 26 95 bc
       0.010975067 0.007821319 0.0023710527 -0.01820685
000050 43 f1 1c 3c 5d 3b 9d 3c fc 60 8e 3b db bf 1e 3c
       0.009579006 0.019193346 0.0043450575 0.009689297
000060 d3 dd d6 bc eb 5c 8a bc c1 e5 0a bc 7b f1 af 3c
       -0.02622882 -0.01689001 -0.008477629 0.021477452
000070 db 3b 3a bc 02 69 a5 bc 43 11 86 3c 56 ec df 3b
       -0.01136681 -0.020191673 0.016365653 0.0068335934
000080 45 bd c5 ba e4 97 2f 3c 8c 1b cb 3b b8 da 28 3c
       -0.0015086314 0.010717366 0.006198352 0.010306053
000090 47 e8 f1 bb d2 57 c0 bb 43 9d d4 bc 2e 5c ad bc
       -0.007382426 -0.005869844 -0.025953894 -0.021162119
0000a0 a1 95 40 bc e9 eb 24 bc 67 c8 87 3b bc 4a 30 3b
       -0.011754424 -0.010066011 0.004143763 0.0026900014
0000b0 e7 90 fb bc d8 5c 92 bc b8 49 99 bc 83 22 e2 bb
       -0.030708743 -0.017866537 -0.01871191 -0.006901087
0000c0 7a 98 01 bd e7 f2 9e 3c 40 f8 5a 3c de 13 65 3b
       -0.031639554 0.019402934 0.0133648515 0.0034954469
0000d0 02 fa 4e bc 8e 92 ba bc 09 1c 28 bc 89 22 aa 3c
       -0.012632849 -0.02277496 -0.01026059 0.02076842
0000e0 d9 e9 19 bc 44 f0 46 3a 71 84 61 3c 36 a8 fb bb
       -0.0093941325 0.0007588903 0.013764487 -0.0076799644
0000f0 0b 52 1a bb d2 87 21 bc a9 92 ae bb 30 e3 ec bc
       -0.0023547437 -0.009859042 -0.005327542 -0.028916925
000100 9d 39 73 3b c7 23 44 bc 93 9e 02 3c 04 e7 94 3c
       0.0037113198 -0.011971421 0.007972377 0.018176563
000110 32 8b bd 3c be 7d 32 3a b1 98 73 bb 11 b8 72 bc
       0.023137663 0.0006808898 -0.0037169869 -0.014814393
000120 07 18 27 bc 6e 5d 0c 3c 90 c9 bc ba 78 28 ed bb
       -0.0101986 0.008567197 -0.0014403332 -0.0072374903
000130 bc df 53 bb bd 47 21 3c 10 04 c2 3b 0d 29 11 3c
       -0.00323294 0.009843764 0.0059208944 0.008859885
000140 79 9d 65 3b 83 6a b6 bc d3 e5 f5 3b ee 13 a0 bb
       0.0035036488 -0.022267586 0.007504204 -0.0048851883
000150 f1 c2 fb bc 69 4a 5d 3b 29 35 6f bc 88 68 89 bc
       -0.030732604 0.0033766276 -0.014600077 -0.016773477
000160 71 c2 b1 bc cd d0 a0 3b 60 aa 18 bc 55 58 5b bb
       -0.021699162 0.0049077035 -0.009317964 -0.0033469398
000170 69 32 f2 3b 37 2a d3 bc 5e 70 f3 3c be a6 98 bc
       0.0073912633 -0.025776966 0.029716667 -0.018634196
000180 9a e4 0e 3b 4d 39 13 3c 87 d9 d6 ba 20 e9 2c ba
       0.0021803738 0.00898583 -0.0016391732 -0.00065960176
000190 c2 07 b1 3b 5f 4a 6a 3c 15 a8 d3 3c a0 fe 66 3a
       0.005402536 0.014299958 0.025836984 0.0008811746
0001a0 45 fb c1 bb fd 26 95 3c d2 b2 72 bc 6d e4 16 3c
       -0.0059198462 0.018207068 -0.014813142 0.009209734
0001b0 55 d7 f3 39 aa 96 f6 bb 7f 09 86 3c 56 b7 a0 3b
       0.00046509007 -0.007525285 0.01636195 0.004904668
0001c0 cf 97 93 bc d5 89 41 3c e1 e7 7e 3b c4 50 8b 3c
       -0.018016724 0.011812647 0.0038895535 0.017006285
0001d0 34 c2 12 bb a7 f3 d8 bc b9 2f 83 3c 49 76 4b 3a
       -0.0022393586 -0.02648337 0.016013967 0.00077614613
0001e0 d0 7e e0 bb 0e 24 a9 3b 9c cb 14 3c e2 cc 1f bc
       -0.0068510547 0.0051617688 0.009081747 -0.009753438
0001f0 66 6d 06 bd 82 75 3e 3c 6d 2f 51 bc dd 0f 90 bc
       -0.032819174 0.011624696 -0.012767655 -0.01758569
000200 d1 15 9d bc 8b 5a 9b bc 9e b7 e5 3b 91 54 6a bb
       -0.019175442 -0.018964073 0.0070104143 -0.0035755972
000210 c9 65 92 3b 43 24 a2 3b ce e2 73 3c 81 32 25 3b
       0.0044677 0.0049481704 0.014885617 0.0025207105
000220 a3 6e e7 3a ce b8 34 bc 9b 90 25 bc cd 7a 05 3c
       0.0017656874 -0.011030389 -0.010105277 0.008146954
000230 05 84 2a bc 29 5f cc 3c 72 22 4a 3c 6d 02 7d bc
       -0.0104074525 0.02494772 0.012337314 -0.015442473
000240 6b 40 90 3b 0e e8 db 3c 84 cc 1e 3c 6a fb 93 bc
       0.0044022105 0.02684405 0.009692315 -0.01806422
000250 70 a5 95 bc f0 81 71 bc 48 63 7c 3c 19 76 d5 3c
       -0.018267363 -0.014740452 0.01540453 0.02605729
000260 7d 6b bb 3c 5f bb 9c bc 94 a7 46 3a 8d 62 65 3b
       0.022878403 -0.019132314 0.00075780717 0.0035001368
000270 c3 87 47 3c 61 7b 9f 3c 75 dc cb 3a f2 a5 83 bc
       0.012178364 0.019468011 0.0015553372 -0.01607034
000280 49 f1 a6 bb bd e6 8b bb 46 37 25 bb 90 d1 f5 3c
       -0.0050946814 -0.0042694495 -0.0025209947 0.030007154
000290 59 13 0f 3c c3 a3 f9 3b 47 d4 a6 3c 61 08 28 bb
       0.00873264 0.007618399 0.020364894 -0.002563976
0002a0 1c f0 fd 3b c5 28 d5 3b 82 fc 83 bc dd 2a 37 bb
       0.0077495705 0.0065051042 -0.016111616 -0.0027949132
0002b0 b2 e4 98 3c 16 db ad 3c 67 d3 2d 3c 4f 00 2e 3c
       0.018663738 0.021222632 0.010609484 0.010620191
0002c0 6e 4c 3f bb f3 0f 01 bd bb c4 86 bb 86 f4 e5 bc
       -0.0029189843 -0.03150935 -0.0041128076 -0.0280707
0002d0 95 cd 06 3d 1a 62 98 bc 03 ba 4a 3b 39 c7 1c bb
       0.032910902 -0.018601466 0.0030933626 -0.0023922457
0002e0 1c 29 4f bb 2d f4 0d 3c 21 ec d9 3c 6d ca 88 3c
       -0.0031610196 0.008664173 0.026601853 0.016698087
0002f0 89 05 5d bc f1 59 f1 3b 96 55 be 3c 19 e6 7f 3c
       -0.013490089 0.007365458 0.02323417 0.015618824
000300 7e 09 86 bc af 7c 5d bc 83 60 3d bb ee d4 6e bc
       -0.016361948 -0.013518496 -0.0028896637 -0.014577134
000310 f8 84 12 bb 7c cf 40 bc 91 bb 4b 3c bf d0 2c 3c
       -0.0022357088 -0.011768218 0.012434856 0.010547816
000320 9c f2 8b bb 2c 0c b3 3b f5 c5 8e 3c 06 3a b6 bb
       -0.0042708647 0.0054640975 0.017428378 -0.005561116
000330 76 48 af bc 9f 76 74 bb fe 17 32 3b 80 5a 7f bb
       -0.021396857 -0.003730215 0.0027174945 -0.0038963854
000340 d2 4f 73 3b 97 a8 93 bc 36 b2 64 bb 0c 56 8e 3c
       0.0037126434 -0.018024726 -0.003489626 0.017375015
000350 ef 72 a4 bc 6c 22 ae 3c 67 04 a6 bc e3 05 22 3c
       -0.020074336 0.021256648 -0.020265771 0.009889099
000360 db ae aa bb 0b df 90 bc 18 af 04 bc af 18 ab bc
       -0.0052088327 -0.01768448 -0.008098386 -0.020885793
000370 51 7a 03 b9 d7 3a 83 3c 9e b6 4c 3c 6c 1c 97 3b
       -0.000125387 0.016019268 0.012494711 0.0046115424
000380 02 1d 6e bc d3 03 07 3a 60 6b 73 3c 68 a6 21 bc
       -0.014533283 0.0005150411 0.014857143 -0.0098663345
000390 27 ab 30 bc 18 21 25 bc 54 97 91 bc fc e1 53 bc
       -0.010782993 -0.010078691 -0.017772354 -0.012932297
0003a0 3c 5a 26 3c 33 b6 c0 3b 4e ef b7 ba 0f 0b 7a 3b
       0.0101533495 0.005881095 -0.001403311 0.0038153564
0003b0 0f ec e0 bb cf 81 8c 3c ac 92 60 bc 28 98 5c bc
       -0.006864078 0.017151741 -0.013706844 -0.013464011
0003c0 06 46 8d 3c c4 8c 32 bc d2 59 44 bc b5 8c 84 bc
       0.017245304 -0.010897819 -0.011984305 -0.016180376
0003d0 1b e7 60 3a 1b af 82 bc 12 49 bb bc 9b c0 89 3c
       0.0008579359 -0.015952637 -0.022861991 0.016815474
0003e0 cc 0a bf bb 36 40 92 bc 21 ef 6c 3c 60 85 c6 bb
       -0.0058301445 -0.017852884 0.01446131 -0.00605838
0003f0 f7 fb f3 bb 1c 51 77 3c ef f0 98 3c 1b 52 5f bc
       -0.007445808 0.015095022 0.018669574 -0.013630415
