PEFT-PT/modelo_juridico_prompt_tuning/checkpoint-206/adapter_model.safetensors (safetensors, 71800 bytes, 1 tensors)

prompt_embeddings f4 [20, 896]
000000 fd 71 ab 3c 57 ec 2d 3d 78 92 ae 3d b3 ff 71 bc
       0.020928377 0.04246172 0.085240304 -0.014770436
000010 4d 6d ac ba d9 17 87 bb 84 be b3 bc 90 3f 41 3c
       -0.0013155133 -0.004122716 -0.02194143 0.01179494
000020 3e 18 84 3c dc 87 84 bd fa 3b b5 bd 20 16 e3 bc
       0.01612484 -0.064712256 -0.0884933 -0.027720511
000030 08 26 12 bd 72 78 2c 3c 61 7d 5f 3c 1e ba bc ba
       -0.0356808 0.010526763 0.0136407325 -0.0014398729
000040 4d 9b 56 3d fd e3 44 bd c4 93 8a 3d 7f be 2e bd
       0.0523942 -0.04806899 0.06766465 -0.04266214
000050 0f 77 59 3d 71 5f 03 3e 75 cb 1e 3d da bc 14 3d
       0.05309206 0.12829377 0.03876825 0.036312915
000060 6e ed 20 bd 6d b1 34 3d 36 2d b6 bc c1 b8 0b bb
       -0.03928893 0.04411452 -0.022238355 -0.0021319839
000070 cc be f9 3c 43 fd 3c bd 89 64 65 bb f7 b4 c1 3b
       0.030486487 -0.046139967 -0.003500255 0.0059114653
000080 1e 1d 85 bd 74 7e 34 3c fc 99 d2 bc 45 6b 5b bc
       -0.06499694 0.011016477 -0.025708191 -0.013392274
000090 19 48 04 bd 6a 35 5a bd af 2e 33 bd 63 ce b2 bd
       -0.03229532 -0.053273596 -0.043745693 -0.087307714
0000a0 16 2d fc 3c a1 96 01 3d 24 e7 10 bc f2 d8 a9 3d
       0.030783217 0.03163779 -0.008844171 0.08293332
0000b0 0a 41 9f bd 8c 54 bc ba 7b 0d 20 bc 45 e1 46 bd
       -0.07776077 -0.0014368459 -0.009768839 -0.048554678
0000c0 27 89 35 bd 59 71 05 3d 1c f0 42 3d 56 5d 9b bc
       -0.04432025 0.0325788 0.047592267 -0.018965404
0000d0 78 98 83 bd c5 f9 d7 bc 72 d5 bc 39 5e 58 9c 3d
       -0.064255655 -0.026364217 0.00036017183 0.07634042
0000e0 cb e2 ca ba 30 8d bd 3c a7 b1 b6 3c 73 ed 2d bd
       -0.0015478967 0.023138613 0.022301508 -0.042462777
0000f0 3a 2a 5e bb 43 2b 62 bc 0f c0 31 bd f3 bb 8c bc
       -0.003389968 -0.01380426 -0.043396052 -0.017179465
000100 2a 62 e7 bb 48 35 ce bc c4 94 75 bd 1b 01 46 3d
       -0.0070612626 -0.02517189 -0.059956327 0.048340898
000110 ea 00 ed bb 93 ec b6 3d 37 6f e1 3b e1 cf e0 3c
       -0.007232775 0.08931842 0.006879713 0.027442874
000120 18 3a e2 3c 1c f8 3c 3d 9e 46 81 3c 8e b7 f6 3b
       0.027615592 0.046135053 0.015780743 0.0075292056
000130 5b 8c 06 3d f7 48 7b 3d 7f 9f 6b 3b af 91 36 bd
       0.032848697 0.06134888 0.0035953221 -0.04457253
000140 d4 5e 69 bb 67 c2 12 bd aa ae da 3c 4a 6e 10 bd
       -0.00356095 -0.035829928 0.026694614 -0.03526143
000150 04 6e a7 bd c4 d5 aa 3c b8 2e 5b bc 12 56 30 bd
       -0.08175281 0.020853885 -0.013377838 -0.043050833
000160 0a e8 02 3b 5a d9 0e 3d 83 0d 4c bc cd f2 1b 3d
       0.0019974732 0.03487525 -0.012454393 0.03807335
000170 e8 18 2b 3c 8e 95 05 bd cb 7e 06 3e 26 3a 14 bd
       0.01044295 -0.03261333 0.13134305 -0.036188267
000180 4d 3c e2 3c ac ed 85 3c 67 6b 57 bd 66 2b 4c bd
       0.027616644 0.016348682 -0.05259266 -0.049846075
000190 ef b7 77 3d 5c f1 85 3c 03 72 5a bd b5 09 1f bd
       0.060478147 0.01635044 -0.053331386 -0.038827617
0001a0 2c e2 0b bd 69 5d 2a 3d 0d d9 6a 3d 38 a3 fa 3c
       -0.03415124 0.04159299 0.057335902 0.030595407
0001b0 90 a9 c8 3c b2 e3 16 3d 9a 9e 70 bd 46 61 0a 3d
       0.024494916 0.03683824 -0.058745004 0.033784173
0001c0 5e b6 7d bc 5e da eb bb 3a 0f a5 bc 20 97 46 bd
       -0.015485374 -0.0071976623 -0.020148862 -0.048483968
0001d0 a3 bd 16 bc 1a fb a8 bb e2 82 79 3c 15 76 53 3d
       -0.009200486 -0.0051568868 0.015228959 0.051626284
0001e0 02 7a 0a bd b7 5f c1 3c 97 7a 09 3d f2 ba 1e bd
       -0.033807762 0.02360521 0.033564176 -0.038752504
0001f0 c1 0a 98 bc 68 b0 d2 3b e4 8e 54 bd 43 32 47 bd
       -0.018559815 0.0064297207 -0.051894084 -0.048631918
000200 41 2a 5d bb f9 cc c2 3c 96 ae c9 3d 68 aa b7 bd
       -0.003374711 0.02377938 0.09847753 -0.08968049
000210 ab ab 3a bd 38 a1 e5 3c 07 76 dd 3d 17 0e ec 3b
       -0.04557387 0.028030977 0.108135276 0.007203828
000220 e3 7f 3f 3d fc d8 a6 bc a0 1b 92 3a 4e 1d 49 3d
       0.04675282 -0.020367138 0.0011147149 0.049100213
000230 47 0f 09 bd 88 60 b7 3c f1 80 9d bc 4a b3 27 bd
       -0.033461835 0.022384897 -0.019226523 -0.040942468
000240 51 6a 7c bc 50 97 97 3c 17 1d c4 bc 52 13 a3 bb
       -0.015406207 0.018504769 -0.023939652 -0.0049766684
000250 07 5f 2a bd 8c 17 4e 3d bd a6 b5 bc 40 c3 89 bd
       -0.04159453 0.050315425 -0.022174234 -0.06726694
000260 cb 7e 50 bb 13 d7 cb bc 46 a6 79 bd f6 af a3 3b
       -0.0031813856 -0.024882829 -0.060949586 0.0049953414
000270 63 0e 7a 3c 79 71 75 3d 71 4e a6 bc 29 fb a4 bd
       0.015262219 0.05992267 -0.020301076 -0.080557175
000280 69 ef 54 3c e3 fa b7 3b 00 7d a7 39 3e d3 5a 3d
       0.012996533 0.005614625 0.00031945854 0.053424112
000290 db 57 35 3d 01 c6 f3 bc ee 37 67 3d 11 87 02 3d
       0.04427324 -0.029757502 0.056449823 0.03186709
0002a0 63 c7 b7 3d 62 fa 2b bc 8c d8 40 bd c8 91 1d bd
       0.08973577 -0.010496708 -0.047081515 -0.038469106
0002b0 e3 9e 05 3d cc 03 8c 3d a8 59 aa 3d 02 0c 2f 3d
       0.03262223 0.06836662 0.08317882 0.04273606
0002c0 6f e6 a1 3c 6c 30 31 3d f2 be 13 bd 25 57 94 3c
       0.0197632 0.04325907 -0.03607077 0.01810796
0002d0 43 ab 9b 3c ff 3e 9e 3b 11 02 cd bc a9 8b db bc
       0.019002562 0.004829287 -0.0250254 -0.026799994
0002e0 ed dd 2c bb 4f f8 b7 3b df 28 6c 3c 80 d0 a4 3c
       -0.0026377395 0.0056143175 0.014414041 0.020118952
0002f0 01 f0 96 bd 32 a5 3d bd c4 fc 46 3d 35 75 19 3c
       -0.07369996 -0.04630012 0.0485809 0.009366323
000300 15 19 7c bc d9 4b d1 3c 38 ee 5f bd 6d f9 e5 3c
       -0.015386839 0.025548862 -0.054670542 0.028073037
000310 dd 7f 28 bc e4 02 f1 bc e2 12 0a 3d 33 ca 7c 3c
       -0.010284391 -0.029420324 0.033709414 0.015429067
000320 9a 6c ed bc 10 cb ff bd 6c 74 31 3d 2e 51 11 bd
       -0.02898245 -0.12489903 0.04332392 -0.03547781
000330 c3 dc cc bc fd fa 52 bc 18 f5 4c 3d f7 42 b2 3c
       -0.025007611 -0.012877223 0.050038427 0.021760447
000340 b2 a9 4e bd 69 4d 1b bc d9 11 8f 3c 03 bb b2 3d
       -0.050454803 -0.009478905 0.017464565 0.08727076
000350 84 ef e5 3b 91 d0 46 3d 70 c9 38 bd 16 08 a2 bc
       0.007017078 0.04853875 -0.04511398 -0.019779246
000360 d3 60 44 bd 3d 02 28 bc a5 76 c9 3a 34 03 a8 bc
       -0.0479439 -0.01025444 0.0015370442 -0.02050934
000370 0e e5 86 3c 08 ff 9a 3d 76 d3 a2 bc 5c 23 bb bd
       0.016466644 0.075681746 -0.019876223 -0.09137604
000380 8b d1 c0 bb 60 81 07 3b 79 ce c6 3b a4 4e 7c bc
       -0.0058843545 0.0020676479 0.006067094 -0.015399609
000390 b8 26 0c bd f0 bf 47 bd 36 eb 85 3d 39 30 3d 3c
       -0.034216613 -0.04876703 0.065390036 0.011547142
0003a0 ce 0b 0c 3d 56 e1 d6 bb 4f d9 e4 bc 79 b1 68 3d
       0.034190945 -0.006557624 -0.027935652 0.056809876
0003b0 d3 bb 37 3c 26 4b 09 3d 73 86 96 ba 5d 08 a8 3b
       0.011214214 0.033518933 -0.0011484161 0.00512795
0003c0 e2 13 34 3d 89 0c 6c bd 20 ae 88 bd ee 14 d5 bc
       0.043964274 -0.057629142 -0.06673837 -0.026010957
0003d0 a4 7c 84 bd 58 0e e4 bc 0f cb 04 bd 84 a8 26 bc
       -0.06469086 -0.02783887 -0.032420214 -0.010172013
0003e0 0f 35 e8 bb 48 0d 7f bd 03 b6 53 3d 8a 6e 06 3c
       -0.007086403 -0.062268525 0.05168725 0.0082050655
0003f0 77 76 45 bd bb bd 14 bd 7a 4d 14 3d 7c 5b c4 bc
       -0.04820868 -0.036313754 0.0362067 -0.023969404
