PEFT-PT/modelo_juridico_prompt_tuning/checkpoint-1236/adapter_model.safetensors (safetensors, 211664 bytes, 2 tensors)

base_model.score.weight f4 [9, 896]
000000 d8 21 13 bd d1 8d ce 3b 29 fa 10 3d f8 87 a9 bc
       -0.035920948 0.006303527 0.03539482 -0.020694718
000010 fe df 9c b7 b9 0d 69 bc 2e 19 e1 bc 51 b6 e4 3c
       -1.8700954e-05 -0.014224463 -0.027477827 0.027918966
000020 c2 93 57 bc 3a 86 d7 bc 1a 40 d7 bc 00 9e ba 3c
       -0.013157787 -0.026309121 -0.026275683 0.022780418
000030 61 29 0c bc 73 b8 9a 3c e0 54 a0 3c 85 bb e2 3c
       -0.008554787 0.01888678 0.019571722 0.027677307
000040 8b 3c 12 3d 43 82 85 bc 7f b7 4d bc d6 c5 2c 3c
       0.03570227 -0.016297465 -0.012555956 0.010545215
000050 93 21 a0 3c 24 80 0f bb 9b c3 84 3b 2d a5 06 bd
       0.01954726 -0.0021896446 0.0040516383 -0.032872368
000060 bf 79 bf 3b 9e fc 6c bb 99 17 1f 3b ae 91 0a ba
       0.0058433707 -0.0036161314 0.002427554 -0.000528599
000070 fa 20 26 bc 85 ed d1 3b 56 1d fa bb 01 08 2c 3d
       -0.010139698 0.0064064884 -0.0076328916 0.04199982
000080 c0 62 3f 3a d4 8d 85 bc dd c7 15 3d cf f2 2f 3b
       0.00073007867 -0.01630298 0.036567558 0.0026847606
000090 d0 d2 e8 3c 86 a4 88 bc 91 32 ad 3c e4 0c 1d bd
       0.028420836 -0.016680013 0.021142276 -0.03834237
0000a0 97 ba 3c 3c 80 4c 84 3c 1a bf c4 3c b9 b7 0c 3c
       0.011519096 0.01614976 0.024016906 0.008588725
0000b0 b6 9d 75 3a cb 23 48 bc f0 53 38 3b ef 54 c9 3c
       0.0009369509 -0.012215565 0.0028126203 0.024576632
0000c0 6e bb 18 3c b6 13 c0 3c 69 54 2f 3d b7 69 fc bb
       0.0093220305 0.023446899 0.04280511 -0.007703032
0000d0 71 7f 87 bc f1 4b 26 3c 46 a7 1c 3d 74 14 bb b8
       -0.016540261 0.010149942 0.038245462 -8.9206645e-05
0000e0 09 c3 d3 bc aa bc 87 3c 8c a4 a0 3c 1b b3 d6 3c
       -0.025849836 0.016569454 0.019609712 0.026208451
0000f0 d5 5c a0 3b de 15 f3 3c 9c 14 25 3c ae f4 5d 3c
       0.004893879 0.029673513 0.010075714 0.013547106
000100 46 4e 0c bc 39 b0 c2 3c ee 87 06 3c 1d 3e fb bc
       -0.008563584 0.02376567 0.008211119 -0.030669266
000110 8f 08 5f bc 77 f0 fa 3c df 1c 4e bd 4c a2 2d bc
       -0.01361288 0.03063224 -0.050320502 -0.010597777
000120 ec 40 97 bc 18 f4 fb 3b 50 2c 06 3d 48 48 f3 bc
       -0.018463574 0.0076890104 0.032757103 -0.029697552
000130 3d 5c b7 3b ac be 4d 3b da 5c 8b bd f2 41 0f 3b
       0.0055957125 0.0031394167 -0.068048194 0.0021859375
000140 59 e4 97 3b 1f 93 01 3c 2b 55 50 bc 6d df 24 3d
       0.0046353755 0.007908612 -0.012715618 0.040252138
000150 13 d5 bb bc a9 72 08 3c 26 0e da 3c cb 01 aa bc
       -0.02292875 0.008328118 0.026618075 -0.020752808
000160 5a 89 c2 3c e5 8e cb 3c 93 d7 86 3c 67 10 10 bd
       0.023747135 0.02484841 0.016460216 -0.035171892
000170 46 67 6d bc fc 7e 39 ba 87 4f 83 bc f6 3b d2 bc
       -0.014489954 -0.0007076112 -0.016029133 -0.025663357
000180 5e 4d 18 bc 79 70 77 3b 02 2f 1b 3d 48 3e 2d 3b
       -0.0092957895 0.0037756248 0.037886627 0.0026434828
000190 16 1a 8e 3b 60 fa 54 ba db 1f 89 3c cc b0 91 3c
       0.004336606 -0.0008124467 0.016738823 0.017784499
0001a0 c6 68 01 3c 34 0e 04 bb 4c 49 b8 3b a2 19 4c bc
       0.007898515 -0.0020150067 0.005623972 -0.012457283
0001b0 92 b9 28 3d 8c 9e 1b 3c 0c f4 78 bc f4 a4 99 bc
       0.0411926 0.00949825 -0.015194904 -0.018755414
0001c0 ce 86 39 bd 14 c5 39 bc 8e 4d d9 3b 65 e3 d3 bc
       -0.045294575 -0.011338491 0.0066315597 -0.025865266
0001d0 96 ae 47 3b 73 83 9a b9 a1 05 bd 3c 11 6c b4 3c
       0.0030469052 -0.00029471106 0.023073973 0.022024186
0001e0 c0 1a 7f bc bc 29 dd 3c c9 d9 d3 3c 96 e7 ee 3a
       -0.015570343 0.02699744 0.025860684 0.0018226977
0001f0 19 9d 87 3c eb c5 b8 3c 83 3d 4d bd e8 3e 5d bc
       0.016554402 0.022555312 -0.05010749 -0.013503768
000200 85 83 aa ba 58 07 8a bc b2 36 db bc 76 b9 20 3d
       -0.0013009167 -0.016849205 -0.02675948 0.03923937
000210 ce 1d 2a 3d f4 0b b9 3c fc 05 2f 3c c0 06 c1 bc
       0.04153233 0.022588708 0.010682579 -0.023562789
000220 52 c0 93 3c e8 2a 02 3d 7c 42 87 bb b8 42 35 ba
       0.018036041 0.0317792 -0.0041277986 -0.0006914544
000230 b8 8f 64 3b 00 4a 91 3c a2 1b 33 3c a4 6a 8f 3b
       0.0034875702 0.017735481 0.010931881 0.004376726
000240 61 53 d6 bc 5f b1 65 3c a6 56 95 bb ad 8e 12 3d
       -0.026162805 0.014019339 -0.0045574484 0.035780597
000250 5b 3c ae bc cd 63 41 3c bc f2 3c 3d 28 ee e8 3c
       -0.021269014 0.0118035795 0.046129927 0.028433874
000260 23 a0 35 bd f1 99 90 3a 0a f1 58 3b 2a ff 5b bb
       -0.04434217 0.0011032206 0.0033102655 -0.0033568838
000270 00 26 5f 3c 9a d5 f4 bb fc 0a e6 bb 09 8e 21 bb
       0.0136199 -0.0074717524 -0.0070203524 -0.002465131
000280 ed 94 d3 3c 46 fc 01 3d 14 2f ef bb f3 69 a4 3b
       0.02582785 0.031734727 -0.0072993133 0.005017513
000290 c8 55 40 bc bf b5 d8 3c fc a0 d5 bc 2e 5d 3b 3c
       -0.011739202 0.02645385 -0.02607774 0.01143579
0002a0 81 02 ce bc c1 0e f2 ba 33 76 4c bc 3e 91 19 3b
       -0.025147678 -0.0018467532 -0.012479353 0.0023432518
0002b0 36 d6 2e bc 18 e0 a5 bc 56 58 a3 3b a2 9d a6 3a
       -0.010671189 -0.020248458 0.0049848957 0.0012711773
0002c0 9f 16 2e 3c 7e b0 a6 ba 80 c4 6b bc 18 4a 10 3b
       0.0106255105 -0.0012717394 -0.014390111 0.002201682
0002d0 51 20 74 bc 79 a1 18 bd 79 93 f4 3c ea 17 43 3b
       -0.014900283 -0.037263367 0.029855477 0.0029768893
0002e0 d7 3e 38 bd b1 58 2a bc ee 4a b9 3c fa b7 80 3c
       -0.044981804 -0.010397122 0.022618737 0.015712727
0002f0 04 35 40 bc f2 4a e8 bc 3f 45 41 bb 41 68 d9 bc
       -0.01173139 -0.02835605 -0.0029490737 -0.02653897
000300 ec 1a 6e bc 29 83 4e 3c 6f 30 ae bc 36 17 6a 3c
       -0.014532786 0.012604513 -0.02126333 0.0142877605
000310 28 42 94 3c 71 a5 11 3c a5 19 5d bc db 49 15 3c
       0.018097952 0.008889542 -0.013494884 0.009111847
000320 bb e8 61 3b 0a 45 20 bc a5 56 f5 bc ae c0 7d 3b
       0.0034470994 -0.009782085 -0.029948542 0.0038719582
000330 2d 68 9d bc a7 c0 2c 3d ac 88 6e bc 56 54 20 bd
       -0.019214714 0.042175915 -0.014558952 -0.03914293
000340 f6 17 cc bb 14 99 8e 3c 76 ae 0d 3d 2a 4e 10 bc
       -0.0062284423 0.017406978 0.034590207 -0.008807698
000350 59 7b 94 bb 24 c3 c0 3c 5d c6 d0 bc 4e da cb bc
       -0.0045313057 0.02353055 -0.025485212 -0.02488437
000360 95 16 93 bc 79 0a aa 3a 84 e1 83 3c 02 65 46 3d
       -0.017955104 0.0012973092 0.016098745 0.048436172
000370 ee 64 bd 3c fb 78 b2 bb 0e b2 6d bd 28 2b c8 bb
       0.023119416 -0.005446551 -0.058031134 -0.0061086603
000380 ce b8 7b bc 6e c5 be bc da b0 82 b8 52 38 34 3c
       -0.015363885 -0.023287501 -6.231824e-05 0.010999756
000390 76 69 b5 3a 2f 17 2d 3c a0 3b 23 bd aa 0e 90 3c
       0.0013840634 0.010564609 -0.039851785 0.017585117
0003a0 75 b0 b7 bb d0 0e 3b bd 96 b2 1b bc bb 48 10 3c
       -0.005605752 -0.045668423 -0.009503027 0.008806403
0003b0 91 f1 f6 3c f6 82 a2 3c 82 ef c5 bb b3 84 06 bd
       0.030144485 0.019837838 -0.0060405144 -0.032841396
0003c0 af 6a 0c 3c 25 7f de 3c 12 7a b7 3c 7b 8e 58 3b
       0.008570357 0.027160237 0.022397075 0.003304391
0003d0 f6 aa fb bb e5 32 db 3c 1c fc 05 3d 2f 4d bf bc
       -0.0076802922 0.026757667 0.032711133 -0.023352234
0003e0 94 a3 79 bb cb d1 2e bd 44 07 f1 3c 01 bf 01 3d
       -0.0038091885 -0.042680543 0.02942241 0.031676296
0003f0 fc 92 3d 3c 9e d2 45 3c a3 98 8d 3c 50 df 56 3c
       0.011570688 0.012074141 0.017284697 0.013114765

prompt_embeddings f4 [50, 896]
000000 65 2e eb 3c 0e 51 ea bb 65 83 8a bc 3a 0e 41 bc
       0.028708646 -0.0071507758 -0.016908357 -0.011783177
000010 cd ab 45 bc 60 ca b8 3c 42 8c a2 ba e7 d6 91 bc
       -0.012064886 0.022557437 -0.0012401419 -0.017802669
000020 b1 5d d1 bb 6b 3a 9d 3b 7b e0 d7 bb 7c 70 ae bc
       -0.0063893427 0.0047982237 -0.0065880395 -0.021293871
000030 e9 1a 00 bd a6 eb ca b9 52 14 a5 3c 85 c6 98 3c
       -0.031275664 -0.00038704014 0.020151291 0.018649349
000040 85 4c 22 3c 5d ad df 3b 10 41 24 3b 01 ba 9d bc
       0.009905939 0.0068260864 0.0025063194 -0.019253733
000050 8d 16 36 3c 02 28 9d 3c 49 41 30 3b b3 dd ed 3b
       0.011113775 0.019184116 0.0026894382 0.0072590946
000060 08 86 f9 bc 59 27 91 bc 9a 3c 32 bc 52 f1 e7 3c
       -0.030459419 -0.017718958 -0.010878706 0.028313313
000070 26 91 5e bc e5 07 b7 bc f2 9f 98 3c 1b f5 d8 3b
       -0.013584411 -0.022342632 0.018630955 0.0066210157
000080 36 66 39 bb ed 68 2e 3c b5 54 f1 3b 46 e8 22 3c
       -0.0028289682 0.010645133 0.007364834 0.009943074
000090 b5 22 15 bc 62 81 c1 bb c8 fa eb bc 1a 0e 9c bc
       -0.009102513 -0.005905316 -0.028806105 -0.019049693
0000a0 9d 72 22 bc de 66 40 bc b7 2d b2 3b cb ca 63 39
       -0.009915021 -0.011743275 0.0054375785 0.00021723953
0000b0 64 46 06 bd 78 4b 91 bc d1 40 90 bc f3 47 10 bc
       -0.032781973 -0.017736182 -0.017609032 -0.0088062165
0000c0 bd 6c f0 bc 1c 12 a3 3c c3 84 8b 3c 03 db 3b bb
       -0.029348725 0.019906096 0.01703108 -0.0028664477
0000d0 31 5a 64 bc 71 0c b3 bc b4 e4 63 bc 2c 4b a5 3c
       -0.013937519 -0.021856518 -0.013909508 0.020177446
0000e0 67 5a 14 bc 02 76 6d 3b f8 f0 3c 3c ef 61 d4 bb
       -0.009054757 0.0036233668 0.011532061 -0.006481401
0000f0 80 9b 60 bb ad e1 3e bc 56 50 9f bb 74 b8 f1 bc
       -0.0034272373 -0.011650485 -0.0048618717 -0.0295069
000100 fc d2 34 3b 05 57 1d bc b5 52 2d 3c 2b f7 8b 3c
       0.0027591577 -0.009603267 0.010578801 0.017085632
000110 1e dd f9 3c 40 22 3d bb d2 f3 3d ba a7 e2 8e bc
       0.030500945 -0.0028859526 -0.000724611 -0.01744206
000120 89 0f 6d bc 34 03 39 3c 58 60 cb ba a0 55 09 bc
       -0.014469036 0.011292268 -0.0015516384 -0.008382231
000130 71 97 02 bc 2e 47 37 3c a8 8f 17 3c ed 1b 39 3c
       -0.007970677 0.011186404 0.009250559 0.011298162
000140 e4 48 f3 3b 35 ad a9 bc 5f 05 17 3c 72 16 df bb
       0.0074244607 -0.020712474 0.009217589 -0.0068080956
000150 22 6f 0b bd 3b 6b 8a 3b 92 21 60 bc ed f5 97 bc
       -0.03404153 0.0042242086 -0.013679879 -0.018549884
000160 05 8e e9 bc 47 ff 93 3b a6 30 4b bc 78 c0 81 bb
       -0.028510103 0.0045165154 -0.012401735 -0.0039597116
000170 5d d5 df 3b bb b6 be bc 80 d2 ee 3c 8b bf 89 bc
       0.006830855 -0.023280492 0.029153109 -0.016814968
000180 b4 1e 0f 3b 67 25 05 3c 7c 24 9a 3b 20 e7 a6 3a
       0.002183837 0.008126593 0.0047040563 0.0012733676
000190 c8 5a e5 3b 93 6d e4 3b eb 24 c5 3c e0 a4 29 bb
       0.0069993474 0.00697107 0.024065455 -0.0025885627
0001a0 9b 0b 9a bb eb b9 a0 3c 43 b6 6b bc 9e 8f 1f 3c
       -0.0047010905 0.019619903 -0.014386716 0.009738831
0001b0 fc 35 ad 3a 52 95 e4 bb d6 86 86 3c d7 9e 9f 3a
       0.0013214941 -0.006975808 0.016421717 0.0012178075
0001c0 c3 f4 a5 bc e5 eb 26 3c bb 4b db 3b f4 73 a8 3c
       -0.020258313 0.010188078 0.0066923774 0.020563103
0001d0 37 2e a0 bb 22 45 f3 bc 4f 10 85 3c 01 ad e2 ba
       -0.0048883217 -0.029696051 0.016243128 -0.0017293991
0001e0 2f e9 ba bb 28 dc 64 3b 0e 0c c4 3b 4b ae 05 bc
       -0.005704067 0.0034921262 0.0059828823 -0.00815923
0001f0 5e 36 03 bd 43 71 81 3c 32 eb 4d bc bf 03 45 bc
       -0.03203427 0.015801078 -0.012568282 -0.012024819
000200 58 49 8e bc d3 4a a5 bc 21 64 c5 3b 9e 45 2b bb
       -0.017368957 -0.02017728 0.006023899 -0.0026134024
000210 d9 2e 6b 3b 9e be b8 3b ed 49 74 3c 22 cd 4e 3b
       0.0035886078 0.0056379577 0.014910203 0.0031555374
000220 9f 94 a4 3a ca 12 57 bc 12 f4 3e bc 9c fc 21 3c
       0.00125565 -0.013127038 -0.011654871 0.009886887
000230 55 17 34 bc 44 ed d5 3c 4c bf 83 3c 2a 4d 86 bc
       -0.010991891 0.026114114 0.016082428 -0.016394217
000240 c8 a0 23 3b fb 2e d8 3c a0 8d cd 3b d2 30 93 bc
       0.002496766 0.02638959 0.0062729865 -0.017967615
000250 5d 11 89 bc ce 81 4d bc 0f ce 70 3c 0b cc f5 3c
       -0.016731912 -0.012543155 0.014697566 0.030004522
000260 b2 7a b2 3c df be 86 bc 94 94 88 3b 2f 67 d4 3b
       0.021787021 -0.016448436 0.0041681025 0.006482027
000270 ea 0f 63 3c 98 b3 bc 3c 62 3d a7 3a 44 6c 68 bc
       0.013858775 0.023034856 0.0012759382 -0.014185969
000280 d4 5d a9 bb ca 43 d2 ba e2 c6 09 bb 72 ca 0e 3d
       -0.005168656 -0.0016041931 -0.0021023084 0.034861036
000290 4b 98 00 3c 54 6a 1e 3c 3a 34 9e 3c 8a 47 47 3b
       0.0078488095 0.009668905 0.019312013 0.003040763
0002a0 45 f0 29 3c 49 9d bc 3b c7 cb 94 bc 03 73 92 bb
       0.010372226 0.0057560545 -0.018163575 -0.004469277
0002b0 6a f9 93 3c ff 9a b4 3c c1 47 3b 3c 52 35 5d 3c
       0.018063266 0.022046564 0.011430682 0.013501482
0002c0 1f 2e dc bb 7c 9e 01 bd 3f 2d cf bb a6 cf fe bc
       -0.0067193653 -0.031645283 -0.0063225324 -0.031104874
0002d0 53 a9 03 3d be 49 81 bc e5 0e 24 3b 0d 4b f0 bb
       0.032143902 -0.015782233 0.0025033292 -0.0073331655
0002e0 69 5a 54 bb 9e b3 95 3b a9 ae c4 3c 3d eb 5f 3c
       -0.0032402521 0.004568531 0.024009066 0.013666925
0002f0 b4 75 81 bc 19 5c c8 3b bc 26 c7 3c 9a a1 79 3c
       -0.015803196 0.0061144945 0.024310462 0.015236283
000300 53 ee 50 bc ad 45 57 bc 03 50 1c bc b4 19 6c bc
       -0.012752133 -0.013139171 -0.009540561 -0.014410425
000310 0b 51 86 bb 9e cc 3d bc e8 8f 10 3c 8c 72 03 3c
       -0.0040990165 -0.011584429 0.008823372 0.008022916
000320 d5 dd c9 bb ac 69 f5 3b e7 e8 b1 3c 78 03 87 bb
       -0.0061604776 0.0074894037 0.021717502 -0.0041202866
000330 da a0 b6 bc d4 45 85 bb b5 6d 15 3c 19 f5 8c bb
       -0.022293497 -0.004067162 0.0091203945 -0.004301679
000340 6e af 21 3b 16 50 b4 bc cb 9a bb bb 00 bb 5b 3c
       0.0024671215 -0.022010844 -0.00572524 0.0134112835
000350 eb 89 9f bc ab 9b 8c 3c a4 28 af bc b2 c1 0d 3c
       -0.019474944 0.017164072 -0.021381684 0.008652138
000360 65 c7 bf bb 5a 36 b1 bc ea 50 06 bc 48 51 aa bc
       -0.005852627 -0.021632362 -0.008198002 -0.020790711
000370 6f 4e e0 ba 62 ba a1 3c 63 d2 62 3c 4f 17 6a 3b
       -0.0017113219 0.019742195 0.013844105 0.003571946
000380 42 9d 59 bc cc 84 98 ba fb 89 53 3c 2a b3 34 bc
       -0.013282122 -0.0011636256 0.012911315 -0.011029044
000390 c0 69 23 bc 16 4f 15 bc 76 ee 93 bc 55 87 40 bc
       -0.009973943 -0.009113094 -0.018058043 -0.011751016
0003a0 a0 04 37 3c 3c 46 d2 3b 6a 69 9e 39 4b a5 04 3b
       0.011170536 0.006417064 0.00030214648 0.0020240124
0003b0 a9 2e 97 bb 9b c9 7d 3c 18 a3 7f bc 67 c3 57 bc
       -0.0046137166 0.015489961 -0.015602849 -0.013169146
0003c0 68 a8 6e 3c 91 9d 3b bc 2b 6b 31 bc ca 57 33 bc
       0.014566518 -0.011451141 -0.0108287735 -0.0109462235
0003d0 11 75 97 3a 7a 09 8b bc 2e f9 c7 bc d2 52 75 3c
       0.0011555274 -0.016972292 -0.02441081 0.014973359
0003e0 ce 84 08 bc 05 e5 c4 bc d8 14 8b 3c be a7 fa bb
       -0.008332444 -0.024034986 0.016977713 -0.007649391
0003f0 ce a9 08 bc 40 23 2c 3c 86 eb 8d 3c a7 e0 59 bc
       -0.008341266 0.010506451 0.01732422 -0.01329819
