PEFT-PT/modelo_juridico_prompt_tuning/checkpoint-103/adapter_model.safetensors (safetensors, 211664 bytes, 2 tensors)

base_model.score.weight f4 [9, 896]
00000000: ace3 cabc 01f2 c63b 06dc f23c d6b5 babc
00000010: 665e de3b 2ecb 49bc 8fb6 e8bc 403b d53c
00000020: cd92 71bc d07c b6bc 03f9 e4bc 3e65 233a
00000030: c669 05bc 5fa5 8b3c 7eaf 4a3c 2908 a63c
00000040: adfe 193d 6cd2 e0bb 8410 28bc 15b2 443c
00000050: 0966 a13c 3b38 b1ba 1076 c03a 8130 c7bc
00000060: 53d4 e73b 5486 04bc cdca 9aba d82e 573b
00000070: a2bd 13bc 49ac 283c 4c30 2f3c 2f68 3c3d
00000080: 14d0 90bb fc5f 50bc fc91 053d c8c0 763a
00000090: 1409 da3c 87fb 60bc 498b be3c 7bbd 21bd
000000a0: 6a87 4d3b 6343 c33b fc2f cb3c 7771 433c
000000b0: bf2e 5f3b 15c8 41bc 5d36 073b 65aa 6e3c
000000c0: a42f 3fba fa2d ea3c d80b 283d 0321 92bb
000000d0: d411 5fbc 3e65 ac3b 79bf 1d3d c854 993a
000000e0: fe2d e0bc f381 033d 2ecb 233c 3f18 cf3c
000000f0: a3cc 7f3b 4d09 dc3c 1acc 283c 9823 873c
00000100: e689 19bc 5a5b f13c d310 173c e33c bcbc
00000110: 1ffc 9fbc 63cf 5e3c 8979 18bd 7ca9 a0bb
00000120: 5a6d f9bc d345 d23a c86f c03c ea64 f8bc
00000130: 1c1c d33a 112b ca3b 622b 73bd ac36 45b8
00000140: 5775 913b c5a6 cc3b 798a 1bbc 24df 0d3d
00000150: b0fa ecbc b028 e13b 3b27 9b3c ffc0 b2bc
00000160: 28d6 0a3d e308 243b 9f8d 6f3c 4aeb 16bd
00000170: 23dc 86bc 8160 0b3c ec97 8cbc ad6b d7bc
00000180: a4df 2ebc 0930 8b3b 555a 043d b767 173c
00000190: 1d7f cf3b 6a0e 253a 2155 533c b2ce ab3c
000001a0: 01c7 e23b cd9c 66ba e66b 483c 5873 29bc
000001b0: a657 1f3d 111b 823c 3aea 6cbc 3bb9 9bbc
000001c0: 55f5 1cbd d579 28bc 3cf7 213c 2bb1 f2bc
000001d0: 50f6 3e3b 5354 d5b9 c861 a33c 3824 cd3c
000001e0: cdd7 51bc 0334 a33c 054b e63c d1bd dd3a
000001f0: cc9e 813c 4176 ce3c 52d9 36bd bbba 6abc
00000200: 9021 c83b eb43 43bc bc38 dcbc 6790 223d
00000210: 8b6b 333d 1b83 a73c 024d bc3c b87c 9cbc
00000220: 45cc 953c 2cb0 c73c 3cc2 59bb 989f 043b
00000230: fa44 acba eb30 d43c 15b2 773c 6824 b43b
00000240: 2569 e4bc c28e be3b 6726 c2bb 4c62 183d
00000250: 524d 9bbc 470b 4a3c e7fd 0c3d cf55 c73c
00000260: b9c5 ffbc e791 d0ba 2933 283b 4f85 94b9
00000270: 300f d53c 12ff 9cbb 9629 c9bb 84e3 8abb
00000280: 7cd0 ce3c 353f 183c 06ee bebb 0ca2 103b
00000290: f3f1 cebc a379 ea3c 5b10 bdbc b190 a53c
000002a0: 93ed cbbc 74b2 bcbb 0912 8fbc 740f ce3b
000002b0: da54 c7bc 2985 9dbc fd4e 493c 0f49 c13a
000002c0: 494d 043d 5cbc b1bb dfed 8f3b 1c72 323b
000002d0: ab2a 72bc 4614 c9bc a2a3 bb3c 6c7a 353b
000002e0: bb9e 2abd d1f0 84bb 5de6 ba3a 29c6 803c
000002f0: 555f 42bc c699 fcbc b360 a0ba 13e4 ecbc
00000300: 5921 fabb dba5 f33b eb95 66bc 48eb 363c
00000310: 37b7 3f3c 5efe b73b 3dd7 6fbc dc22 183c
00000320: c2a7 623c 4822 04bb d212 1cbd 2897 1f3b
00000330: 3709 b9bc 294b 0f3d df0e 97bc f36c 1ebd
00000340: 9a39 aebb dadd 8d3c bb01 163d 2ef9 ccbb
00000350: d2b5 9cbb 62f3 d13c 8d3e d2bc 5c56 c6bc
00000360: 8cb2 91bc dc8e d4ba d171 993c c833 403d
00000370: 42ec 903c 048d d9bb bd61 60bd 8d04 0239
00000380: 13e1 78bc 01b2 bfbc 5e0e 3dba 5432 893c
00000390: faca 843b 00ca 703c 73ff 22bd cc58 923c
000003a0: 7ea3 25ba 374f 41bd 5b00 5b3a 2d8e 133c
000003b0: b6a2 cb3c 4595 8b3c 9ccd ddba 2557 0abd
000003c0: 55b3 4c3c 44b6 dd3c 0d74 ac3c 40a0 6238
000003d0: 0526 07bc bf11 af3c 74d8 f63c a12c 89bb
000003e0: b594 ccbb 8e6b 12bd 2f96 0f3d 06ee f53c
000003f0: b379 883c d05e c23b 81fd 203c e692 5d3c
-0.024766766 0.0060713296 0.029645931 -0.022791784 0.0067861555 -0.012316508 -0.028407363 0.02602923
-0.014744473 -0.022276312 -0.02795077 0.0006233043 -0.008142894 0.017046629 0.012370942 0.020267563
0.037596393 -0.0068610217 -0.010257844 0.012005349 0.019701974 -0.0013520786 0.0014683623 -0.02431512
0.0070748716 -0.008088667 -0.0011809707 0.0032834318 -0.00901738 0.010294982 0.010692667 0.045997795
-0.004419336 -0.012718197 0.032609925 0.0009412882 0.026615657 -0.013731844 0.023259776 -0.039487343
0.003136123 0.005958961 0.024803154 0.011928908 0.0034054962 -0.011827488 0.0020631768 0.014566992
-0.0007293171 0.028586376 0.04102692 -0.0044595017 -0.01361509 0.0052610924 0.03851268 0.001169824
-0.02736568 0.03210635 0.009997172 0.025280116 0.0039031885 0.026859904 0.010302568 0.016496465
-0.009371256 0.029462505 0.00922032 -0.022978252 -0.0195294 0.0135992495 -0.03722528 -0.0049030166
-0.03044765 0.0016042538 0.023490801 -0.030321557 0.00161064 0.0061696847 -0.059367545 -4.7019377e-05
0.004439037 0.0062454664 -0.009493464 0.03463663 -0.02892813 0.0068713054 0.018939605 -0.021820543
0.03389564 0.002502971 0.014621167 -0.036845483 -0.016462391 0.008506895 -0.017162286 -0.026296461
-0.010673437 0.0042476696 0.03231271 0.009241036 0.0063322918 0.00062963984 0.012898714 0.020972583
0.006920696 -0.0008797169 0.012232756 -0.0103424415 0.038901947 0.015882047 -0.014460141 -0.019009223
-0.038319904 -0.010282953 0.009885605 -0.029625496 0.0029138513 -0.00040689352 0.019944087 0.025041685
-0.012807799 0.019922262 0.028111944 0.0016917532 0.01582279 0.025202872 -0.044640847 -0.014326747
0.0061075166 -0.011918048 -0.026882522 0.039688494 0.043803733 0.020448258 0.022985939 -0.01910244
0.01828588 0.024375997 -0.0033227345 0.0020236727 -0.0013143115 0.025902232 0.015118142 0.005497504
-0.027882168 0.005815358 -0.005924988 0.03720312 -0.018957768 0.01233179 0.034421828 0.024332909
-0.031222211 -0.0015912623 0.002566526 -0.00028328082 0.026008219 -0.004791149 -0.0061389906 -0.0042385478
0.025245897 0.0092924135 -0.0058267144 0.0022069244 -0.025261855 0.028622454 -0.023079088 0.020210596
-0.024893558 -0.005758578 -0.017464655 0.0062884632 -0.024332453 -0.019228535 0.012286899 0.0014746505
0.032300267 -0.0054240655 0.00439237 0.002722866 -0.014780681 -0.0245458 0.022905175 0.0027691377
-0.041655283 -0.004057028 0.0014259327 0.01571949 -0.011863549 -0.030835044 -0.001223585 -0.028917348
-0.00763337 0.007435543 -0.014073829 0.011164494 0.011701397 0.0056150397 -0.014638719 0.009285655
0.013833942 -0.0020162035 -0.038103886 0.002435157 -0.022587402 0.034983788 -0.018439708 -0.03867812
-0.0053169252 0.017317701 0.036622744 -0.0062552905 -0.004782417 0.02562875 -0.025664592 -0.024211101
-0.017785333 -0.0016216892 0.01873103 0.046924382 0.017690782 -0.006639125 -0.05478071 0.00012399461
-0.015190381 -0.023400309 -0.0007211919 0.016747631 0.004052517 0.014696598 -0.039794397 0.017864607
-0.0006318613 -0.047194686 0.000835424 0.009006065 0.02485786 0.01703895 -0.0016922238 -0.033774514
0.012493928 0.02706445 0.021051431 5.4031843e-05 -0.008248811 0.021370767 0.03013251 -0.0041862284
-0.006243313 -0.035747103 0.035055336 0.030020725 0.016659593 0.0059317127 0.009826065 0.013523793

prompt_embeddings f4 [50, 896]
00000000: 23e9 df3c dd91 0dbc 8dfd 8bbc 4947 88bc
00000010: 5faa 38bc 5b86 b03c dd56 6a3a bb12 8abc
00000020: 400c 44bb 8775 6c3b 47a2 adbb e3ea a7bc
00000030: 68c0 eabc 2743 873a d58e 9a3c 6c21 a33c
00000040: a5cd 3c3c aa5f f83b 479b f43a 966c 8ebc
00000050: d3b9 1b3c a29f 9c3c ff18 953b 5171 273c
00000060: 3f33 cfbc 9d86 8abc 500e 04bc 5c30 a43c
00000070: f92e 2bbc feea a6bc 6dea 863c 4f55 fe3b
00000080: f6e7 80ba 986d 233c b8ae d13b b437 213c
00000090: 0cad 07bc 36a8 b8bb e8bb ccbc ef26 a4bc
000000a0: 4387 46bc cff4 09bc e1dc 7f3b 305d f23a
000000b0: e0f3 febc 3c9d 8ebc a23f 99bc c477 babb
000000c0: b767 00bd 27de a23c 8e49 623c 76da 943b
000000d0: 89c3 42bc 9222 b7bc c6d3 1fbc 15ed ad3c
000000e0: e087 0cbc 8535 0e3a 9ebd 693c 4bd5 e6bb
000000f0: 706c 20bb a4a0 17bc 14dd a1bb 860f e7bc
00000100: c0ee 603b 00e1 56bc 0f11 eb3b 8f6c 973c
00000110: bd37 ab3c da2d 9b3a cafb 8dbb 661f 7dbc
00000120: 60fc 14bc 3299 0c3c 53b3 86ba 7895 e1bb
00000130: 7ef1 2fbb 8aaf 103c e954 b53b 52f5 0c3c
00000140: 7df6 373b f6a0 b3bc dfe5 f83b 836c c0bb
00000150: 865f f6bc 641a 693b 02c9 67bc a086 8cbc
00000160: 296b acbc 5d01 9f3b 7bca 0abc cc65 46bb
00000170: b273 e23b 0886 d6bc e90e f53c 17f0 92bc
00000180: dc9b 623b 7bb5 0c3c 9cfa b5ba b308 b7b9
00000190: cac9 893b 71c3 6b3c 132b d43c e647 af3a
000001a0: f035 c7bb b3a5 983c c8d1 70bc 025e 0f3c
000001b0: be1c 0a39 e059 03bc f0b3 873c 94b1 a03b
000001c0: 85f8 8fbc 6c23 333c 1710 513b 4f7c 843c
000001d0: 021d 2bbb 5b44 d5bc 75c7 823c 115e 6139
000001e0: c1d8 f7bb af38 c63b 387e 293c 2946 19bc
000001f0: e3de 04bd 0570 343c 21cf 42bc 9f1b 96bc
00000200: efb2 9fbc c479 96bc dc7d f63b 8653 8cbb
00000210: 0d94 b03b 2ac5 6b3b 4e67 733c 9a32 1c3b
00000220: 2aa0 013b 8bfb 2dbc 6120 18bc 503e 0e3c
00000230: 5422 23bc f30f c43c 95dc 443c fa50 79bc
00000240: e726 9c3b 807d da3c 126e 1b3c 3892 95bc
00000250: 3643 94bc f665 6dbc c563 723c ef47 d13c
00000260: d823 bd3c e7e8 9ebc e9d2 4a3a 58eb 743b
00000270: 3f1e 493c c484 983c 4d9a 7b3a 2cde 6ebc
00000280: 64a5 92bb fd63 73bb 10ce 1dbb f1a0 f73c
00000290: e7f6 1f3c 34ef 0b3c 27c0 aa3c eccc 35bb
000002a0: a028 003c 1a63 b73b 7f5e 77bc d5ce 26bb
000002b0: 5562 963c 80e5 b03c be84 3b3c 1753 253c
000002c0: 33bd 0fbb 8d6d 05bd 4094 69bb 479c e0bc
000002d0: ce1a 053d f4bd 8fbc a2f6 5e3b 0bb5 00bb
000002e0: e919 2abb ad18 1b3c abbf db3c 17a0 893c
000002f0: 6840 56bc fe7f e33b 480b c33c 1a84 733c
00000300: b1c9 8abc 4f06 56bc a61f 39bb c05b 6cbc
00000310: 36ce 00bb 7dcf 4abc 5d1d 533c 4873 353c
00000320: 24ea 73bb bc19 ae3b 38e7 973c 9034 cfbb
00000330: ed53 b5bc 36c2 6dbb d53b bf3a 3888 79bb
00000340: 220f 573b 184e 8cbc df5c 9abb fda1 973c
00000350: 4776 9ebc b897 b23c 49ad a6bc cdfa 193c
00000360: 5766 b0bb 867d 8abc daeb 05bc f3da aabc
00000370: a118 44b9 6138 873c 63f9 623c 4084 a83b
00000380: b213 61bc 522d 53b9 6cd9 743c b4ed 1bbc
00000390: eb44 2abc fffa 1fbc 4761 91bc 9b2c 45bc
000003a0: 12eb 3a3c de6d 8f3b e1d5 90ba bcd6 883b
000003b0: 859b e6bb 9b96 943c 9399 51bc 5153 5cbc
000003c0: 2ada 853c acdd 38bc ece7 43bc 3ad5 8cbc
000003d0: e004 d339 937a 7dbc bd1e b6bc 288a 873c
000003e0: a816 c7bb 9432 89bc df40 743c 20d0 adbb
000003f0: 2e54 e4bb 28af 703c b85f 993c 2740 6dbc
0.027332848 -0.008640734 -0.017088676 -0.016635554 -0.011271088 0.02154844 0.0008939335 -0.016854635
-0.0029914528 0.0036080794 -0.005298886 -0.020497745 -0.0286562 0.0010319696 0.018866936 0.019913398
0.011523639 0.0075797634 0.0018661999 -0.017385762 0.009504753 0.019119088 0.004550099 0.010219888
-0.02529299 -0.016909892 -0.008060053 0.02004259 -0.010448211 -0.020375725 0.016469205 0.0077616344
-0.0009834755 0.00997486 0.006399002 0.009839941 -0.008281004 -0.0056352867 -0.024991944 -0.020038096
-0.01211721 -0.008420183 0.0039041566 0.0018490907 -0.031122148 -0.01740896 -0.0187071 -0.0056905467
-0.03134891 0.019881321 0.013811482 0.004542644 -0.0118874395 -0.022355352 -0.009755081 0.021231214
-0.008577317 0.0005424845 0.0142664 -0.0070444695 -0.0024478696 -0.009254608 -0.0049396846 -0.028205644
0.0034321994 -0.013115168 0.0071736644 0.018484382 0.020900602 0.0011839226 -0.004332994 -0.0154493805
-0.009093374 0.0085814465 -0.0010276831 -0.006884273 -0.0026846821 0.008830914 0.0055338037 0.008603411
0.0028070502 -0.021927338 0.007595762 -0.0058723106 -0.030074846 0.0035568709 -0.014147045 -0.017154038
-0.021047192 0.0048524574 -0.008471127 -0.0030273078 0.0069107646 -0.026186958 0.029914336 -0.01793675
0.0034577763 0.00858819 -0.0013883892 -0.0003491096 0.0042049633 0.014389859 0.025899446 0.0013372868
-0.006079428 0.018633699 -0.014698453 0.008750441 0.00013171413 -0.008017033 0.016565293 0.0049039815
-0.017574558 0.010933738 0.003190046 0.016172556 -0.002610982 -0.026033571 0.01596425 0.00021492715
-0.007563681 0.0060492377 0.010345034 -0.009355106 -0.032439124 0.011013036 -0.011890204 -0.018323718
-0.019494502 -0.01836861 0.007522328 -0.0042824177 0.005388743 0.0035975673 0.014856173 0.0023833872
0.0019779303 -0.010619055 -0.0092850635 0.008681849 -0.009956915 0.023933386 0.0120154815 -0.01521706
0.0047653797 0.026671171 0.009486692 -0.0182582 -0.018098455 -0.014489641 0.014794295 0.025546996
0.02308838 -0.019398166 0.00077371165 0.003737172 0.012275278 0.018617995 0.0009597883 -0.014579337
-0.0044752825 -0.0037138455 -0.0024079122 0.03022811 0.009763456 0.008540917 0.020843579 -0.002774055
0.007822186 0.0055965306 -0.015098213 -0.0025452871 0.018357435 0.02159381 0.011445222 0.010090611
-0.002193284 -0.03257518 -0.0035641342 -0.027418269 0.032496266 -0.017546631 0.0034021516 -0.001963916
-0.0025955385 0.009466332 0.026824793 0.01679997 -0.013076879 0.006942748 0.02380909 0.014863038
-0.016941877 -0.0130630275 -0.0028247624 -0.014426172 -0.0019654161 -0.012378571 0.012885419 0.0110748485
-0.0037218416 0.0053131264 0.01854287 -0.0063234046 -0.022134745 -0.0036279089 0.0014589975 -0.0038075577
0.0032815416 -0.017127082 -0.004710778 0.01850986 -0.019343508 0.02180086 -0.0203463 0.0093981745
-0.0053832936 -0.016905557 -0.008173907 -0.020856356 -0.00018701192 0.016506376 0.013853404 0.0051427186
-0.013737606 -0.00020139411 0.014944416 -0.009517122 -0.010392408 -0.009764432 -0.01774658 -0.012034561
0.011408584 0.004377111 -0.0011050069 0.004175989 -0.0070375823 0.01813822 -0.012792963 -0.013447599
0.01633938 -0.011283319 -0.01195715 -0.017191518 0.00040248688 -0.0154711185 -0.022231454 0.01654537
-0.006075699 -0.01674775 0.014908045 -0.0053043514 -0.006968043 0.014690198 0.0187224 -0.014480627
