PEFT-PT/modelo_juridico_prompt_tuning/checkpoint-103/adapter_model.safetensors (safetensors, 71800 bytes, 1 tensors)

prompt_embeddings f4 [20, 896]
0	0x3d2d19fe	0.042261116
1	0x3cb9c8d7	0.022678776
2	0x3bcc88a5	0.0062418752
3	0xbc537b7c	-0.012907859
4	0xbc16b9e7	-0.009199596
5	0xbabb5e07	-0.001429499
6	0xbc1e20a4	-0.009651337
7	0xbbf1de05	-0.007381203
8	0x3c9683ff	0.018373488
9	0xbd37bfe6	-0.044860743
10	0xbd8155a0	-0.0631516
11	0xbd2b7689	-0.04186109
12	0xbd20dcd0	-0.039273083
13	0x3b30d5b3	0.0026982843
14	0x3c27503e	0.010212002
15	0x3c6573bf	0.014004647
16	0x3cff650f	0.031176118
17	0x3c29bc6b	0.010359864
18	0x3cac14fd	0.021006102
19	0xbbfe2af8	-0.007756587
20	0x3d100cbe	0.035168402
21	0x3dab9c99	0.08379478
22	0x3c256121	0.010093958
23	0x3c02e16d	0.007988316
24	0xbd307df6	-0.043088876
25	0x3c9e7bfd	0.019346232
26	0xbd2a0985	-0.041512985
27	0x3b9ffdca	0.004882549
28	0x3c663160	0.014049858
29	0xbcfa4a84	-0.03055311
30	0x3cca8dec	0.024725877
31	0x3c8d7d20	0.017271578
32	0xbc17d81f	-0.009267836
33	0x3c56d44e	0.013112141
34	0xbaf14da0	-0.0018409975
35	0x3c48b53b	0.01225024
36	0xbbf6f4d9	-0.0075365123
37	0xbce015ec	-0.027354203
38	0xbd3fd2fc	-0.04683207
39	0xbd21035e	-0.03930985
40	0x3b3be2e8	0.0028669182
41	0x3c2cd202	0.010548117
42	0x3b9f88a6	0.0048685847
43	0x3cd64a0f	0.02615836
44	0xbd436df6	-0.04771229
45	0xbb2966ce	-0.002584863
46	0xbcefa9c3	-0.029255753
47	0x3b08d3fe	0.002087831
48	0xba8cc799	-0.0010740637
49	0x3b8db0fb	0.004324076
50	0x3cb40d04	0.021978863
51	0x3c019f05	0.007911448
52	0xbcd80c78	-0.026373133
53	0xbb6b7356	-0.00359269
54	0xba1a51d4	-0.0005886827
55	0x3d5f5e3d	0.054533232
56	0xbc15b66e	-0.009137733
57	0x3b68f9b1	0.0035549218
58	0x3c90c449	0.017671721
59	0xbd3ee9ab	-0.046609562
60	0x3be4b195	0.0069791772
61	0xbc5512e0	-0.013004988
62	0xbc88c7cc	-0.016696833
63	0xbd3267dc	-0.04355608
64	0xbb1ecc32	-0.0024230597
65	0xbc95732c	-0.018243395
66	0x3b0f8203	0.0021897561
67	0x3cce4883	0.02518106
68	0x3b7c99c3	0.0038543798
69	0x3d13c02d	0.036071945
70	0xbba166a3	-0.0049255653
71	0x3a68372d	0.00088583195
72	0x3ad95391	0.0016580691
73	0x3bf9a6f3	0.007618779
74	0xbc0c4ac4	-0.008562747
75	0x3c9c10ea	0.019051034
76	0x3c3fee0c	0.01171447
77	0x3d16e60c	0.036840484
78	0x3cabd7d9	0.020976948
79	0xbc218a58	-0.009859644
80	0x3ac606af	0.0015108193
81	0xbc539dfe	-0.012916086
82	0xbc38a679	-0.011270159
83	0xbac4bbe2	-0.0015009607
84	0xbd132490	-0.03592354
85	0x3b53e8d7	0.0032334828
86	0x3be2270d	0.006901628
87	0xbc7acc08	-0.015307434
88	0xbd012de4	-0.031537905
89	0x3cbdee84	0.023185022
90	0xbc3c3e9f	-0.011489539
91	0xbaf5ad2e	-0.0018743628
92	0x3b949f7d	0.004535614
93	0xbb753de5	-0.0037420925
94	0x3d77a3bc	0.060458884
95	0xbc055018	-0.008136772
96	0x3cdc5a08	0.026898399
97	0xbbbf6125	-0.005840438
98	0xbd4d01bc	-0.050050482
99	0xbd10b2d5	-0.035326798
100	0x3d0c9cb5	0.034329135
101	0xbb79f75f	-0.003814183
102	0xbc2a71c6	-0.010403102
103	0xbbd0b93d	-0.0063697384
104	0xbcc2b8f4	-0.023769833
105	0x3d18c07e	0.03729295
106	0x3ca331a8	0.019921139
107	0x3c81ab39	0.015828716
108	0x3bfb8c47	0.0076766345
109	0x3bcdf117	0.0062848437
110	0xbc1ce8d2	-0.009576993
111	0x3bcf809a	0.006332469
112	0xbbfe5605	-0.007761719
113	0xbb576211	-0.0032864849
114	0x3bb81996	0.0056182845
115	0xbca5a1f8	-0.020218834
116	0xbc1fc387	-0.009751207
117	0xbc338b0c	-0.010958444
118	0x3c112f38	0.0088613555
119	0xbc1a929e	-0.00943437
120	0xbd66f6b3	-0.056387614
121	0x3b3f2be4	0.0029170448
122	0x3cff6801	0.031177523
123	0xba827aec	-0.0009954846
124	0xbd04bab8	-0.03240463
125	0xbbc63606	-0.0060489206
126	0xbc92dd95	-0.017927924
127	0xbd41e538	-0.04733774
128	0xbca39bf8	-0.019971833
129	0x3c5dcc47	0.013537473
130	0x3c9ccdea	0.019141156
131	0xbce68354	-0.028138794
132	0x3ac20d57	0.0014805001
133	0x3ca20159	0.019776033
134	0x3d9f045b	0.077645026
135	0x3cb414bf	0.021982549
136	0xbb834870	-0.004006438
137	0x3c6a71e6	0.014309382
138	0x3bf2c3a7	0.0074085775
139	0x3d5da508	0.054112464
140	0xbd0409ae	-0.032235794
141	0x3ca79221	0.020455422
142	0xbaf56e7e	-0.0018724946
143	0xbc3fb7ec	-0.011701565
144	0xbc9026c4	-0.01759661
145	0x3cfd05e7	0.030886604
146	0xbcc95dfb	-0.024580946
147	0xbcb7cd7d	-0.022436852
148	0xbd24c111	-0.040223185
149	0x3ccf9241	0.025338294
150	0xbaeec792	-0.0018217436
151	0xbb51fcc7	-0.0032041536
152	0x3d0b5a55	0.034021694
153	0xbcbdddb4	-0.023177005
154	0xbd0b142d	-0.033954788
155	0x3b00ba78	0.0019642394
156	0x3c92f335	0.017938236
157	0x3d1ccd9f	0.038282033
158	0xbcc73998	-0.024319455
159	0xbd01d09d	-0.03169309
160	0x3c37aea7	0.011211074
161	0xbc3f87a0	-0.01169005
162	0xbc3c0041	-0.01147467
163	0x3d245051	0.04011566
164	0x3d362b7b	0.04447506
165	0xbbe55a1f	-0.0069992687
166	0x3ce7c0a4	0.0282901
167	0x3ce0ac35	0.027425865
168	0x3d82c95a	0.06386061
169	0xbb7036ee	-0.0036653834
170	0xbd0dd5a8	-0.034627587
171	0xbc1310e4	-0.008976195
172	0x3d04c6e7	0.03241625
173	0x3d8a760d	0.06760798
174	0x3d04a290	0.032381594
175	0x3cfda8ce	0.030964281
176	0xbc0f5e64	-0.008750532
177	0x3a091e52	0.00052306533
178	0xbb239d30	-0.0024965517
179	0x3a665628	0.0008786642
180	0x3cb2254f	0.021746306
181	0xbc23706d	-0.009975535
182	0xbc5ab305	-0.013348346
183	0x3c691e8a	0.0142284725
184	0x3c7784d6	0.015107354
185	0x3b81d25a	0.0039618434
186	0x3c102e44	0.008800093
187	0x3c59d990	0.0132965
188	0xbd0bcb6b	-0.03412954
189	0xbc35ff1f	-0.011108189
190	0x3d499c6e	0.04922145
191	0x3cd65b0d	0.026166463
192	0xbc8fbce7	-0.01754613
193	0xbbf667e5	-0.0075197094
194	0xbcbaf1f8	-0.022820458
195	0xbc1cae7d	-0.009563086
196	0x3ca3cc1e	0.019994792
197	0xbc6a0d92	-0.014285462
198	0x3c9c04ab	0.019045195
199	0x3a2f8102	0.0006694944
200	0xbc33ace1	-0.0109665105
201	0xbd4806b4	-0.048834518
202	0x3c7224a9	0.014779248
203	0xbcf5b7f0	-0.029994935
204	0xbcaa5e1c	-0.020796828
205	0xbc9dbb3b	-0.019254318
206	0x3b3f23b4	0.0029165568
207	0xbbf39dd6	-0.007434587
208	0xbc812e96	-0.015769284
209	0xbceca86b	-0.028888902
210	0xbc3eafed	-0.011638624
211	0x3d96ee79	0.07369704
212	0x3b25f672	0.0025323895
213	0x3d49ca5e	0.049265258
214	0xbd77e620	-0.0605222
215	0x3cc96590	0.024584562
216	0xbd882f90	-0.06649697
217	0xbbd2a783	-0.0064286604
218	0xbbe2a50b	-0.0069166473
219	0x3b3b847a	0.0028612898
220	0x3cca7f04	0.024718769
221	0x3cf843f5	0.030305842
222	0x3b2bca38	0.002621306
223	0xbd109d67	-0.03530636
224	0xbceb3138	-0.028709993
225	0xbc4573f1	-0.012051568
226	0xbae7796c	-0.0017660088
227	0x399d935b	0.00030055162
228	0xbcb956f4	-0.02262447
229	0xbd4f6a52	-0.050638504
230	0x3c5c899b	0.013460542
231	0xbba277f7	-0.0049581486
232	0x3d0992ae	0.03358715
233	0x3c012261	0.007881732
234	0x3bc11d87	0.0058934125
235	0x3d3ff7d8	0.04686722
236	0xbc0e7163	-0.008694026
237	0x3d30955c	0.04311119
238	0x3c48fe61	0.01226768
239	0xbcb8de11	-0.022566827
240	0x3d0338c8	0.032036573
241	0xbc8d2de7	-0.017233802
242	0xbd458a37	-0.048227515
243	0xbce498b4	-0.027904846
244	0xbc535d84	-0.012900714
245	0xbd3dd7a2	-0.04634822
246	0xbd295d0d	-0.041348506
247	0x3cb5f869	0.022213178
248	0xbc4659e6	-0.012106394
249	0xbcb46d2e	-0.022024717
250	0x3c01ac08	0.007914551
251	0x3c798007	0.015228278
252	0xbc9b2c51	-0.01894203
253	0xbcc3fa8c	-0.023923181
254	0x3c9a0512	0.018801246
255	0xbd0f1eed	-0.034941602
