PEFT-PT/modelo_juridico_prompt_tuning/checkpoint-927/adapter_model.safetensors (safetensors, 211664 bytes, 2 tensors)

base_model.score.weight f4 [9, 896]
-0.034779944 0.006393547 0.03463128 -0.021250388 0.0014041713 -0.013760378 -0.027295932 0.027779562
-0.013438322 -0.02622818 -0.025665946 0.020356912 -0.007829067 0.01870506 0.019138481 0.027176915
0.035774954 -0.015389193 -0.011896638 0.009941759 0.019392623 -0.0024661112 0.00409344 -0.031368498
0.006014424 -0.0038596948 0.0019057287 -0.000119339325 -0.010406101 0.0065217353 -0.0062701968 0.042550545
0.00063484994 -0.015849171 0.03604568 0.0027214726 0.02796991 -0.016046133 0.021409867 -0.038737047
0.0109953545 0.015009942 0.023900788 0.009077097 0.00027893262 -0.012213853 0.0028460145 0.023017475
0.008358636 0.02357425 0.042317744 -0.0074640065 -0.016655324 0.009361122 0.03832298 0.00019467082
-0.025915252 0.017099382 0.019377697 0.026928576 0.004822968 0.029679706 0.009959656 0.0143874055
-0.008925476 0.024346707 0.008584635 -0.029838251 -0.01451605 0.028777516 -0.04880649 -0.010578508
-0.018779734 0.008030604 0.032089915 -0.029422548 0.005303206 0.0038423194 -0.06678257 0.0019980324
0.004626751 0.0077500595 -0.011676901 0.039414298 -0.023109801 0.008280632 0.025084864 -0.020410972
0.024613049 0.023077235 0.01597017 -0.034973707 -0.014550146 -0.0004166704 -0.015900705 -0.026007844
-0.009535567 0.0040374305 0.038110245 0.0031038728 0.003906387 -0.00077444105 0.01704757 0.017694568
0.0072315396 -0.0018208522 0.0062915436 -0.012109101 0.04119906 0.008880309 -0.015084399 -0.019377675
-0.044959906 -0.0112419175 0.007255111 -0.026392316 0.002914103 -0.00022092817 0.023365214 0.022261359
-0.01507469 0.026945872 0.02602166 0.0015664537 0.016544703 0.023228606 -0.04975842 -0.013674815
-0.00062824483 -0.016745517 -0.026478479 0.03992848 0.042688068 0.021456387 0.012328817 -0.023156712
0.018099664 0.030864814 -0.004261086 -0.00049850123 0.003018814 0.019605212 0.011581915 0.004735491
-0.026153155 0.013114238 -0.0048377817 0.035500247 -0.021419559 0.011498924 0.04483269 0.028101992
-0.044901974 0.0016734179 0.0027511874 -0.00401598 0.014504639 -0.0073883454 -0.00695295 -0.0025380112
0.025859151 0.029500278 -0.00695047 0.004665186 -0.014652212 0.026825987 -0.026995117 0.010727741
-0.025035912 -0.0026446076 -0.013982304 0.0025670377 -0.011659878 -0.019805156 0.0060202526 0.0010890212
0.0112484805 -0.0013080784 -0.012427642 0.0024356632 -0.0146655105 -0.037511893 0.029469343 0.0027647705
-0.044442695 -0.008932012 0.020713562 0.015628686 -0.011419214 -0.029743617 -0.0025869168 -0.026482103
-0.01242529 0.012058071 -0.020441644 0.013908807 0.017937316 0.00847028 -0.013171815 0.009111936
0.003976776 -0.008583014 -0.031508464 0.003596842 -0.018206235 0.041991573 -0.015113713 -0.039011292
-0.006023565 0.017258873 0.03416483 -0.008721236 -0.004712675 0.023773465 -0.025717229 -0.023774222
-0.018502684 0.0012800145 0.01584764 0.048492648 0.022968717 -0.005938162 -0.057964947 -0.005454957
-0.015086505 -0.02350961 0.00033729392 0.011513852 0.0020780726 0.011427618 -0.040185913 0.017347177
-0.004438033 -0.046348065 -0.009144026 0.008741471 0.0300804 0.02025052 -0.0059763906 -0.03286355
0.008948162 0.026885042 0.022285983 0.0032223663 -0.007654436 0.026020816 0.03223847 -0.022384891
-0.0037827783 -0.04269553 0.030110715 0.031584848 0.012156379 0.011418531 0.0169507 0.01353887
00000000: 6a75 0ebd f680 d13b 87d9 0d3d 4b15 aebc
00000010: 2c0c b83a 3573 61bc b89b dfbc f791 e33c
00000020: 682c 5cbc 7bdc d6bc 6441 d2bc 8ac3 a63c
00000030: 7d45 00bc 5b3b 993c 4ec8 9c3c 1fa2 de3c
00000040: c288 123d f422 7cbc 1eea 42bc c2e2 223c
00000050: 47dd 9e3c 7b9e 21bb 4322 863b 417c 00bd
00000060: a514 c53b eff2 7cbb a5c9 f93a d045 fab8
00000070: 5a7e 2abc 48b4 d53b 3976 cdbb 7b49 2e3d
00000080: 0f6c 263a 1fd6 81bc a3a4 133d bc5a 323b
00000090: 2721 e53c 2e73 83bc bf63 af3c bdaa 1ebd
000000a0: dc25 343c 43ec 753c 96cb c33c 1bb8 143c
000000b0: b43d 9239 9d1c 48bc 3384 3a3b 258f bc3c
000000c0: a9f2 083c c91e c13c 5f55 2d3d a094 f4bb
000000d0: bf70 88bc 645f 193c 8ff8 1c3d 8d20 4c39
000000e0: 394c d4bc 0114 8c3c fabd 9e3c 5199 dc3c
000000f0: fd09 9e3b db22 f33c d32d 233c 27b9 6b3c
00000100: 293c 12bc bf72 c73c 92a6 0c3c 596f f4bc
00000110: bad4 6dbc d3be eb3c 50e9 47bd 7a51 2dbc
00000120: f5d7 99bc cb92 033c b770 033d 8e07 f1bc
00000130: 84c6 ad3b 6ccf 7b3b 4dc5 88bd 6cf1 023b
00000140: 009c 973b 36f4 fd3b 7950 3fbc e370 213d
00000150: c450 bdbc 7dab 073c c67e cd3c e934 a7bc
00000160: 4ea1 c93c 780c bd3c e0d3 823c 9740 0fbd
00000170: bc63 6ebc 8e74 dab9 3242 82bc 670e d5bc
00000180: 113b 1cbc 6c4c 843b 7d19 1c3d 586a 4b3b
00000190: 2601 803b dc03 4bba 58a7 8b3c 33f4 903c
000001a0: 8df6 ec3b a9a9 eeba 4b29 ce3b 4065 46bc
000001b0: 58c0 283d b77e 113c 8e24 77bc eebd 9ebc
000001c0: e127 38bd 0530 38bc 48bc ed3b b334 d8bc
000001d0: 89fa 3e3b f4a8 67b9 6868 bf3c 745d b63c
000001e0: d5fb 76bc 97bd dc3c 602b d53c 7751 cd3a
000001f0: c288 873c eb49 be3c 7ccf 4bbd 550c 60bc
00000200: ccb0 24ba e52d 89bc 65e9 d8bc 0c8c 233d
00000210: afd9 2e3d 4ec5 af3c cefe 493c 25b3 bdbc
00000220: bf45 943c 35d8 fc3c 95a0 8bbb daad 02ba
00000230: 4bd7 453b 1c9b a03c 13c2 3d3c 2d2c 9b3b
00000240: 243f d6bc 1add 563c 4186 9ebb b568 113d
00000250: 1278 afbc fc65 3c3c 7ca2 373d 2636 e63c
00000260: 22eb 37bd 9656 db3a 444d 343b 7b98 83bb
00000270: dea4 6d3c ef19 f2bb 92d5 e3bb c354 26bb
00000280: 92d6 d33c 91aa f13c c5c0 e3bb 6bde 983b
00000290: d50f 70bc 2cc2 db3c dd24 ddbc 68c3 2f3c
000002a0: 1d18 cdbc 2751 2dbb 0916 65bc bf3b 283b
000002b0: 1309 3fbc 6c3e a2bc 8a45 c53b 7dbd 8e3a
000002c0: 8c4b 383c d473 abba 4f9d 4bbc a69f 1f3b
000002d0: 9c47 70bc 12a6 19bd b169 f13c 2731 353b
000002e0: 8b09 36bd 9357 12bc 7daf a93c bb07 803c
000002f0: a817 3bbc e3a8 f3bc 4389 29bb fff0 d8bc
00000300: 7293 4bbc 378f 453c 3c75 a7bc c4e1 633c
00000310: 47f1 923c eec6 0a3c 99ce 57bc 3b4a 153c
00000320: 9d4f 823b c59f 0cbc 050f 01bd ffb8 6b3b
00000330: 3e25 95bc 5bff 2b3d 829f 77bc 4eca 1fbd
00000340: 5361 c5bb 7b62 8d3c 6cf0 0b3d 84e3 0ebc
00000350: c96c 9abb 92c0 c23c f0ac d2bc 28c2 c2bc
00000360: f192 97bc 29c6 a73a e9d2 813c 3aa0 463d
00000370: e428 bc3c ea94 c2bb a76c 6dbd 7fbf b2bb
00000380: 632d 77bc 3a97 c0bc d3d6 b039 98a4 3c3c
00000390: 4630 083b e73a 3b3c fc99 24bd ab1b 8e3c
000003a0: eb6c 91bb 78d7 3dbd d3d0 15bc 6338 0f3c
000003b0: 2c6b f63c 6be4 a53c 99d5 c3bb ee9b 06bd
000003c0: 509b 123c 053e dc3c 1891 b63c 562e 533b
000003d0: 10d2 fabb 9b29 d53c 7c0c 043d 8560 b7bc
000003e0: 7de8 77bb 82e1 2ebd bfaa f63c 1d5f 013d
000003f0: 8d2b 473c ca14 3b3c 32dc 8a3c 23d2 5d3c

prompt_embeddings f4 [50, 896]
0.028247703 -0.0069214404 -0.016751613 -0.012238665 -0.0118808225 0.02250891 -0.00052562583 -0.017368786
-0.0063390043 0.0043438287 -0.006719657 -0.02051782 -0.03073815 -0.00039821365 0.020280052 0.018704638
0.009947836 0.007502938 0.002669664 -0.019370556 0.010922089 0.019744538 0.0028907517 0.0077042547
-0.030183978 -0.017516611 -0.010640362 0.028359918 -0.013105292 -0.02174274 0.018755369 0.0068583493
-0.0027234692 0.010323065 0.007749762 0.009797648 -0.009262104 -0.005483984 -0.028751176 -0.018990247
-0.009654566 -0.011977877 0.0048764404 0.0009279654 -0.032217596 -0.018079095 -0.017778533 -0.009807016
-0.029827183 0.020271974 0.01725846 -0.0017251972 -0.014093846 -0.02200124 -0.013813272 0.020042306
-0.009064228 0.0031646828 0.011776197 -0.00627792 -0.0031078616 -0.011550776 -0.005047946 -0.03006951
0.0028431132 -0.009571068 0.01040029 0.01742502 0.029336177 -0.0028648968 -0.00018296132 -0.016646149
-0.014345613 0.010784561 -0.0017107738 -0.008034165 -0.0067688497 0.01065862 0.008399192 0.01084051
0.0071908594 -0.020474415 0.008940513 -0.0063777566 -0.033084795 0.004329967 -0.013647419 -0.018922398
-0.028287945 0.0046341857 -0.012337504 -0.0037938918 0.0069208746 -0.023392955 0.029402593 -0.017661639
0.002370782 0.00871059 0.0036785163 0.00062651077 0.007169464 0.0074612345 0.023801558 -0.0020127855
-0.0049034287 0.019190263 -0.014423368 0.0100605395 0.0008827528 -0.0072108256 0.016497368 0.0020574601
-0.01970692 0.010479466 0.0061248112 0.020853544 -0.0042830626 -0.029866137 0.016839491 -0.0016762327
-0.006080084 0.0041550836 0.0063296715 -0.008065289 -0.031907957 0.01544087 -0.012484459 -0.011973071
-0.017758433 -0.019833505 0.006550316 -0.0025629455 0.0041568764 0.006010824 0.015412747 0.0034363586
0.0018493657 -0.012873165 -0.011814986 0.0097763715 -0.011245948 0.026166499 0.015097849 -0.016676307
0.003124327 0.026417017 0.0066117253 -0.017242605 -0.01690215 -0.012718501 0.014438015 0.029991765
0.021880051 -0.017134039 0.003305434 0.005944341 0.01373124 0.023161078 0.00057880604 -0.01425466
-0.0055251247 -0.0012247468 -0.0022120562 0.034388606 0.007597841 0.009787136 0.019451324 0.002140098
0.009852372 0.0054029655 -0.017553892 -0.0032494902 0.018471848 0.022551373 0.010612889 0.01379979
-0.00559273 -0.031946644 -0.0063644494 -0.031192545 0.032369923 -0.0154813435 0.0026146814 -0.006968052
-0.0033072813 0.005214989 0.02448055 0.0134278145 -0.015558171 0.0059007267 0.024537219 0.015182889
-0.012652533 -0.013221311 -0.009164686 -0.014455726 -0.0042346274 -0.01205242 0.009467021 0.00808698
-0.0056817397 0.0069598155 0.021727871 -0.004008831 -0.022365209 -0.0033392033 0.008128851 -0.0042601945
0.0019261396 -0.02210602 -0.005509431 0.0129195545 -0.019818148 0.017598327 -0.020866543 0.008962071
-0.005259562 -0.021618586 -0.008493154 -0.02070536 -0.0019107526 0.019609153 0.013184634 0.0033332307
-0.0136679 -0.0007304183 0.012304571 -0.010886322 -0.009458523 -0.0092139365 -0.017798696 -0.012040218
0.010843495 0.0063079544 0.00038235288 0.002044797 -0.0051138224 0.015334425 -0.0148521 -0.013148101
0.014428218 -0.01181661 -0.01018081 -0.010869758 0.0015327904 -0.016835326 -0.02411499 0.014316076
-0.00809282 -0.02374723 0.016865445 -0.0072865444 -0.007799883 0.01180601 0.017348934 -0.013087309
00000000: ba67 e73c 40cd e2bb ae3a 89bc ae84 48bc
00000010: c8a7 42bc 9b64 b83c 27ca 09ba fc48 8ebc
00000020: 6cb7 cfbb ad56 8e3b 9230 dcbb fd14 a8bc
00000030: 93ce fbbc 55c7 d0b9 5a22 a63c 783a 993c
00000040: 40fc 223c 35db f53b 88f5 2e3b 00af 9ebc
00000050: 90f2 323c 4cbf a13c c472 3d3b f973 fc3b
00000060: 6444 f7bc ff7e 8fbc ea54 2ebc 0f53 e83c
00000070: 94b7 56bc d51d b2bc dca4 993c 01bc e03b
00000080: 3b7c 32bb 1322 293c b7f1 fd3b 5086 203c
00000090: 14c0 17bc feb2 b3bb 9687 ebbc 6f91 9bbc
000000a0: 2f2e 1ebc db3e 44bc 8cca 9f3b b442 733a
000000b0: 99f6 03bd 9c1a 94bc 49a4 91bc 9bad 20bc
000000c0: 2358 f4bc 6911 a63c 9d61 8d3c 0320 e2ba
000000d0: e0e9 66bc f23b b4bc 1051 62bc c32f a43c
000000e0: 2182 14bc 9166 4f3b f3f0 403c 03b7 cdbb
000000f0: 44ad 4bbb 773f 3dbc 3d69 a5bb 5554 f6bc
00000100: 8653 3a3b f8cf 1cbc fa65 2a3c eabe 8e3c
00000110: 6c52 f03c fec0 3bbb 4ed9 3fb9 815d 88bc
00000120: dd09 6bbc bab1 303c 0b3c e0ba bba1 03bc
00000130: 3acd ddbb 7ea1 2e3c c49c 093c 659c 313c
00000140: 4da1 eb3b f6b9 a7bc 3b7b 123c 80fc d0bb
00000150: ec83 07bd 65e2 8d3b 6d99 5fbc 2503 9bbc
00000160: 1fbc e7bc 5eda 973b 3e23 4abc f1a2 78bb
00000170: 81c8 e23b 95a2 bfbc b5dd f03c 24af 90bc
00000180: 1f5f 1b3b ddb6 0e3c 4313 713b 6d3c 243a
00000190: d3ed ea3b 5f7d f43b 7cfb c23c f0e8 03bb
000001a0: f1ac a0bb e634 9d3c fd4f 6cbc f6d4 243c
000001b0: 8a68 673a ca48 ecbb 7d25 873c 74d6 063b
000001c0: 6870 a1bc 11b2 2b3c a4b2 c83b 0dd5 aa3c
000001d0: ef58 8cbb d4a9 f4bc f9f2 893c 09b5 dbba
000001e0: 713b c7bb 5e27 883b 2269 cf3b 4624 04bc
000001f0: ebb1 02bd b4fb 7c3c 9e8b 4cbc b32a 44bc
00000200: 227a 91bc e079 a2bc 08a4 d63b 17f7 27bb
00000210: 6836 883b 72f6 c43b bf85 7c3c 8834 613b
00000220: 6a66 f23a f8e9 52bc a593 41bc 132d 203c
00000230: ed40 38bc 205b d63c f85c 773c c09c 88bc
00000240: 82c1 4c3b 8068 d83c 2ca7 d83b 5d40 8dbc
00000250: 6176 8abc 4261 50bc 6d8d 6c3c 4ab1 f53c
00000260: cb3d b33c af5c 8cbc fb9f 583b bfc8 c23b
00000270: fff8 603c 4dbc bd3c 04bb 173a 618c 69bc
00000280: 1b0c b5bb af87 a0ba 25f8 10bb 11db 0c3d
00000290: 4ff7 f83b 395a 203c 6258 9f3c e340 0c3b
000002a0: d86b 213c 5c0b b13b 2ecd 8fbc 66f5 54bb
000002b0: 4652 973c a8bd b83c afe1 2d3c 8418 623c
000002c0: 3843 b7bb 7cda 02bd df8c d0bb 8287 ffbc
000002d0: 5396 043d 76a5 7dbc 135b 2b3b 4254 e4bb
000002e0: f9be 58bb 80e2 aa3b 6f8b c83c 5600 5c3c
000002f0: b3e7 7ebc e25a c13b 4702 c93c a7c1 783c
00000300: 924c 4fbc 339e 58bc 7b27 16bc b6d7 6cbc
00000310: a1c2 8abb 8377 45bc 901b 1b3c 417f 043c
00000320: e32d babb 2a0f e43b a6fe b13c 835c 83bb
00000330: 3e37 b7bc 89d6 5abb df2e 053c 1a99 8bbb
00000340: 8576 fc3a af17 b5bc 7588 b4bb 8aac 533c
00000350: ab59 a2bc 5e2a 903c 50f0 aabc a6d5 123c
00000360: 6758 acbb 7619 b1bc df26 0bbc 4a9e a9bc
00000370: 3872 faba 60a3 a03c 5d04 583c 5572 5a3b
00000380: 54ef 5fbc 8b79 3fba 1d99 493c 8b5c 32bc
00000390: ecf7 1abc 0df6 16bc 92ce 91bc 5644 45bc
000003a0: eaa8 313c f5b2 ce3b 8976 c839 0002 063b
000003b0: da91 a7bb 3d3d 7b3c 3956 73bc 226b 57bc
000003c0: 5564 6c3c 749a 41bc 69cd 26bc 1217 32bc
000003d0: e9e7 c83a 3dea 89bc cd8c c5bc fa8d 6a3c
000003e0: bf97 04bc 8d89 c2bc 6729 8a3c f7c3 eebb
000003f0: 2996 ffbb ff6d 413c 5a1f 8e3c 276c 56bc
