PEFT-PT/modelo_juridico_prompt_tuning/checkpoint-721/adapter_model.safetensors (safetensors, 211664 bytes, 2 tensors)

base_model.score.weight f4 [9, 896]
0	0xbd088a89	-0.033335242
1	0x3bc9761b	0.0061481125
2	0x3d055f6a	0.032561697
3	0xbcb38b69	-0.021917062
4	0x3b3852f7	0.0028125623
5	0xbc483fab	-0.012222211
6	0xbce4fd3f	-0.027952788
7	0x3cdef027	0.027214123
8	0xbc5d275a	-0.013498152
9	0xbcd0e021	-0.025497498
10	0xbccf21eb	-0.025284728
11	0x3c95618c	0.01823499
12	0xbc058c79	-0.008151167
13	0x3c960135	0.018311122
14	0x3c9364ba	0.017992366
15	0x3cd6b75e	0.026210483
16	0x3d10e005	0.03536989
17	0xbc686275	-0.01418363
18	0xbc3fb6ed	-0.011701328
19	0x3c088248	0.008331843
20	0x3c9ef5c5	0.019404301
21	0xbb1b3be7	-0.0023686828
22	0x3b531536	0.0032208688
23	0xbcf2dcc4	-0.029646285
24	0x3bcdf62a	0.0062854486
25	0xbb887260	-0.004164025
26	0x3a821aae	0.0009926164
27	0x3927df7b	0.00016009614
28	0xbc28be5d	-0.010299292
29	0x3bef6761	0.007306025
30	0xbb41912f	-0.0029536
31	0x3d2f4728	0.04279247
32	0x3a5d32ec	0.0008438069
33	0xbc6f21c0	-0.014595449
34	0x3d12792e	0.035760097
35	0x3b11244f	0.0022146886
36	0x3cdf898d	0.027287269
37	0xbc74384a	-0.0149059985
38	0x3caff498	0.021478936
39	0xbd1d4dcb	-0.038404267
40	0x3c2be79c	0.010492232
41	0x3c48a91c	0.01224735
42	0x3cc0ff9e	0.023559388
43	0x3c1a6dfb	0.009425635
44	0xb9219d0b	-0.0001541266
45	0xbc44f2f0	-0.012020811
46	0x3b2afe1e	0.0026091407
47	0x3cb7877c	0.022403471
48	0x3bd67816	0.006545077
49	0x3cbb0093	0.022827422
50	0x3d2aac44	0.04166819
51	0xbbdd122b	-0.0067465506
52	0xbc87fa96	-0.01659898
53	0x3c0d143c	0.008610781
54	0x3d1e01c8	0.038575917
55	0x3a398c5c	0.0007078105
56	0xbcd1cde4	-0.025610872
57	0x3c93094a	0.017948765
58	0x3c99cefb	0.018775454
59	0x3ce25d29	0.027632313
60	0x3b9a23f3	0.0047039925
61	0x3cf198ca	0.0294918
62	0x3c26f437	0.010190061
63	0x3c6b2b54	0.014353592
64	0xbc15cf5d	-0.009143678
65	0x3cdef9c5	0.027218709
66	0x3c18c43d	0.009324131
67	0xbceb1410	-0.02869609
68	0xbc7d49fb	-0.015459533
69	0x3cd9be03	0.026579862
70	0xbd36767f	-0.0445466
71	0xbc21f88d	-0.009885919
72	0xbca5b136	-0.020226102
73	0x3c01f018	0.007930778
74	0x3cff3e99	0.031157779
75	0xbcf273d4	-0.029596247
76	0x3bab4b62	0.005227492
77	0x3b84709d	0.004041745
78	0xbd86ea86	-0.065877005
79	0x3a955420	0.0011392869
80	0x3b9e7aa0	0.0048363954
81	0x3bfd0ddc	0.0077225994
82	0xbc345f0e	-0.011008991
83	0x3d1e5db6	0.03866359
84	0xbccb2e6c	-0.02480241
85	0x3c0733f7	0.0082521355
86	0x3cd029d8	0.025410578
87	0xbca78623	-0.020449704
88	0x3cd519a2	0.0260132
89	0x3cb2121c	0.02173715
90	0x3c7f6d75	0.015590061
91	0xbd0fcd36	-0.035107814
92	0xbc7830d0	-0.015148357
93	0xb9657ec7	-0.0002188637
94	0xbc844d0f	-0.016150026
95	0xbcd99ec0	-0.026564956
96	0xbc1c7cfc	-0.009551283
97	0x3b89d008	0.0042057075
98	0x3d1e3e3c	0.03863357
99	0x3b819235	0.003954197
100	0x3b4e2265	0.0031453606
101	0xba614a04	-0.0008594098
102	0x3c87f70b	0.016597291
103	0x3c95a6fb	0.018268099
104	0x3be22c2d	0.006902239
105	0xbaa42c6f	-0.0012525449
106	0x3c004f41	0.007831396
107	0xbc354693	-0.0110641895
108	0x3d2adc75	0.04171415
109	0x3c0d1e16	0.00861313
110	0xbc783fab	-0.015151898
111	0xbc95ad59	-0.018271135
112	0xbd3cf8f4	-0.046135858
113	0xbc3867af	-0.011255189
114	0x3bdda81d	0.0067644254
115	0xbce8ccf7	-0.028418047
116	0x3b14f8fc	0.0022731414
117	0x384464c2	4.682388e-05
118	0x3cb48b42	0.02203906
119	0x3cb6d778	0.02231954
120	0xbc6e4611	-0.014543072
121	0x3cd6f25f	0.026238618
122	0x3cd7b1f8	0.02632998
123	0x3ab708cc	0.0013964414
124	0x3c857dd1	0.016295346
125	0x3cc31f3d	0.023818607
126	0xbd4af624	-0.049551144
127	0xbc5f8e33	-0.013644743
128	0x39911ed1	0.00027679515
129	0xbc893209	-0.016747491
130	0xbcdad991	-0.026715072
131	0x3d238b3b	0.039927702
132	0x3d304936	0.04303857
133	0x3ca016e7	0.01954217
134	0x3c647ee2	0.013946267
135	0xbcba3500	-0.02273035
136	0x3c941760	0.018077552
137	0x3cf1f781	0.029536964
138	0xbb934d43	-0.0044952943
139	0xba201ee6	-0.000610812
140	0x3b3fbc21	0.002925642
141	0x3cac7e3a	0.021056283
142	0x3c34d1bc	0.011036333
143	0x3b9fc27f	0.0048754807
144	0xbcd49439	-0.025949584
145	0x3c388c56	0.011263927
146	0xbb9b82b2	-0.0047458047
147	0x3d1374ad	0.035999943
148	0xbcb283d6	-0.02179138
149	0x3c270ad7	0.0101954555
150	0x3d316ac4	0.04331471
151	0x3cdf6ad9	0.027272629
152	0xbd370fb8	-0.044692725
153	0x3ac5394f	0.0015046987
154	0x3b0cdbe8	0.002149338
155	0xbb6589e2	-0.0035024812
156	0x3c884bd9	0.01663773
157	0xbbca6002	-0.006175996
158	0xbbe55af2	-0.006999367
159	0xbb14b8c5	-0.002269314
160	0x3cd5115a	0.02600925
161	0x3ccc7012	0.024955783
162	0xbbdd0c52	-0.0067458535
163	0x3b858a6a	0.004075338
164	0xbc8ef46b	-0.017450532
165	0x3cde8f62	0.02716798
166	0xbcdfd409	-0.027322786
167	0x3c2be56c	0.01049171
168	0xbcc6cdc9	-0.024268048
169	0xbb912a02	-0.0044300565
170	0xbc8301d1	-0.015992077
171	0x3b2efd36	0.0026701218
172	0xbc51639b	-0.012780095
173	0xbc9fd2da	-0.019509722
174	0x3c130352	0.00897296
175	0x3a338d3d	0.0006849354
176	0x3c55b1be	0.013042865
177	0xbb05ece6	-0.0020435392
178	0xbc1c4ad4	-0.009539325
179	0x3b0d98bd	0.0021605932
180	0xbc7054c6	-0.014668649
181	0xbd1437d8	-0.03618607
182	0x3cf3dd30	0.029768556
183	0x3b2803c5	0.0025637012
184	0xbd3131dc	-0.04326044
185	0xbbfc492c	-0.0076991525
186	0x3c932b96	0.01796512
187	0x3c8172ab	0.015801748
188	0xbc343de2	-0.011001082
189	0xbcf3a5ca	-0.02974214
190	0xbb1b4011	-0.002368931
191	0xbcd84c8b	-0.026403686
192	0xbc4aa8a8	-0.012369312
193	0x3c44c77c	0.012010451
194	0xbc9bd2d5	-0.019021431
195	0x3c6fc16c	0.014633518
196	0x3c915a6b	0.01774331
197	0x3c107f2f	0.008819385
198	0xbc567646	-0.013089722
199	0x3c139b84	0.009009246
200	0x3bbc6dd9	0.0057503995
201	0xbbf52a7f	-0.0074818726
202	0xbd09dcc3	-0.0336578
203	0x3b4be3c6	0.0031111105
204	0xbc8adde9	-0.016951518
205	0x3d27470d	0.040839244
206	0xbc7c05ac	-0.015382212
207	0xbd2035a0	-0.03911364
208	0xbbd17da0	-0.0063931495
209	0x3c8be258	0.017075703
210	0x3d0de195	0.03463896
211	0xbc0a3f54	-0.00843795
212	0xbb912a83	-0.0044301166
213	0x3cc3d9c5	0.023907552
214	0xbcdaa8f2	-0.026691888
215	0xbcc2f6d5	-0.02379934
216	0xbc9d5d41	-0.019209506
217	0x3ab6048f	0.0013886857
218	0x3c842285	0.016129741
219	0x3d45e1cd	0.048311044
220	0x3cb6c067	0.022308541
221	0xbbcd05fd	-0.0062568174
222	0xbd6bab4d	-0.057536412
223	0xbb9a2e23	-0.004705207
224	0xbc752964	-0.014963482
225	0xbcc50e22	-0.02405459
226	0xb9d7f8ef	-0.00041193466
227	0x3c4826ec	0.012216311
228	0x3b1d28de	0.0023980658
229	0x3c531327	0.012882984
230	0xbd25e49e	-0.04050123
231	0x3c91e8dd	0.017811233
232	0xbb272c3b	-0.002550854
233	0xbd3f1044	-0.04664637
234	0xbbd1f061	-0.006406829
235	0x3c07887f	0.008272289
236	0x3cf57871	0.029964658
237	0x3cb03334	0.02150879
238	0xbbd8b06d	-0.0066128285
239	0xbd06b78f	-0.0328899
240	0x3c17b84b	0.009260247
241	0x3cdc70ae	0.026909199
242	0x3cb367ff	0.021900175
243	0x3b8efe50	0.0043638125
244	0xbbf8f7cd	-0.0075978995
245	0x3cd2d35f	0.025735555
246	0x3d0076a2	0.031363137
247	0xbc9e4dba	-0.019324172
248	0xbb759ae8	-0.0037476365
249	0xbd2d5596	-0.04231795
250	0x3cf610e1	0.030037345
251	0x3cf6713f	0.030083297
252	0x3c66910f	0.014072671
253	0x3c2d6ac7	0.01058454
254	0x3c854313	0.016267335
255	0x3c4bfaf4	0.012449969

prompt_embeddings f4 [50, 896]
0	0x3ce9ca79	0.02853893
1	0xbbe32267	-0.0069315913
2	0xbc8bca9a	-0.017064381
3	0xbc4fb860	-0.012678236
4	0xbc3c6afa	-0.011500115
5	0x3cb84f32	0.0224987
6	0x3a11ae4f	0.0005557285
7	0xbc943169	-0.018089967
8	0xbbda16fe	-0.006655573
9	0x3b7c660c	0.0038512973
10	0xbbdb1ac7	-0.0066865417
11	0xbcaed79e	-0.021343049
12	0xbcfee37c	-0.031114332
13	0xbab00d4f	-0.0013431701
14	0x3ca00152	0.01953188
15	0x3c9b9adb	0.01899474
16	0x3c21e5b2	0.009881424
17	0x3c075ad4	0.008261401
18	0x3b6a25bd	0.003572806
19	0xbc984269	-0.018586354
20	0x3c38d87c	0.011282083
21	0x3ca10524	0.019655772
22	0x3b40a07d	0.0029392533
23	0x3c083aed	0.00831483
24	0xbcf314c0	-0.02967298
25	0xbc91bb17	-0.017789407
26	0xbc242778	-0.010019176
27	0x3cd82203	0.026383406
28	0xbc4e27fa	-0.012582773
29	0xbcaae2d6	-0.020860117
30	0x3c9ad907	0.018902315
31	0x3be122ed	0.0068706186
32	0xbb1e5cec	-0.0024164272
33	0x3c2647e8	0.01014898
34	0x3bff3aab	0.007788976
35	0x3c30b124	0.010784421
36	0xbc10edf0	-0.008845791
37	0xbba67855	-0.0050802627
38	0xbce6eeb4	-0.028189994
39	0xbca03369	-0.019555764
40	0xbc20565e	-0.009786217
41	0xbc3e33eb	-0.011609058
42	0x3baccf64	0.0052737463
43	0x3acf92ff	0.0015836655
44	0xbd0664e0	-0.032811046
45	0xbc8e7ba3	-0.017392939
46	0xbc95b24d	-0.018273497
47	0xbc2a9aa1	-0.010412843
48	0xbcf8617c	-0.030319922
49	0x3ca93cec	0.020658933
50	0x3c852b30	0.016255945
51	0xbad44d97	-0.001619744
52	0xbc6684d6	-0.0140697565
53	0xbcb7fdf9	-0.02245997
54	0xbc5a8734	-0.013337899
55	0x3ca848d5	0.020542542
56	0xbc12fa01	-0.008970738
57	0x3b32a361	0.0027258026
58	0x3c43c877	0.01194965
59	0xbbe3b957	-0.0069495845
60	0xbb2bd99a	-0.002622223
61	0xbc301d7e	-0.010749219
62	0xbba65767	-0.005076337
63	0xbcfc855b	-0.030825308
64	0x3b36a9f7	0.0027872303
65	0xbc2bd5ae	-0.010487957
66	0x3c2254ca	0.009907911
67	0x3c9230f3	0.017845606
68	0x3cde9d53	0.027174627
69	0xbb039077	-0.0020075121
70	0xb9cf5370	-0.00039544282
71	0xbc84a2db	-0.016190937
72	0xbc592a5a	-0.013254726
73	0x3c2995a9	0.010350623
74	0xba9ee1c1	-0.0012121723
75	0xbbe8df5b	-0.007106704
76	0xbbd06d20	-0.006360665
77	0x3c310a8f	0.01080574
78	0x3c07adf4	0.00828122
79	0x3c265988	0.010153182
80	0x3c043942	0.008070292
81	0xbca740a5	-0.020416567
82	0x3c0f1859	0.008733832
83	0xbbc6adca	-0.0060631977
84	0xbd03f2ce	-0.03221398
85	0x3b77c331	0.0037805552
86	0xbc5b3b67	-0.013380862
87	0xbc9c0608	-0.019045845
88	0xbcdada4c	-0.02671542
89	0x3ba2165f	0.0049465145
90	0xbc499f15	-0.0123059945
91	0xbb63e3b4	-0.0034773173
92	0x3bd744c8	0.0065694787
93	0xbcc30278	-0.023804888
94	0x3cf1fb7c	0.029538862
95	0xbc9504ce	-0.018190768
96	0x3b4a6bb4	0.003088695
97	0x3c13656f	0.008996352
98	0x3b4445b5	0.0029948775
99	0x39f32271	0.00046374233
100	0x3bd7f01e	0.0065899035
101	0x3c125636	0.008931687
102	0x3cc92b82	0.024556879
103	0xbad87ef5	-0.0016517328
104	0xbbb240db	-0.0054398603
105	0x3ca0938d	0.019601608
106	0xbc6a76f0	-0.0143105835
107	0x3c221fb2	0.009895252
108	0x3a6fd2e9	0.00091485545
109	0xbbee1d71	-0.0072666933
110	0x3c88d6db	0.016704014
111	0x3b08e3e9	0.0020887798
112	0xbca339f9	-0.019925104
113	0x3c25ed66	0.010127401
114	0x3be84077	0.007087763
115	0x3cb03697	0.021510405
116	0xbb85c7b8	-0.004082646
117	0xbcf15393	-0.029458797
118	0x3c82f859	0.015987562
119	0xbae367bf	-0.0017349644
120	0xbbd35622	-0.006449477
121	0x3b9d7a0a	0.004805808
122	0x3bb5e392	0.00555081
123	0xbc04a617	-0.0080962395
124	0xbd013c65	-0.031551737
125	0x3c7b1032	0.0153236855
126	0xbc495199	-0.012287521
127	0xbc4732cd	-0.012158108
128	0xbc95f4b3	-0.018305158
129	0xbc9ee0ca	-0.019394297
130	0x3bcacd74	0.0061890427
131	0xbb744484	-0.0037272284
132	0x3b868f50	0.0041064397
133	0x3b93be25	0.004508751
134	0x3c851590	0.016245633
135	0x3b633345	0.003466801
136	0x3b116a7b	0.0022188711
137	0xbc480c7e	-0.01221001
138	0xbc475b26	-0.012167728
139	0x3c176f63	0.009242865
140	0xbc41c4c2	-0.011826696
141	0x3cd7ebe6	0.026357602
142	0x3c5c27dc	0.013437238
143	0xbc86cdc2	-0.016455535
144	0x3b84d577	0.0040537673
145	0x3cd9fee4	0.0266108
146	0x3be4db15	0.0069841244
147	0xbc8e62ad	-0.017381037
148	0xbc955414	-0.018228568
149	0xbc558e85	-0.013034468
150	0x3c73160a	0.0148367975
151	0x3cefcb26	0.029271673
152	0x3cabc247	0.020966662
153	0xbc9a1a6f	-0.018811433
154	0x3b4b633d	0.0031034492
155	0x3bacdf91	0.0052756746
156	0x3c3cff2c	0.011535447
157	0x3cb72a5f	0.022359071
158	0x39b529ac	0.00034554058
159	0xbc79277b	-0.015207167
160	0xbbb28f00	-0.005449176
161	0xba2b7cd2	-0.0006541732
162	0xbb1f4b67	-0.0024306418
163	0x3d096c6f	0.033550676
164	0x3c000986	0.007814771
165	0x3c16bdd0	0.009200528
166	0x3ca2d00f	0.0198746
167	0x3ab2db7b	0.0013645733
168	0x3c1a4e41	0.009418071
169	0x3bad877f	0.0052956934
170	0xbc932c8b	-0.017965576
171	0xbb5030b6	-0.0031767315
172	0x3c9668a0	0.018360436
173	0x3cb9ed61	0.022696199
174	0x3c37b9c0	0.01121372
175	0x3c66f3a2	0.0140961725
176	0xbbae1a04	-0.00531316
177	0xbd04d319	-0.03242788
178	0xbbb1e619	-0.005429041
179	0xbcf99f92	-0.030471597
180	0x3d067009	0.03282169
181	0xbc7dc2dc	-0.015488353
182	0x3b719939	0.003686501
183	0xbbeaed06	-0.0071693687
184	0xbb66bf14	-0.0035209106
185	0x3bbff2f6	0.0058578206
186	0x3ccd5e3c	0.025069349
187	0x3c509673	0.012731182
188	0xbc772751	-0.015085057
189	0x3bb3764e	0.0054767495
190	0x3cc906f8	0.024539456
191	0x3c7cc507	0.015427834
192	0xbc5c0b95	-0.013430496
193	0xbc55d338	-0.013050847
194	0xbbff660b	-0.007794147
195	0xbc791540	-0.01520282
196	0xbb60afc0	-0.0034284443
197	0xbc52830a	-0.012848625
198	0x3c32ff6b	0.010925154
199	0x3c0cc919	0.008592867
200	0xbbbb7906	-0.005721214
201	0x3bc7008a	0.0060730623
202	0x3caa5de3	0.020796722
203	0xbb98db75	-0.004664833
204	0xbcb0d096	-0.021583837
205	0xbb5359f8	-0.003224967
206	0x3bd69f7f	0.006549775
207	0xbb82e01c	-0.003994001
208	0x3b0a391c	0.0021091169
209	0xbcba8d70	-0.02277252
210	0xbbc2197a	-0.005923447
211	0x3c6729d8	0.014109097
212	0xbca0dfc3	-0.019637948
213	0x3c911a94	0.017712869
214	0xbca9ea14	-0.0207415
215	0x3c16857a	0.009187097
216	0xbba8e03d	-0.0051536844
217	0xbcb19c53	-0.021680987
218	0xbc09df54	-0.008415062
219	0xbca6ca06	-0.020360004
220	0xbad65304	-0.0016351645
221	0x3c9b815f	0.018982587
222	0x3c5dde5e	0.013541786
223	0x3b84e7e4	0.004055964
224	0xbc6406f5	-0.013917674
225	0xba4413f9	-0.0007479783
226	0x3c4e0a0b	0.012575637
227	0xbc27cb27	-0.010241306
228	0xbc15f969	-0.009153702
229	0xbc21bc64	-0.009871576
230	0xbc92f061	-0.017936887
231	0xbc4c38e7	-0.012464738
232	0x3c353649	0.011060306
233	0x3bb71009	0.0055866283
234	0xb988d771	-0.00026100458
235	0x3b3f2a4a	0.0029169493
236	0xbbb37c09	-0.0054774326
237	0x3c83f103	0.016106134
238	0xbc753eae	-0.014968557
239	0xbc533a07	-0.012892253
240	0x3c785181	0.015156151
241	0xbc41435f	-0.011795848
242	0xbc2bf982	-0.010496499
243	0xbc24cae3	-0.010058138
244	0x3a8fe61a	0.001097861
245	0xbc869ded	-0.016432727
246	0xbcc23b05	-0.023709783
247	0x3c6d6300	0.0144889355
248	0xbc03f422	-0.008053811
249	0xbcb1b03c	-0.02169048
250	0x3c82ea2d	0.015980804
251	0xbbe3ea73	-0.0069554388
252	0xbc00e83f	-0.007867872
253	0x3c5a7788	0.0133341625
254	0x3c946c23	0.01811797
255	0xbc50f2b7	-0.01275318
