PEFT-PT/modelo_juridico_prompt_tuning/checkpoint-1030/adapter_model.safetensors (safetensors, 211664 bytes, 2 tensors)

base_model.score.weight f4 [9, 896]
0	0xbd111bc7	-0.03542688
1	0x3bd2b0d4	0.006429771
2	0x3d0f6e82	0.035017498
3	0xbcabd487	-0.020975364
4	0x3a3a3384	0.00071030133
5	0xbc658f76	-0.0140112545
6	0xbce04705	-0.027377615
7	0x3ce44fc7	0.027870072
8	0xbc589576	-0.013219228
9	0xbcd6f2f7	-0.026238902
10	0xbcd4d07b	-0.025978317
11	0x3cb10cbd	0.02161252
12	0xbc078af8	-0.008272879
13	0x3c99f95c	0.018795662
14	0x3c9ef5d1	0.019404324
15	0x3ce16a81	0.027516605
16	0x3d120607	0.03565028
17	0xbc7ec054	-0.015548784
18	0xbc477a04	-0.012175087
19	0x3c1e4bc4	0.009661619
20	0x3ca03f34	0.019561388
21	0xbb15ab5e	-0.0022837739
22	0x3b889746	0.004168424
23	0xbd035644	-0.03206469
24	0x3bc5b2b2	0.006033265
25	0xbb7b8d58	-0.0038383808
26	0x3b06f8ba	0.002059503
27	0xb966ddf8	-0.00022017199
28	0xbc294d33	-0.010333347
29	0x3bd1a05b	0.0063972897
30	0xbbe90bf7	-0.007112022
31	0x3d2d9caa	0.042385735
32	0x3a54baef	0.00081150135
33	0xbc81cd9a	-0.015845109
34	0x3d13c360	0.036074996
35	0x3b343ecd	0.0027503252
36	0x3ce6a91d	0.028156811
37	0xbc883749	-0.016627925
38	0x3caeab00	0.021321774
39	0xbd1db0c0	-0.03849864
40	0x3c36e92c	0.011163991
41	0x3c801db2	0.01563916
42	0x3cc463e0	0.023973405
43	0x3c10291b	0.008798863
44	0x399b2479	0.00029591078
45	0xbc47c80e	-0.012193693
46	0x3b3955f0	0.0028279983
47	0x3cc27da8	0.023741558
48	0x3c130519	0.008973383
49	0x3cc0de7e	0.023543593
50	0x3d2e683d	0.042579878
51	0xbbf8c97f	-0.0075923796
52	0xbc878487	-0.016542686
53	0x3c1f43f1	0.009720788
54	0x3d1d401e	0.038391225
55	0x38edd80a	0.00011341281
56	0xbcd46a5e	-0.025929626
57	0x3c868b2c	0.016423784
58	0x3c9fff50	0.019530922
59	0x3cd964be	0.026537295
60	0x3ba1cabb	0.0049374974
61	0x3cf2c4af	0.029634802
62	0x3c273ce6	0.01020739
63	0x3c5f6606	0.013635164
64	0xbc0f27c4	-0.008737508
65	0x3cc699bb	0.024243226
66	0x3c0886b8	0.008332901
67	0xbcf6170a	-0.030040283
68	0xbc64f241	-0.013973773
69	0x3cf342c7	0.029694928
70	0xbd49d31e	-0.049273603
71	0xbc2e9f13	-0.010658043
72	0xbc9b4248	-0.018952504
73	0x3c000371	0.0078133205
74	0x3d04a49c	0.032383546
75	0xbcf28c92	-0.029608045
76	0x3bb22462	0.005436466
77	0x3b59fbee	0.0033261734
78	0xbd8a17a9	-0.06742794
79	0x3af2a97e	0.0018513647
80	0x3b99dc84	0.004695477
81	0x3bfe60d3	0.007763007
82	0xbc45902b	-0.012058298
83	0x3d22c120	0.03973496
84	0xbcbf9b5f	-0.023389516
85	0x3c08787c	0.008329507
86	0x3cd3a10c	0.02583363
87	0xbca7ac84	-0.020468004
88	0x3cc4b286	0.024010908
89	0x3cc3a1fa	0.023880947
90	0x3c84936b	0.016183576
91	0xbd0f9887	-0.03505757
92	0xbc6f08bf	-0.014589488
93	0xba2044fc	-0.0006113795
94	0xbc82a648	-0.01594843
95	0xbcd3332c	-0.025781237
96	0xbc192962	-0.009348245
97	0x3b824d79	0.0039765206
98	0x3d1c0180	0.038087368
99	0x3b3cd3d9	0.0028812794
100	0x3b8bd093	0.0042668073
101	0xba5ee3fa	-0.0008502599
102	0x3c89628c	0.016770624
103	0x3c90a5f9	0.017657267
104	0x3bf7489b	0.007546497
105	0xbafef2d7	-0.0019451034
106	0x3bcd2cc1	0.0062614386
107	0xbc4951ea	-0.012287596
108	0x3d2927d1	0.041297738
109	0x3c17d334	0.009266663
110	0xbc784499	-0.015153074
111	0xbc9bc805	-0.019016275
112	0xbd3a3c4e	-0.045467667
113	0xbc389fa4	-0.01126853
114	0x3be8df76	0.0071067167
115	0xbcd4310a	-0.02590229
116	0x3b3cdc86	0.0028817966
117	0xb90b205c	-0.00013268128
118	0x3cbd300f	0.023094205
119	0x3cb54c9e	0.02213126
120	0xbc7bbe41	-0.015365184
121	0x3cdc94b0	0.026926368
122	0x3cd436f4	0.02590511
123	0x3adc7a26	0.0016821071
124	0x3c87a734	0.01655922
125	0x3cbc29ba	0.022969116
126	0xbd4c0feb	-0.049819868
127	0xbc5e2963	-0.013559672
128	0xba8d0469	-0.0010758761
129	0xbc89a00d	-0.016799951
130	0xbcd89c0f	-0.026441602
131	0x3d21ec74	0.03953214
132	0x3d2be252	0.041963883
133	0x3cb24bd4	0.021764673
134	0x3c3e57ba	0.011617595
135	0xbcbefd7b	-0.023314228
136	0x3c93c106	0.018036377
137	0x3d004333	0.031314086
138	0xbb8a9b72	-0.0042299563
139	0xba8d5507	-0.0010782786
140	0x3b53c523	0.0032313548
141	0x3c98e0ad	0.018661821
142	0x3c3a58f7	0.01137375
143	0x3b954fd0	0.0045566335
144	0xbcd5c947	-0.026096953
145	0x3c5dd5e9	0.01353977
146	0xbb99e704	-0.0046967287
147	0x3d12ac96	0.035809122
148	0xbcaf05fa	-0.021365155
149	0x3c39416a	0.0113071
150	0x3d39864e	0.0452941
151	0x3ce6a632	0.02815542
152	0xbd362b98	-0.044475168
153	0x3ae6e0c1	0.0017614589
154	0x3b47aa47	0.0030466483
155	0xbb7190f0	-0.003686007
156	0x3c6afdba	0.01434272
157	0xbbf41eae	-0.0074499464
158	0xbbe56291	-0.0070002754
159	0xbb1cd793	-0.0023932203
160	0x3cd2a023	0.025711125
161	0x3cfa1cdf	0.030531345
162	0xbbec6b19	-0.0072149155
163	0x3b99771c	0.0046833884
164	0xbc5914ed	-0.013249618
165	0x3cda7745	0.0266682
166	0xbcda09c4	-0.026615985
167	0x3c37d3eb	0.011219959
168	0xbccd7c0f	-0.02508357
169	0xbb1c6fc0	-0.002387032
170	0xbc5e9a2d	-0.013586563
171	0x3b269406	0.0025417819
172	0xbc37f4dd	-0.011227814
173	0xbca41d55	-0.020033518
174	0x3bc0b56f	0.0058810036
175	0x3a9f2f41	0.001214482
176	0x3c30f695	0.010800977
177	0xbaa85920	-0.0012843944
178	0xbc5cd9ae	-0.013479633
179	0x3b170ae0	0.0023047253
180	0xbc73b40f	-0.014874472
181	0xbd193270	-0.037401617
182	0x3cf18b0d	0.02948525
183	0x3b309545	0.002694444
184	0xbd375294	-0.044756487
185	0xbc2262c8	-0.009911247
186	0x3cb0be3c	0.021575086
187	0x3c812826	0.015766215
188	0xbc3ef7bc	-0.011655744
189	0xbcef0578	-0.029177412
190	0xbb359b23	-0.0027710877
191	0xbcd9309e	-0.02651244
192	0xbc5e0400	-0.013550758
193	0x3c48a64b	0.012246679
194	0xbcaa4941	-0.020786883
195	0x3c69411a	0.014236713
196	0x3c93d665	0.018046567
197	0x3c12ba57	0.00895556
198	0xbc5756e3	-0.013143274
199	0x3c14d917	0.009084961
200	0x3b80a811	0.003926285
201	0xbc0f6f4f	-0.008754565
202	0xbcfdd2a2	-0.030984227
203	0x3b7a5e76	0.0038203276
204	0xbc991396	-0.018686097
205	0x3d2c17b0	0.042014778
206	0xbc730ac7	-0.0148341125
207	0xbd200563	-0.039067637
208	0xbbcc04d6	-0.0062261624
209	0x3c8dae7a	0.017295111
210	0x3d0c8625	0.034307618
211	0xbc0f8a14	-0.008760948
212	0xbb97d3ec	-0.0046334174
213	0x3cc115d2	0.023569975
214	0xbccfbb50	-0.025357872
215	0xbcc6c14a	-0.02426209
216	0xbc94a103	-0.018143183
217	0x3ab0711d	0.0013461445
218	0x3c830ba5	0.015996763
219	0x3d465a90	0.04842621
220	0x3cb990b6	0.022652011
221	0xbbbe8556	-0.0058142347
222	0xbd6d3597	-0.057912435
223	0xbbbecaa6	-0.0058224974
224	0xbc77f643	-0.015134397
225	0xbcbfd6a5	-0.02341778
226	0x389d6f98	7.507129e-05
227	0x3c3c862e	0.0115066
228	0x3adcf31b	0.0016857119
229	0x3c30d110	0.010792032
230	0xbd2354c6	-0.039875768
231	0x3c8efc21	0.017454209
232	0xbba13f92	-0.0049209082
233	0xbd3c5dac	-0.04598777
234	0xbc16307b	-0.009166832
235	0x3c0fed41	0.008784593
236	0x3cf6cb87	0.030126346
237	0x3ca43a2c	0.02004727
238	0xbbb9826f	-0.005661301
239	0xbd068d48	-0.03284958
240	0x3c12f9b0	0.008970663
241	0x3cdd8213	0.027039563
242	0x3cb757f0	0.022380799
243	0x3b568f3f	0.003273919
244	0xbbfb4371	-0.0076679518
245	0x3cd834c7	0.026392354
246	0x3d053546	0.03252151
247	0xbcb90f6d	-0.022590363
248	0xbb70124d	-0.0036632002
249	0xbd2dc7d1	-0.042426888
250	0x3cf4355c	0.0298106
251	0x3d028db6	0.031873427
252	0x3c436cbd	0.011927781
253	0x3c3e7468	0.011624433
254	0x3c8cd408	0.017190948
255	0x3c59d9fe	0.013296602

prompt_embeddings f4 [50, 896]
0	0x3ce90887	0.028446449
1	0xbbdc7178	-0.0067273937
2	0xbc8b4ee4	-0.017005391
3	0xbc45910f	-0.01205851
4	0xbc47107a	-0.012149924
5	0x3cb85399	0.0225008
6	0xba625268	-0.00086334953
7	0xbc917350	-0.01775518
8	0xbbd637a5	-0.006537395
9	0x3b8d372d	0.004309556
10	0xbbd93d30	-0.0066296086
11	0xbcae9d92	-0.02131537
12	0xbcfefbd2	-0.031125937
13	0xb9cb84ec	-0.00038818212
14	0x3ca4a046	0.020095956
15	0x3c9b2862	0.018940154
16	0x3c2689ad	0.01016466
17	0x3be8a919	0.007100236
18	0x3b2a8ccf	0.002602387
19	0xbc9cf2f0	-0.01915881
20	0x3c3c10e2	0.011478635
21	0x3c9d053c	0.019167535
22	0x3b4245b4	0.0029643597
23	0x3c02317d	0.007946369
24	0xbcf6b375	-0.030114869
25	0xbc912d1e	-0.017721709
26	0xbc3048ad	-0.010759515
27	0x3ce6872c	0.028140627
28	0xbc593fdd	-0.013259855
29	0xbcb33b4c	-0.02187886
30	0x3c980ea0	0.018561661
31	0x3bd808da	0.006592852
32	0xbb34c46d	-0.00275829
33	0x3c2b257f	0.0104459515
34	0x3bf5ec8e	0.007505006
35	0x3c254a3b	0.010088499
36	0xbc125da8	-0.008933462
37	0xbbc1413b	-0.0058976687
38	0xbce87d2e	-0.028380003
39	0xbc9b0e41	-0.018927695
40	0xbc23838b	-0.009980093
41	0xbc44757d	-0.011990902
42	0x3bb87544	0.0056292135
43	0x3a0c9f2d	0.0005364295
44	0xbd04c024	-0.032409802
45	0xbc919c3c	-0.017774694
46	0xbc9204e4	-0.017824598
47	0xbc1cf511	-0.009579913
48	0xbcf21bf5	-0.029554347
49	0x3ca55bb1	0.020185323
50	0x3c8d3185	0.017235527
51	0xbb1b47e2	-0.0023693969
52	0xbc64fad0	-0.013975814
53	0xbcb23546	-0.021753918
54	0xbc5fa885	-0.013651018
55	0x3ca556dc	0.02018302
56	0xbc10ac14	-0.008830089
57	0x3b6ef94a	0.0036464506
58	0x3c3f0e8e	0.011661185
59	0xbbd65e91	-0.006542035
60	0xbb4de1e7	-0.0031415166
61	0xbc3c7ac5	-0.01150388
62	0xbba441f8	-0.005012747
63	0xbcf28db8	-0.029608592
64	0x3b405ec7	0.0029353367
65	0xbc159936	-0.009130767
66	0x3c2d0579	0.010560387
67	0x3c8ce9e3	0.01720137
68	0x3cf3e9fc	0.029774658
69	0xbb382179	-0.0028096123
70	0xba1d8c9f	-0.0006010029
71	0xbc8ccaa3	-0.017186468
72	0xbc6b7511	-0.0143711725
73	0x3c37b4aa	0.011212507
74	0xba9b3505	-0.0011841363
75	0xbc06800b	-0.008209239
76	0xbbfd4d4d	-0.0077301622
77	0x3c31ed41	0.010859788
78	0x3c110f6c	0.0088537745
79	0x3c399add	0.011328426
80	0x3c0278f7	0.007963411
81	0xbcaa9584	-0.020823248
82	0x3c1343d0	0.008988336
83	0xbbd44564	-0.0064779986
84	0xbd099f13	-0.03359897
85	0x3b846e4e	0.0040414697
86	0xbc5d9faf	-0.013526841
87	0xbc9b3480	-0.018945932
88	0xbce84343	-0.028352385
89	0x3b8f2023	0.0043678447
90	0xbc4f8149	-0.012665101
91	0xbb80fe5b	-0.0039365715
92	0x3bd8133c	0.00659409
93	0xbcc172c0	-0.023614287
94	0x3cf0551e	0.029337462
95	0xbc8cf279	-0.017205464
96	0x3b267497	0.0025399083
97	0x3c0738ea	0.008253315
98	0x3b8a8218	0.004226934
99	0x3a636b02	0.0008675308
100	0x3be3d23b	0.0069525517
101	0x3beac065	0.0071640485
102	0x3cc34538	0.023836717
103	0xbb3057db	-0.0026907835
104	0xbb9a983c	-0.004717855
105	0x3c9e2a91	0.019307407
106	0xbc6938ef	-0.014234765
107	0x3c234008	0.009963997
108	0x3a888ac8	0.0010417337
109	0xbbddec84	-0.0067725796
110	0x3c84b77c	0.016200773
111	0x3aa2783a	0.001239545
112	0xbca5a866	-0.0202219
113	0x3c26a523	0.010171208
114	0x3bcfe456	0.0063443584
115	0x3caaed03	0.02086497
116	0xbb955804	-0.0045576114
117	0xbcf4d3c0	-0.029886127
118	0x3c860382	0.016359095
119	0xbae83dea	-0.0017718647
120	0xbbc77367	-0.006086755
121	0x3b71559a	0.0036824704
122	0x3bc68117	0.006057869
123	0xbc039895	-0.008031984
124	0xbd030960	-0.031991363
125	0x3c813423	0.015771931
126	0xbc46695c	-0.012110081
127	0xbc3eb958	-0.011640869
128	0xbc8ff172	-0.017571185
129	0xbca3071a	-0.019900847
130	0x3bc5d566	0.006037402
131	0xbb1a4c9e	-0.0023544203
132	0x3b7154b1	0.0036824162
133	0x3bb0cb9a	0.005395365
134	0x3c7a17c5	0.015264456
135	0x3b49cb3f	0.003079131
136	0x3add0d5b	0.0016864942
137	0xbc55a623	-0.013040098
138	0xbc3e8c00	-0.011630058
139	0x3c2782c0	0.010224044
140	0xbc349214	-0.011021156
141	0x3cd64b98	0.026159093
142	0x3c7b6df2	0.015346037
143	0xbc867f85	-0.016418228
144	0x3b2a4ec9	0.00259869
145	0x3cd78082	0.026306394
146	0x3bd0876e	0.0063638007
147	0xbc931257	-0.017953081
148	0xbc8a6e79	-0.01689838
149	0xbc505408	-0.012715347
150	0x3c732b24	0.0148418285
151	0x3cf5048d	0.029909397
152	0x3cb3e848	0.021961346
153	0xbc878ac3	-0.016545659
154	0x3b842687	0.004032913
155	0x3bc5c2f8	0.006035205
156	0x3c61daa3	0.013785037
157	0x3cbbf569	0.02294417
158	0x3a828205	0.0009956962
159	0xbc684b90	-0.014178172
160	0xbbadc34f	-0.0053028236
161	0xbacc280f	-0.0015575903
162	0xbb078f62	-0.0020684828
163	0x3d0e3405	0.03471758
164	0x3bfe8ace	0.0077680117
165	0x3c2253d1	0.009907679
166	0x3c9fa2f5	0.019486884
167	0x3b2cd934	0.002637458
168	0x3c2083d7	0.009797058
169	0x3bad2e15	0.0052850344
170	0xbc92d386	-0.017923128
171	0xbb82fc15	-0.0039973357
172	0x3c9449d7	0.018101616
173	0x3cb5b629	0.022181587
174	0x3c332f06	0.010936504
175	0x3c6088f1	0.013704524
176	0xbbd43681	-0.006476224
177	0xbd01dce6	-0.031704806
178	0xbbcff628	-0.006346483
179	0xbcfd2138	-0.030899629
180	0x3d048764	0.03235568
181	0xbc7f7e1f	-0.015594034
182	0x3b2aed2a	0.0026081302
183	0xbbe274ca	-0.006910895
184	0xbb64792d	-0.0034862265
185	0x3b9a4fe7	0.004709232
186	0x3cc8039e	0.024415787
187	0x3c5d8c39	0.013522201
188	0xbc8208f1	-0.015873404
189	0x3bb8cc75	0.0056396076
190	0x3cc87edd	0.024474556
191	0x3c77a23a	0.015114361
192	0xbc4e156c	-0.01257835
193	0xbc574e95	-0.013141294
194	0xbc14793b	-0.009062107
195	0xbc6da538	-0.014504723
196	0xbb7b4b7c	-0.0038344553
197	0xbc436c2e	-0.0119276475
198	0x3c148350	0.00906451
199	0x3c07988a	0.008276114
200	0xbbc207d3	-0.005921343
201	0x3be52e52	0.006994047
202	0x3cb28a75	0.021794537
203	0xbb871048	-0.004121814
204	0xbcb70a60	-0.022343814
205	0xbb78b12f	-0.0037947407
206	0x3c0f6b8b	0.008753668
207	0xbb8e0ca7	-0.0043350044
208	0x3b1dd51d	0.0024083324
209	0xbcb365ed	-0.021899188
210	0xbbb14db4	-0.0054108743
211	0x3c5dca51	0.0135370055
212	0xbc9fc81b	-0.019504597
213	0x3c8ccccb	0.017187497
214	0xbcaaded9	-0.020858215
215	0x3c11e3e7	0.008904434
216	0xbbbc7d04	-0.0057522077
217	0xbcb3b472	-0.021936629
218	0xbc05896a	-0.008150438
219	0xbca9ceff	-0.020728586
220	0xbae1189d	-0.0017173473
221	0x3ca11b86	0.019666445
222	0x3c616606	0.013757234
223	0x3b651c61	0.0034959542
224	0xbc59aa7a	-0.013285274
225	0xba9c8285	-0.0011940753
226	0x3c4c5fd1	0.012474016
227	0xbc2fa4a7	-0.0107204085
228	0xbc21a3ab	-0.009865682
229	0xbc1ac45a	-0.009446228
230	0xbc907ab1	-0.017636629
231	0xbc41a3df	-0.011818855
232	0x3c36f6d8	0.011167251
233	0x3bcc31ff	0.006231546
234	0x3899ca5a	7.3332994e-05
235	0x3b0c488d	0.0021405548
236	0xbb9e7b15	-0.00483645
237	0x3c7c4239	0.015396648
238	0xbc76e7aa	-0.015069881
239	0xbc5906ff	-0.013246297
240	0x3c68b2ee	0.014202816
241	0xbc3a4163	-0.0113681285
242	0xbc302e44	-0.010753218
243	0xbc2e3129	-0.010631838
244	0x3a9c3f2f	0.0011920686
245	0xbc8b6392	-0.017015252
246	0xbcc93837	-0.024562938
247	0x3c71f9c6	0.014769023
248	0xbc0531ed	-0.008129579
249	0xbcbfa827	-0.023395611
250	0x3c88e100	0.01670885
251	0xbbfb31d4	-0.007665852
252	0xbc097304	-0.008389238
253	0x3c373cc9	0.011183926
254	0x3c8daddd	0.017294819
255	0xbc572e6a	-0.013133625
