PEFT-PT/modelo_juridico_prompt_tuning/checkpoint-515/adapter_model.safetensors (safetensors, 71800 bytes, 1 tensors)

prompt_embeddings f4 [20, 896]
0.012990819 0.015295123 0.08515952 0.00037959684 0.033559125 -0.018039035 -0.029915202 0.016756518
0.00795516 -0.053583495 -0.0662246 -0.03543938 0.021939816 0.012510248 0.02431295 0.00833667
0.049152598 -0.080887206 0.07081169 -0.048455518 0.0672126 0.12201528 0.047634747 0.042610012
-0.04342606 0.05002888 -0.0006410347 0.038077526 0.01398352 -0.035209756 0.003878182 0.023729369
-0.08636665 0.002481769 -0.052882914 -0.019526826 -0.030258553 -0.07625734 -0.03198816 -0.07494276
0.007998499 0.035223357 0.016329518 0.09839308 -0.09926736 -0.0063191764 0.006232767 -0.025966808
-0.02168168 0.024334446 0.030488688 -0.022822546 -0.08754192 -0.02127366 0.0044354335 0.09160047
-0.020508744 0.029438477 0.029626263 -0.021463534 -0.026355995 -0.013879127 -0.073815785 -0.008770988
-0.00047896022 -0.04312854 -0.084766515 0.037528947 0.0018656537 0.07587962 0.008770258 0.015277523
0.04863715 0.032428123 0.0069051012 0.02855943 0.038857233 0.07286234 0.012505038 -0.06583707
-0.0074186097 -0.054821853 0.034767125 -0.054930802 -0.105534896 0.00961305 -0.03126017 -0.057818633
-0.017829627 0.03130714 -0.014504999 0.046553843 0.033263385 -0.037283547 0.11614876 -0.06709848
0.029431814 0.015927382 -0.0723357 -0.05807615 0.053272653 0.0037571278 -0.07704424 -0.04314072
-0.040365346 0.020867674 0.050405815 0.019812621 0.0492256 0.045398425 -0.09038915 0.03894114
-0.008588705 -0.024713725 -0.027646646 -0.041796047 0.018506417 0.010010944 0.028290402 0.07798539
-0.0120493015 0.027577968 0.013536442 0.014112127 0.0026274903 0.020480957 -0.058450643 -0.053380974
0.008633445 0.049925108 0.091915965 -0.10991006 -0.04579092 0.01914812 0.08889855 -0.0004896843
0.068092264 -0.020886453 -0.01086784 0.04046066 -0.019385332 0.019392647 -0.021133484 -0.037935443
-0.036506817 0.00054022507 -0.013826107 -0.0008182812 -0.08237253 0.06453935 -0.005252799 -0.103458926
0.0029431975 -0.017059814 -0.05765041 0.041197523 0.012954313 0.06613708 -0.014001839 -0.08989662
0.0004969563 -0.02511978 -0.0133718 0.053365696 0.04440384 -0.03151689 0.049151894 0.042707935
0.10787758 -0.004690211 -0.0402711 -0.05571121 0.038103096 0.05106475 0.08904824 0.07419347
0.028859567 0.04090593 0.0054949666 -0.022781262 0.029896338 -0.0034860594 -0.036930718 -0.02426936
0.0021639876 0.019748433 -0.009652595 0.0559606 -0.04981516 -0.08347196 0.058560852 -0.021115601
0.0090769855 0.044795915 -0.0550785 0.06550096 -0.00670395 -0.004707454 0.040086295 0.0021630924
-0.056802586 -0.12505072 0.04706124 0.014285361 -0.01463192 -0.037374806 0.04134121 0.035942834
-0.057981186 0.0124689145 0.009055309 0.10124611 0.025751928 0.053564414 -0.07378545 -0.030811388
-0.036805317 -0.011600371 -0.0044662524 -0.013476966 0.04320134 0.07184037 -0.009151419 -0.0932168
-0.037542984 0.017050926 -0.0050341664 0.008633802 -0.066208005 -0.0512491 0.072682545 -0.0013990193
0.08146567 -0.017423866 -0.029275848 0.072977215 0.030885948 0.031566992 -0.020084253 0.0072644628
0.046220325 -0.06214856 -0.089820474 -0.029761605 -0.07407559 -0.020578291 -0.025435237 -0.018869724
0.011021587 -0.05811413 0.07673097 0.031686183 -0.03954789 -0.06336422 0.05889925 -0.063590944
00000000: 72d7 543c 6598 7a3c 1d68 ae3d a004 c739
00000010: 4b75 093d 99c6 93bc ba10 f5bc f744 893c
00000020: 5c56 023c 5e7a 5bbd c3a0 87bd e228 11bd
00000030: 21bb b33c c9f7 4c3c f42b c73c 8796 083c
00000040: 3c54 493d 31a8 a5bd b805 913d 4b79 46bd
00000050: c2a6 893d 26e3 f93d a71c 433d d687 2e3d
00000060: 86df 31bd 15eb 4c3d 1c0b 28ba 2ef7 1b3d
00000070: 221b 653c 1b38 10bd 1929 7e3b 1864 c23c
00000080: 00e1 b0bd 2da5 223b c19b 58bd b9f6 9fbc
00000090: c9e0 f7bc cf2c 9cbd 0406 03bd 977b 99bd
000000a0: 230c 033c 5e46 103d 7bc5 853c 5082 c93d
000000b0: b04c cbbd 1811 cfbb 3d3c cc3b 58b8 d4bc
000000c0: c79d b1bc 0859 c73c 6ac3 f93c 59f6 babc
000000d0: 2e49 b3bd 1946 aebc 1d57 913b 0799 bb3d
000000e0: f401 a8bc f628 f13c c7b2 f23c 4bd4 afbc
000000f0: 87e8 d7bc 4765 63bc bb2c 97bd 31b4 0fbc
00000100: f41c fbb9 8da7 30bd 119a adbd f4b7 193d
00000110: f388 f43a c666 9b3d 21b1 0f3c 934e 7a3c
00000120: c037 473d 5ad3 043d 3044 e23b 77f5 e93c
00000130: c328 1f3d da38 953d eee1 4c3c 96d5 86bd
00000140: cf17 f3bb e18c 60bd f967 0e3d 1fff 60bd
00000150: ae22 d8bd 0e80 1d3c aa0a 00bd 3bd3 6cbd
00000160: 700f 92bc ea3b 003d 60a6 6dbc 3eaf 3e3d
00000170: 303f 083d a2b6 18bd 67df ed3d ee6a 89bd
00000180: fd1a f13c 247a 823c bd24 94bd 42e1 6dbd
00000190: 6d34 5a3d 253a 763b 5fc9 9dbd 53b4 30bd
000001a0: 2256 25bd aff2 aa3c 5476 4e3d 144e a23c
000001b0: c8a0 493d b3f3 393d f21d b9bd bf80 1f3d
000001c0: a4b7 0cbc 7074 cabc 387b e2bc 5532 2bbd
000001d0: c59a 973c f104 243c 46c1 e73c ceb6 9f3d
000001e0: 6f6a 45bc 31eb e13c f4c7 5d3c 8d36 673c
000001f0: f931 2c3b aec7 a73c f169 6fbd 02a6 5abd
00000200: 4b73 0d3c 457e 4c3d 703e bc3d 8718 e1bd
00000210: 428f 3bbd 85dc 9c3c 7110 b63d 285e 00ba
00000220: f573 8b3d 111a abbc 060f 32bc 14ba 253d
00000230: fdcd 9ebc 54dd 9e3c 2120 adbc 3262 1bbd
00000240: 2c88 15bd e49d 0d3a e586 62bc ec81 56ba
00000250: eeb2 a8bd 352d 843d ac1f acbb 46e2 d3bd
00000260: a9e2 403b 06c1 8bbc d622 6cbd bcbe 283d
00000270: 543e 543c e172 873d f867 65bc b81b b8bd
00000280: 2c46 023a ffc7 cdbc 6515 5bbc fd95 5a3d
00000290: cde0 353d db17 01bd 7f53 493d 84ee 2e3d
000002a0: ecee dc3d 57b0 99bb 4ff3 24bd 7031 64bd
000002b0: fe11 1c3d 4529 513d ec5e b63d bff2 973d
000002c0: e66a ec3c fa8c 273d 1f0f b43b c59f babc
000002d0: 2ae9 f43c 5f76 64bb aa44 17bd 89d0 c6bc
000002e0: b0d1 0d3b 77c7 a13c eb25 1ebc f136 653d
000002f0: fb0a 4cbd 59f3 aabd 81dd 6f3d a0fa acbc
00000300: a3b7 143c ec7b 373d fe99 61bd 5e25 863d
00000310: cfac dbbb fc40 9abb 8731 243d abc2 0d3b
00000320: d4a9 68bd 4c0d 00be 49c3 403d 260d 6a3c
00000330: b8ba 6fbc 5316 19bd 6755 293d cb38 133d
00000340: ae7d 6dbd 6b4a 4c3c b85c 143c 1f5a cf3d
00000350: b5f5 d23c 5c66 5b3d d31c 97bd 2a68 fcbc
00000360: 2cc1 16bd 7c0f 3ebc a459 92bb 7ece 5cbc
00000370: e3f3 303d 0b21 933d d5ef 15bc 73e8 bebd
00000380: acc6 19bd 62ae 8b3c a6f5 a4bb ca74 0d3c
00000390: 1098 87bd 94ea 51bd 96da 943d 4c5f b7ba
000003a0: 79d7 a63d 7fbc 8ebc e7d3 efbc 1475 953d
000003b0: 8704 fd3c 644c 013d bb87 a4bc bb0a ee3b
000003c0: 8651 3d3d 7d8f 7ebd ccf3 b7bd 9cce f3bc
000003d0: f1b4 97bd ce93 a8bc 8f5d d0bc ae94 9abc
000003e0: e393 343c 1509 6ebd 2025 9d3d 5fc9 013d
000003f0: f8fc 21bd 1ac5 81bd 5740 713d f83b 82bd
