PEFT-PT/modelo_juridico_prompt_tuning/checkpoint-515/adapter_model.safetensors (safetensors, 211664 bytes, 2 tensors)

base_model.score.weight f4 [9, 896]
000000 b2 cf f1 bc 6c cd e7 3b e7 ff ff 3c 0e 68 b8 bc
       -0.029517982 0.0070740487 0.031249953 -0.022510555
000010 c0 c1 91 3b 87 41 44 bc ee e5 e6 bc be db da 3c
       0.0044481456 -0.011978514 -0.02818581 0.02671611
000020 da c1 6d bc a4 73 c5 bc b4 11 d9 bc 80 9e 56 3c
       -0.01451155 -0.024102993 -0.0264977 0.013099313
000030 4f 00 00 bc 0b 33 98 3c 37 07 80 3c 2c 0f c3 3c
       -0.007812574 0.018579027 0.01562844 0.023810945
000040 5f 13 15 3d 1e 2a 3c bc ff 48 2e bc d0 d6 2f 3c
       0.036395427 -0.011484651 -0.010637521 0.010732368
000050 0b 2a a0 3c 82 33 1d bb e6 22 1c 3b 70 a1 fe bc
       0.019551298 -0.0023987 0.0023824512 -0.031082839
000060 ed 3e d1 3b 52 96 b4 bb eb b5 68 b9 ae 9d cb 3a
       0.006385675 -0.0055110836 -0.00022193014 0.0015534663
000070 18 60 2c bc 76 63 12 3c 3a 4e 88 3a 54 f1 34 3d
       -0.010520957 0.008934846 0.001039929 0.04417546
000080 27 e7 60 b9 c7 40 5c bc 86 c4 0b 3d 3a 25 10 3b
       -0.00021448416 -0.0134431785 0.034122966 0.0021994845
000090 dd 8d e4 3c 39 01 7b bc 47 b1 b5 3c 07 5f 1d bd
       0.027899677 -0.015320116 0.022179259 -0.038420703
0000a0 dd 32 dd 3b 19 65 11 3c ce dd c4 3c a2 6b 31 3c
       0.006750448 0.008874201 0.024031546 0.010828884
0000b0 65 93 93 b9 ae 6d 48 bc eb c9 34 3b 5e d3 a2 3c
       -0.00028147842 -0.012233181 0.0027586173 0.019876178
0000c0 0d 12 aa 3b bd 46 cb 3c 28 47 2a 3d 9a 86 b7 bb
       0.00519014 0.024814004 0.041571766 -0.0056007626
0000d0 d5 4d 81 bc 88 48 f4 3b bc 53 1e 3d 27 0a 99 3a
       -0.015784184 0.0074549355 0.038654074 0.0011675999
0000e0 59 1b dd bc 8d ad b7 3c e2 40 8d 3c 08 d7 db 3c
       -0.02699058 0.022421623 0.017242853 0.026835933
0000f0 29 19 a0 3b 9a 05 f0 3c ea b5 1c 3c 6c 2a 7e 3c
       0.004885812 0.029299546 0.009564856 0.015513044
000100 07 26 18 bc d5 9e e8 3c 37 13 13 3c b7 6c d6 bc
       -0.00928641 0.02839605 0.008976749 -0.026174886
000110 dd 53 8a bc 46 f3 b4 3c 88 ed 25 bd 5b bb 02 bc
       -0.016885692 0.022088658 -0.04050973 -0.007979239
000120 b9 9a c4 bc 5a a1 c2 3b ab 00 ef 3c 81 46 f3 bc
       -0.023999559 0.0059396448 0.029175123 -0.029696705
000130 c3 6c 58 3b f2 39 a8 3b 95 70 83 bd 5a 21 5a 3a
       0.0033023811 0.0051338607 -0.06417958 0.000832101
000140 1e be 9a 3b cf 47 df 3b 98 2f 3b bc 06 bd 19 3d
       0.0047223708 0.00681398 -0.011424921 0.037533782
000150 64 36 e1 bc 4a f4 03 3c 9e 49 b5 3c 54 83 ae bc
       -0.027491756 0.0080538485 0.02212983 -0.021302857
000160 c5 76 eb 3c 31 b6 85 3c 8b 35 77 3c 52 82 11 bd
       0.028743157 0.016322227 0.015088449 -0.035524674
000170 d0 3d 80 bc 11 a3 be 3a 44 ca 82 bc 89 e3 d9 bc
       -0.015654474 0.0014544447 -0.015965588 -0.026597755
000180 a5 ee 21 bc ef ce 83 3b 0a d9 14 3d f9 d1 94 3b
       -0.009883557 0.004022471 0.036339797 0.0045416323
000190 57 6b 83 3b cb 9b 21 ba 27 96 89 3c 67 5e 9b 3c
       0.0040105986 -0.00061648776 0.016795231 0.018965913
0001a0 08 a5 ed 3b 93 25 b0 ba f0 02 16 3c 9d c0 2e bc
       0.0072523393 -0.0013438932 0.009155974 -0.01066604
0001b0 a6 23 27 3d ea 63 30 3c 7f 96 7c bc 7f d1 9c bc
       0.04080548 0.010766009 -0.01541674 -0.019142864
0001c0 a0 cd 2e bd 71 0e 32 bc d8 d4 05 3c ed e8 ea bc
       -0.042676568 -0.010867701 0.008168422 -0.02867552
0001d0 1d 90 2b 3b f2 65 b9 39 cf 5c b0 3c 84 c3 ba 3c
       0.0026178428 0.00035361905 0.02152863 0.022798307
0001e0 aa 16 6d bc b5 90 c7 3c 75 e5 d9 3c 2b 72 c3 3a
       -0.014470736 0.024360994 0.026598671 0.0014911344
0001f0 4c a3 82 3c c7 85 c5 3c 84 28 48 bd bb a8 65 bc
       0.015947007 0.024111642 -0.048866764 -0.014017279
000200 68 95 f0 3a 78 5b 74 bc 0f 13 e4 bc eb 36 24 3d
       0.0018355073 -0.014914386 -0.02784112 0.040091436
000210 9d 6c 2c 3d af bb a2 3c 19 da 8a 3c 36 f2 ad bc
       0.04209577 0.019864885 0.0169497 -0.02123366
000220 ca 53 97 3c d2 37 e6 3c bb a6 8a bb 8d 90 fa 3a
       0.01847257 0.02810279 -0.0042313016 0.0019116566
000230 b5 c0 9b 3a 17 1b bf 3c ea 15 49 3c bc fd a2 3b
       0.0011882993 0.023328347 0.012273291 0.004974095
000240 66 e3 d5 bc a0 0b 18 3c 40 88 a5 bb af ee 10 3d
       -0.026109409 0.009280115 -0.0050516427 0.035383876
000250 49 6a a8 bc e1 01 2a 3c 73 68 22 3d cd ea d4 3c
       -0.020558493 0.0103764245 0.03965039 0.025990868
000260 b2 8b 2f bd a2 43 a8 b9 94 81 4a 3a b1 c3 38 bb
       -0.042857833 -0.00032093847 0.0007724997 -0.0028192813
000270 22 8e ab 3c 90 31 f0 bb 56 ec dd bb 39 9a 30 bb
       0.020941798 -0.007330127 -0.006772558 -0.0026947393
000280 87 61 d1 3c c8 df 98 3c 6d 59 dd bb f6 1e 56 3b
       0.0255592 0.018661395 -0.006755045 0.0032672263
000290 31 db b5 bc 06 64 e6 3c bc 02 dd bc e8 44 5e 3c
       -0.022199245 0.028123867 -0.026978843 0.013566233
0002a0 a2 da c8 bc a9 43 e1 bb e6 cf 82 bc 64 53 38 3b
       -0.024518315 -0.006874521 -0.015968274 0.0028125877
0002b0 e1 ea 7b bc c4 62 9e bc 8d f8 16 3c eb 55 14 3b
       -0.015375824 -0.019334204 0.009214533 0.002263422
0002c0 a6 2c 9a 3c da 59 8a bb e0 6e 88 bb 34 3a c2 3a
       0.018820118 -0.004222137 -0.004163608 0.0014818371
0002d0 57 60 71 bc 63 51 11 bd 7b 3c d9 3c 14 ba eb 3a
       -0.014732442 -0.035478007 0.026518097 0.0017984533
0002e0 a4 38 2f bd 32 91 c9 bb d0 bc 50 3c cf e6 7c 3c
       -0.042778626 -0.006151342 0.012740329 0.015435888
0002f0 b1 c2 1a bc c5 ea fa bc 2c 3d fd ba 68 4b e1 bc
       -0.009445832 -0.030629525 -0.0019320599 -0.027501777
000300 e4 e7 40 bc dd c0 2a 3c 22 68 90 bc 3f a5 5c 3c
       -0.011774037 0.010421959 -0.01762778 0.013467132
000310 7a 9f 87 3c 73 ab e6 3b 25 83 6c bc e3 a3 15 3c
       0.016555537 0.0070394813 -0.014435564 0.009133312
000320 6b e2 08 3c 0a 02 f0 bb 9e 9a 11 bd 21 95 33 3b
       0.0083547635 -0.007324462 -0.035547845 0.002740212
000330 c6 38 8f bc fc 35 21 3d 77 95 7f bc 47 05 1f bd
       -0.017483126 0.039358124 -0.0155996 -0.038823392
000340 77 8d d4 bb 3c 2e 8b 3c e1 3a 10 3d 7f 0a fb bb
       -0.0064865905 0.01698982 0.0352124 -0.0076611633
000350 66 d0 90 bb be bd c1 3c 2f 16 d4 bc 31 e1 c2 bc
       -0.0044193743 0.023650046 -0.025889484 -0.02378902
000360 02 48 95 bc 19 3e b1 39 07 24 86 3c be c9 44 3d
       -0.018222813 0.00033806337 0.016374601 0.04804396
000370 68 aa a7 3c 95 4a ce bb 19 98 66 bd 49 16 29 bb
       0.020466998 -0.006295512 -0.056297395 -0.0025800637
000380 19 74 73 bc 91 27 c5 bc f1 03 86 3a 98 78 65 3c
       -0.014859223 -0.024066718 0.0010224563 0.014005803
000390 75 7a 5d 3b f8 f1 58 3c 06 8f 28 bd 18 20 92 3c
       0.0033794914 0.013241284 -0.041152023 0.01783757
0003a0 95 62 15 bb 96 33 41 bd 7f 03 74 bb 42 64 11 3c
       -0.0022794355 -0.047168337 -0.003723353 0.008874001
0003b0 07 a9 e3 3c 57 6b 9d 3c 9b 07 91 bb 0b 1e 05 bd
       0.02779056 0.019216223 -0.0044259555 -0.032499354
0003c0 e1 01 1c 3c ea 7d dc 3c db f4 b2 3c f7 19 a1 3b
       0.009521932 0.02691551 0.021845272 0.0049164253
0003d0 94 91 02 bc 9d 6f c8 3c cb 36 f5 3c d9 bd 7d bc
       -0.007969279 0.024467284 0.029933354 -0.015487158
0003e0 4e 3a 84 bb 87 e0 1e bd 62 61 02 3d 71 53 f5 3c
       -0.004035271 -0.038788345 0.031831153 0.029947015
0003f0 2a 50 75 3c a1 3a fb 3b 40 62 78 3c 76 25 64 3c
       0.014972726 0.007666901 0.015160143 0.013924947

prompt_embeddings f4 [50, 896]
000000 9a 45 e3 3c a4 7d f9 bb ea 11 8c bc bb 22 5a bc
       0.02774315 -0.0076138545 -0.017098386 -0.013313944
000010 61 63 36 bc a8 58 b3 3c 62 b1 d5 3a 9c 6c 89 bc
       -0.011132092 0.02189286 0.0016303475 -0.016775422
000020 b6 a3 d5 bb e9 fc 29 3b 0d 2b c3 bb 5c 5d a6 bc
       -0.00651976 0.00259381 -0.00595606 -0.02030819
000030 93 cc ff bc 90 2c 76 3a a5 06 9b 3c 6a 83 a0 3c
       -0.031225478 0.00093907956 0.018924067 0.019593913
000040 fc 35 2f 3c 09 eb f9 3b d9 c5 5f 3b 51 3e 9e bc
       0.010694023 0.0076268953 0.0034145026 -0.019316824
000050 f9 6c 32 3c 74 9e 9e 3c 8b 45 83 3b e1 48 10 3c
       0.010890239 0.019362666 0.004006093 0.008806438
000060 b3 81 f1 bc 3d 82 88 bc 9a 8b 0a bc 3a d4 c8 3c
       -0.02948079 -0.016663665 -0.008456135 0.02451526
000070 f9 5c 4b bc 58 d8 a5 bc 2a e0 98 3c 5a 9e eb 3b
       -0.012412303 -0.020244762 0.018661577 0.007190508
000080 ee 2a 13 bb 3d f4 46 3c 85 88 d8 3b a7 34 3d 3c
       -0.0022456008 0.012143192 0.0066080713 0.011548198
000090 7b bd 02 bc e5 1a a7 bb 32 70 e1 bc c0 b5 a5 bc
       -0.007979746 -0.0050996416 -0.02751932 -0.020228267
0000a0 32 97 2b bc 28 4f 3d bc 35 09 a7 3b 19 ac 35 3b
       -0.0104730595 -0.011554517 0.005097533 0.0027720986
0000b0 bb 22 03 bd b1 e0 91 bc c7 6f 9f bc 6c be 28 bc
       -0.032015543 -0.017807337 -0.01946248 -0.010299306
0000c0 9f cc f9 bc 16 99 a5 3c 9e f4 86 3c ad 88 82 39
       -0.030493079 0.020214599 0.016474064 0.00024897364
0000d0 26 69 58 bc f9 b4 bb bc 95 e5 51 bc de 83 a8 3c
       -0.013208663 -0.022913443 -0.012811084 0.020570692
0000e0 2b 39 26 bc 39 ab dd 3a 1e 49 58 3c 2a 08 ee bb
       -0.010145466 0.001691199 0.013201026 -0.007264157
0000f0 a9 42 3b bb c9 6e 21 bc 75 f7 b2 bb 8a 18 f8 bc
       -0.0028573668 -0.009853073 -0.005461628 -0.030285139
000100 d1 a8 5e 3b 1b af 3b bc 8b ad 0a 3c c5 59 96 3c
       0.0033975134 -0.011455323 0.008464227 0.018353352
000110 9b 4f d6 3c 0a c4 5a ba 2f da f7 ba f5 ac 71 bc
       0.026161006 -0.0008345252 -0.0018909628 -0.014750709
000120 04 e8 51 bc a2 ba 12 3c 6d 16 df ba 9c 6b d2 bb
       -0.0128116645 0.00895563 -0.0017020233 -0.0064215194
000130 ae 4f a6 bb fc 5a 21 3c 84 15 de 3b 77 72 1d 3c
       -0.0050754165 0.0098483525 0.006777467 0.00960981
000140 a7 7f db 3b 88 26 ab bc 89 6c 09 3c 46 29 b1 bb
       0.006698567 -0.020892397 0.008387693 -0.0054065315
000150 bd 76 00 bd 4f 67 82 3b 41 6e 60 bc a1 a8 a2 bc
       -0.031363238 0.0039796005 -0.013698162 -0.0198558
000160 17 21 cb bc 37 7b ae 3b f2 17 3e bc e8 0a 35 bb
       -0.024796052 0.005324747 -0.011602389 -0.0027624909
000170 88 81 d2 3b d7 c4 c9 bc 8c 21 f4 3c 1c 80 9e bc
       0.0064241327 -0.024629993 0.029801153 -0.019348197
000180 7a db 05 3b 14 39 1d 3c 67 13 e4 3a 9a ec 7f b9
       0.0020425008 0.009596128 0.0017400802 -0.00024406836
000190 ef bd da 3b 89 ec 31 3c 76 f6 c8 3c 76 fa 43 ba
       0.006675474 0.010859617 0.024531584 -0.0007475981
0001a0 99 e0 c7 bb 92 23 97 3c d9 dd 69 bc 98 43 21 3c
       -0.006099772 0.018449578 -0.014274084 0.009842776
0001b0 a6 39 8e b9 4d 84 eb bb a1 a9 84 3c a8 16 69 3b
       -0.00027127302 -0.0071874023 0.016194167 0.0035566483
0001c0 93 35 9c bc 64 60 35 3c 20 bc 83 3b f6 44 a4 3c
       -0.019068515 0.011070345 0.004020229 0.020052414
0001d0 cc fc 53 bb 96 52 ec bc 2f c7 8a 3c 42 5a 86 ba
       -0.0032346724 -0.028847974 0.016940681 -0.0010250288
0001e0 96 fd d7 bb c4 7a 91 3b 37 98 e6 3b fb f5 1a bc
       -0.006591509 0.0044396836 0.0070371884 -0.00945806
0001f0 da f5 00 bd 52 17 67 3c 3a b7 47 bc 0d 16 6e bc
       -0.031484462 0.014104681 -0.012189681 -0.0145316245
000200 c7 21 9b bc 09 19 9c bc 67 6b dd 3b a1 04 82 bb
       -0.018937005 -0.019054906 0.006757188 -0.003967837
000210 7f 6c 96 3b 7f fc a8 3b 50 f7 82 3c ba 2e 82 3b
       0.0045905705 0.005157053 0.015987068 0.0039728554
000220 e8 99 13 3b 65 8f 33 bc 07 bc 3d bc b1 01 06 3c
       0.0022522155 -0.010959481 -0.011580474 0.008179114
000230 e4 6f 2a bc ba b1 d0 3c 32 4a 4d 3c ed 3d 82 bc
       -0.010402653 0.025475372 0.012529897 -0.01589867
000240 78 91 7c 3b 15 03 d8 3c 48 f5 0c 3c b5 3b 87 bc
       0.0038538855 0.026368657 0.0086034015 -0.016507963
000250 12 cb 96 bc 01 99 65 bc 71 6d 67 3c a0 58 e8 3c
       -0.018407378 -0.01401353 0.014125214 0.028362572
000260 6d 4a ae 3c d3 27 a0 bc b0 2e cd 3a 02 2d 9b 3b
       0.021275723 -0.01955024 0.0015654173 0.00473559
000270 9b c1 3a 3c 31 58 ac 3c 6f 36 29 3a 07 16 7a bc
       0.011398698 0.021038147 0.00064549496 -0.015264041
000280 b2 9b ab bb 92 35 14 bb a8 97 0b bb 92 cb 05 3d
       -0.005237066 -0.0022614938 -0.002130011 0.032664843
000290 69 05 fa 3b 54 f7 19 3c d1 fd a7 3c cc 3f 8d ba
       0.0076300395 0.0093973465 0.020506771 -0.0010776459
0002a0 32 35 08 3c 7b 71 c7 3b 7b d0 89 bc d5 88 38 bb
       0.008313464 0.006086526 -0.016823044 -0.002815773
0002b0 0a 6f 9f 3c fa 64 ba 3c 59 ce 3b 3c e0 51 69 3c
       0.019462127 0.022753228 0.011462771 0.014240712
0002c0 56 99 88 bb 78 db 01 bd 30 c9 9b bb cb 36 e9 bc
       -0.0041686697 -0.031703442 -0.004754208 -0.02846851
0002d0 50 f5 02 3d a9 a9 84 bc 0f 6c 9f 3b bd 59 9f bb
       0.03197223 -0.016194182 0.0048651765 -0.0048629926
0002e0 84 c7 86 bb c2 4d e9 3b 6d 9a cb 3c e0 bb 62 3c
       -0.0041131396 0.007119865 0.02485391 0.013838738
0002f0 2a 60 69 bc ac 29 b3 3b 31 d8 c2 3c c8 87 7f 3c
       -0.014244119 0.005467614 0.023784729 0.015596338
000300 a4 16 5e bc 36 2e 44 bc a8 49 a8 bb 25 ac 71 bc
       -0.013555203 -0.011973908 -0.0051357336 -0.014750515
000310 c1 18 3d bb cd ad 55 bc 76 51 40 3c 9c fa 17 3c
       -0.0028853866 -0.013041926 0.011738172 0.0092760585
000320 be 9c a6 bb b5 c2 c0 3b a4 98 a3 3c 2d 03 90 bb
       -0.005084603 0.005882586 0.019970246 -0.00439491
000330 e7 b0 af bc f8 bf 3c bb b9 95 a3 3b f4 16 86 bb
       -0.021446658 -0.0028800946 0.0049922136 -0.0040920917
000340 49 a2 17 3b 05 a1 a9 bc bc f1 b0 bb 1e e6 67 3c
       0.00231375 -0.020706663 -0.0053999107 0.014153985
000350 cd 2e a5 bc af ab 99 3c 30 f8 a5 bc 7f 2c 1b 3c
       -0.020163918 0.018758623 -0.020259947 0.009471058
000360 9d 16 ac bb 92 08 a9 bc 99 97 10 bc fc 66 a7 bc
       -0.005251719 -0.02063397 -0.008825206 -0.020434849
000370 5f 49 32 ba f0 4f 98 3c 72 12 55 3c f7 d5 8b 3b
       -0.0006801094 0.018592805 0.013004886 0.00426745
000380 0c d5 5e bc 25 38 0a ba 8d 06 5a 3c 13 87 23 bc
       -0.013600599 -0.00052726484 0.013307226 -0.009980935
000390 8b 28 24 bc 34 96 28 bc 8d 11 81 bc 25 54 4f bc
       -0.010019432 -0.010289717 -0.01575544 -0.012654339
0003a0 e3 b8 29 3c 2c e4 ca 3b 7d a8 9f b9 7d 58 43 3b
       0.010359022 0.006191751 -0.00030452377 0.0029807382
0003b0 91 0e b8 bb 71 61 86 3c ff 9a 60 bc 65 c7 56 bc
       -0.005616971 0.016403886 -0.013708829 -0.013109063
0003c0 18 3a 87 3c cd 4e 55 bc e2 68 34 bc 3a d5 55 bc
       0.016507193 -0.013019276 -0.011011334 -0.013051325
0003d0 b8 f4 d8 3a a5 a2 80 bc 33 dd c4 bc 2e 34 64 3c
       0.0016552424 -0.015702555 -0.024031257 0.013928456
0003e0 18 b0 f9 bb 0f 0d a3 bc 81 e9 81 3c 53 71 cb bb
       -0.007619869 -0.019903688 0.015858414 -0.0062085777
0003f0 93 d6 f6 bb 7b c6 71 3c db bb 97 3c 2f c8 68 bc
       -0.0075329035 0.014756794 0.018522194 -0.014207884
