PEFT-PT/modelo_juridico_prompt_tuning/checkpoint-412/adapter_model.safetensors (safetensors, 211664 bytes, 2 tensors)

base_model.score.weight f4 [9, 896]
000000 71 35 ee bc 32 c2 cd 3b eb ad 00 3d b5 51 b8 bc
       -0.029078217 0.0062792534 0.03141586 -0.022499898
000010 ea 1b b2 3b 31 55 45 bc ae ac e9 bc 3f a5 d6 3c
       0.0054354565 -0.012044237 -0.028524723 0.026201842
000020 c1 84 67 bc bd 39 bd bc 11 8a de bc dc 37 1b 3c
       -0.014130772 -0.02309882 -0.027165445 0.009473767
000030 66 ad 0c bc eb 24 92 3c cd c0 79 3c 72 d4 bf 3c
       -0.008586263 0.01783987 0.015243721 0.023416732
000040 46 f3 13 3d c4 fc 23 bc 27 a6 28 bc 7a 49 2d 3c
       0.036120676 -0.0100089945 -0.01029352 0.0105766
000050 79 c6 9d 3c 68 b5 02 bb d0 76 e1 3a 7c 30 e4 bc
       0.019259678 -0.0019944552 0.0017201547 -0.02785515
000060 35 dd ce 3b 7d b3 c2 bb 05 01 d6 b9 41 5b 12 3b
       0.006312991 -0.005941807 -0.0004081802 0.0022332224
000070 3f 52 1e bc 4d d6 11 3c 15 09 ae 3b 65 25 35 3d
       -0.009663164 0.008901191 0.0053111413 0.044225115
000080 60 93 9c ba eb 06 4d bc 87 61 0e 3d b5 a1 e1 3a
       -0.0011945777 -0.012513856 0.034760978 0.001721433
000090 31 48 e0 3c 3f 08 6e bc cb e3 b9 3c 32 2d 1b bd
       0.027378174 -0.014528333 0.022691628 -0.0378849
0000a0 75 95 d3 3b 46 7a 05 3c b2 90 c7 3c 81 21 39 3c
       0.0064570257 0.008146828 0.024360988 0.011299492
0000b0 5a 4b 94 3a 2c 05 4c bc 43 75 11 3b 07 7f a2 3c
       0.001131396 -0.012452405 0.0022195138 0.019835962
0000c0 15 63 0c 3b cf 79 cc 3c 43 31 29 3d d8 2e b3 bb
       0.0021421362 0.024960427 0.041306745 -0.0054682307
0000d0 f8 a9 76 bc b0 e2 e1 3b 45 51 20 3d f4 4f 87 3a
       -0.015055172 0.0068934783 0.039140005 0.001032351
0000e0 69 29 dc bc ff d5 ce 3c 2a e2 72 3c b9 64 df 3c
       -0.026875215 0.025248526 0.0148244295 0.027269708
0000f0 19 68 87 3b 38 3f e8 3c bb 75 13 3c 71 96 68 3c
       0.0041322825 0.028350458 0.009000237 0.014196024
000100 68 1c 20 bc c7 18 f1 3c c3 3b 2c 3c 9a d4 cf bc
       -0.009772398 0.02943076 0.010512295 -0.025369931
000110 84 df 8f bc dc d6 9f 3c 33 c9 19 bd 13 71 d9 bb
       -0.017562635 0.019511633 -0.037545394 -0.006635794
000120 5b 3e db bc 8c 9a 78 3b 6c 81 e3 3c 2e ea f8 bc
       -0.026763132 0.0037933914 0.027771674 -0.030385103
000130 61 da 6d 3b 32 44 bb 3b 68 b4 80 bd cb da 72 b9
       0.0036293494 0.0057149166 -0.0628441 -0.00023160425
000140 b3 95 91 3b 0a 9d e4 3b 8e ce 30 bc f8 f7 15 3d
       0.0044428944 0.0069767283 -0.010791434 0.036613435
000150 e9 87 e6 bc 9a 2c f3 3b 08 1f b2 3c 25 a9 ad bc
       -0.028140979 0.0074210884 0.021743312 -0.021198818
000160 01 a2 fa 3c 73 d3 56 3c 55 6c 7f 3c a1 04 15 bd
       0.030594828 0.013111937 0.015589793 -0.036381368
000170 64 78 7e bc d1 ac 79 3b 18 30 89 bc e8 b1 dd bc
       -0.015531633 0.0038097391 -0.016746566 -0.027062371
000180 ab 05 2b bc 8f b2 82 3b 51 4c 12 3d 14 d6 d7 3b
       -0.010438363 0.003988571 0.035717312 0.0065867994
000190 bf f3 7f 3b c5 d6 9e b8 26 b7 7a 3c e5 dd 9f 3c
       0.0039055196 -7.574031e-05 0.015302455 0.019514987
0001a0 72 23 dc 3b aa 76 7e ba 5c 0a 18 3c f2 d5 2c bc
       0.0067180926 -0.00097070134 0.009279814 -0.010549055
0001b0 0d ea 2a 3d ea de 38 3c 23 3c 7c bc 1c 57 9d bc
       0.041727114 0.011283616 -0.015395197 -0.019206576
0001c0 67 9b 2b bd 80 a5 38 bc b8 58 13 3c 18 63 f7 bc
       -0.04189625 -0.011269927 0.00899332 -0.030198619
0001d0 6f 8c 24 3b fc c6 e3 b8 61 cd a4 3c 93 72 c3 3c
       0.002510812 -0.00010861267 0.020117464 0.023858344
0001e0 fc af 58 bc 92 f6 b4 3c bd 3d db 3c 5a a8 01 3b
       -0.013225552 0.02209023 0.026762838 0.0019784183
0001f0 8e 7a 83 3c 72 a4 c3 3c f4 8e 44 bd 61 50 6e bc
       0.01604965 0.023882125 -0.047987893 -0.014545531
000200 44 ad 2a 3b 7c d9 67 bc e9 de e0 bc b1 e1 21 3d
       0.0026043216 -0.014150973 -0.027450042 0.039521877
000210 ea e9 2f 3d 09 a0 9b 3c bd 03 9a 3c 51 2b b0 bc
       0.042947687 0.01899721 0.01880061 -0.02150503
000220 86 c7 91 3c f2 3a da 3c 62 a7 56 bb 35 9a c9 3a
       0.017795336 0.026639435 -0.0032753577 0.001538104
000230 1d 98 e4 39 e8 bc cb 3c fc 35 47 3c ac a9 a1 3b
       0.00043600882 0.024870351 0.012158867 0.0049335565
000240 20 d4 dd bc 42 0b ee 3b 05 c0 a2 bb 50 77 16 3d
       -0.027078688 0.0072645256 -0.004966738 0.03673488
000250 50 b8 aa bc 6b aa 24 3c 9d 6c 1c 3d 04 5a d2 3c
       -0.02083984 0.010050396 0.03818952 0.025677688
000260 42 1b 1f bd df ba cb 3a 5e da 82 3a 45 cc c9 ba
       -0.038844354 0.0015543363 0.0009983291 -0.001539596
000270 4e 86 b9 3c 54 e8 b3 bb 0f df d4 bb 81 bf 57 bb
       0.02264705 -0.005490342 -0.006496317 -0.0032920542
000280 3a 42 c6 3c b6 e7 62 3c 44 62 ca bb 1d 91 3c 3b
       0.024201501 0.0138491895 -0.006176265 0.0028773018
000290 8f 37 b4 bc 59 57 e7 3c 1f e8 d0 bc 7f ec 75 3c
       -0.021999149 0.028239893 -0.025501309 0.015009998
0002a0 1a 38 c5 bc 75 c5 d9 bb 25 1c 8c bc f6 c1 62 3b
       -0.024074603 -0.006645853 -0.017103264 0.0034600473
0002b0 2a 00 8b bc b3 02 a0 bc 46 c3 28 3c 8b 3a be 3a
       -0.016967852 -0.019532537 0.010300463 0.0014513297
0002c0 94 2c af 3c c7 f7 ad bb 96 a3 3a ba 03 f4 b7 3a
       0.021383561 -0.0053090784 -0.0007119713 0.0014034513
0002d0 57 0b 78 bc b3 a6 07 bd c3 fb d9 3c b0 a0 06 3b
       -0.015139422 -0.03311796 0.026609307 0.0020542555
0002e0 79 9f 2e bd 66 c9 af bb 4e 04 32 3c 8a 1b 7e 3c
       -0.042632554 -0.0053645847 0.010865284 0.0155094955
0002f0 f7 d4 29 bc e9 f6 01 bd ac 79 e2 ba 74 a0 e3 bc
       -0.010365716 -0.031729612 -0.0017278693 -0.027786471
000300 35 ea 39 bc 51 4b 1d 3c 20 ec 83 bc 50 db 59 3c
       -0.011347343 0.009600476 -0.016103804 0.013296917
000310 4f c2 74 3c 15 42 de 3b 2e 05 67 bc 5f a8 13 3c
       0.014938905 0.00678278 -0.014100356 0.009012311
000320 b7 5c 43 3c bd 6f ce bb 48 b1 18 bd e7 55 3c 3b
       0.01192396 -0.0062999413 -0.037278444 0.0028737725
000330 5e b8 90 bc 20 ee 17 3d e2 98 7c bc 4d 26 20 bd
       -0.017666038 0.037092328 -0.0154173095 -0.039099026
000340 eb a0 d4 bb 77 3b 8d 3c db 57 13 3d cf 9a e8 bb
       -0.0064889095 0.01724027 0.035972457 -0.0070985327
000350 8e ee 99 bb a3 ae c6 3c 91 ef dd bc 1b f4 c8 bc
       -0.0046976274 0.024253195 -0.027091773 -0.024530461
000360 1d ac 99 bc 6c 0b 40 37 2e 81 8b 3c 7c 0a 42 3d
       -0.018758828 1.1446751e-05 0.017029371 0.04737328
000370 0b fa 97 3c 85 09 da bb 25 68 66 bd 1e 2d f2 ba
       0.018551847 -0.006653967 -0.056251664 -0.0018476581
000380 5b 4b 7d bc 35 01 c5 bc f8 e9 c3 39 07 18 75 3c
       -0.015459861 -0.024048427 0.0003736762 0.014959342
000390 f7 3a 65 3b 8a 18 80 3c 0d 86 26 bd 39 56 96 3c
       0.0034977773 0.015636701 -0.040655185 0.018351661
0003a0 45 91 9f ba 71 80 40 bd 60 59 fa ba eb bc 0a 3c
       -0.0012174031 -0.04699749 -0.0019100122 0.008467893
0003b0 e0 84 e4 3c 14 a7 a0 3c 36 1d 71 bb e7 a3 07 bd
       0.027895391 0.019610919 -0.0036791093 -0.033115294
0003c0 66 83 36 3c c1 1d e0 3c 43 3b b0 3c 98 4b 86 3b
       0.011139726 0.027357938 0.021512633 0.004098367
0003d0 57 82 f9 bb 84 f5 b9 3c 0a cb f7 3c c6 09 4a bc
       -0.0076144147 0.022700079 0.030248184 -0.012331432
0003e0 c5 44 9c bb 70 1a 1d bd 13 cd 02 3d 1c cd ee 3c
       -0.00476894 -0.03835529 0.031933855 0.029150538
0003f0 44 5b 88 3c 22 90 da 3b 3d 51 55 3c 4a af 57 3c
       0.016645081 0.006670014 0.013019857 0.013164351

prompt_embeddings f4 [50, 896]
000000 ab 14 e5 3c 1b c3 f8 bb 70 a1 93 bc 1f 71 5d bc
       0.027963957 -0.0075916178 -0.018021315 -0.01351574
000010 ef 27 3d bc d7 f8 a9 3c f4 b5 bb 3a 9f 9c 86 bc
       -0.011545165 0.020748539 0.0014321194 -0.016432105
000020 d6 df a9 bb a8 3c 2e 3b 41 88 e8 bb 38 18 a5 bc
       -0.005184154 0.0026586447 -0.007096321 -0.02015315
000030 01 1d fb bc c7 50 60 3a a3 be a0 3c fe 25 9f 3c
       -0.030653479 0.00085569586 0.019622153 0.019427296
000040 d0 56 2b 3c 63 39 11 3c 0e d2 4e 3b 4a 66 97 bc
       0.010457709 0.00886378 0.0031558308 -0.018481392
000050 a7 96 39 3c 88 b8 99 3c 8d 34 98 3b 7a 85 22 3c
       0.011327422 0.01876475 0.0046449364 0.009919519
000060 6b 3d ec bc 97 e6 8d bc a8 07 11 bc aa 8d c0 3c
       -0.02883788 -0.017321868 -0.008851923 0.02350505
000070 2f d0 3c bc 8e 3d aa bc 65 2d 90 3c 82 82 e5 3b
       -0.011524244 -0.020781305 0.01759977 0.007004083
000080 92 f3 11 bb b0 f3 3b 3c 38 20 e0 3b 08 c9 39 3c
       -0.0022270423 0.011471674 0.0068397783 0.0113394335
000090 e4 1e ef bb 0c ab a6 bb ba 87 e2 bc 98 61 aa bc
       -0.0072973836 -0.0050863083 -0.02765261 -0.02079849
0000a0 d8 5f 35 bc 67 a0 44 bc 40 46 9f 3b 56 6f 4b 3b
       -0.011070214 -0.0120011335 0.0048606694 0.0031041703
0000b0 ad 9e 02 bd a3 b9 8b bc 97 36 9f bc 85 38 1e bc
       -0.031889606 -0.017056292 -0.01943521 -0.00965703
0000c0 63 4a 01 bd d9 cd a6 3c bb db 7c 3c 83 b0 10 3a
       -0.03156508 0.020361828 0.015433247 0.00055194664
0000d0 42 ef 5e bc dd 50 bc bc 57 bb 54 bc d2 b1 a9 3c
       -0.013606848 -0.022987777 -0.012984118 0.020714674
0000e0 64 87 29 bc c9 7b b8 3a 32 6e 5b 3c 12 48 02 bc
       -0.010347221 0.0014074977 0.013392972 -0.007951753
0000f0 4c 2a 32 bb bf a4 19 bc 60 71 8e bb 7e 54 fb bc
       -0.0027185855 -0.009377657 -0.0043470114 -0.030679937
000100 4b 4c 5e 3b d5 15 34 bc e4 f6 0e 3c f7 3c 94 3c
       0.0033919986 -0.010991533 0.0087258555 0.018095477
000110 29 95 ce 3c e6 a4 bb b9 7d 44 36 bb 6c 0c 6d bc
       0.02521761 -0.00035790278 -0.0027811818 -0.014468294
000120 8c bf 42 bc a5 c0 1a 3c 83 ce a6 ba 4c 30 df bb
       -0.011886489 0.009445344 -0.001272634 -0.0068111774
000130 43 34 95 bb 14 5e 28 3c ba 3a c6 3b e1 0c 08 3c
       -0.004553349 0.010276336 0.006049481 0.008303852
000140 48 1e b3 3b 35 b6 ae bc b1 be 05 3c 74 a3 bf bb
       0.0054662563 -0.021327117 0.00816314 -0.0058483426
000150 64 e7 ff bc 65 f7 5e 3b 55 da 65 bc 8d 26 9c bc
       -0.031238265 0.003402197 -0.014029105 -0.019061351
000160 b8 2d bb bc 1c a2 d4 3b 82 44 32 bc 45 d3 86 bb
       -0.022848949 0.0064890515 -0.010880591 -0.0041145408
000170 99 4b d8 3b 74 bf c7 bc 5a 87 f1 3c 50 83 9a bc
       0.006600809 -0.024383284 0.029483486 -0.018861443
000180 67 b3 cb 3a be bc 1c 3c d1 4e a7 3a 0f 3f 23 b9
       0.0015541137 0.009566484 0.0012764578 -0.00015568383
000190 23 1b c8 3b cb cd 40 3c 02 d0 cb 3c 3c e3 13 ba
       0.0061067506 0.011767815 0.02487946 -0.00056414655
0001a0 e6 c7 d8 bb 2c 2a 95 3c 0e 13 6c bc 2f c4 22 3c
       -0.0066156266 0.018208586 -0.01440884 0.009934469
0001b0 dc 74 00 ba d1 58 e4 bb e3 85 89 3c 91 95 89 3b
       -0.0004900226 -0.0069685956 0.016787475 0.004198738
0001c0 96 2c 9d bc cb 1b 3d 3c cc 25 99 3b e6 da a1 3c
       -0.0191863 0.011542271 0.004673695 0.0197577
0001d0 ca 10 2a bb b8 e2 ec bc 63 3d 88 3c 44 0c 1c ba
       -0.0025949948 -0.028916702 0.016630834 -0.00059527555
0001e0 ab f8 ca bb 91 38 61 3b d5 1e e5 3b ae b6 15 bc
       -0.0061941943 0.0034365992 0.006992201 -0.0091377925
0001f0 f0 8c 02 bd c4 14 62 3c 06 d4 4f bc 4d b2 6c bc
       -0.03187269 0.013798896 -0.012684828 -0.014446807
000200 aa ff 96 bc 74 a0 9d bc 3a 34 e2 3b ae e9 7b bb
       -0.018432457 -0.01924155 0.0069031985 -0.0038438844
000210 71 a7 91 3b 35 fa 94 3b 14 99 7a 3c 6f 71 8b 3b
       0.0044450094 0.0045464286 0.015295286 0.0042554657
000220 54 b0 d3 3a f9 49 45 bc 3e 6c 2f bc 97 1a 0b 3c
       0.0016150572 -0.012041562 -0.010706959 0.008490226
000230 46 01 35 bc 35 db d0 3c cb 4b 4f 3c 64 a8 81 bc
       -0.011047667 0.025495151 0.012652348 -0.015827365
000240 97 8a 6b 3b 54 07 de 3c 24 19 12 3c 72 50 8b bc
       0.003594076 0.027103104 0.008917127 -0.017006133
000250 00 56 9d bc ae 9c 6f bc 8f 61 7a 3c 5b 6c e1 3c
       -0.019206047 -0.014624758 0.015282049 0.027517488
000260 59 b2 ad 3c 90 3b 9d bc b9 db 9e 3a 7e 03 a6 3b
       0.021203207 -0.01919344 0.0012119926 0.0050663343
000270 aa a8 34 3c aa 3c a7 3c ce cb 86 3a 82 a2 84 bc
       0.011026541 0.020414669 0.0010284127 -0.016190771
000280 22 8e bf bb 0d 64 13 bb f4 93 f8 ba 58 47 ff 3c
       -0.005845801 -0.0022490055 -0.0018964992 0.031161949
000290 5e e7 f9 3b 14 16 02 3c ee 1e a4 3c c5 51 8d ba
       0.007626458 0.007939834 0.02003428 -0.0010781816
0002a0 a9 8b 10 3c ed 14 d2 3b 05 30 8d bc 75 13 27 bb
       0.00882236 0.006411186 -0.017234812 -0.0025493775
0002b0 17 c9 9a 3c 7e 51 b2 3c 4d 72 3b 3c b1 2a 62 3c
       0.018894715 0.021767374 0.011440826 0.013804124
0002c0 90 a2 3d bb 45 d8 ff bc 8b 1a 9f bb 9f 37 eb bc
       -0.0028936006 -0.031231055 -0.004855459 -0.028713046
0002d0 22 fb 03 3d 0e c1 87 bc fe 20 91 3b 15 cc 84 bb
       0.03222192 -0.016571548 0.004428982 -0.004052649
0002e0 13 93 72 bb 0b 05 03 3c a4 4b c4 3c ef 14 7b 3c
       -0.0037013933 0.007996808 0.02396185 0.015324815
0002f0 85 4f 71 bc 67 09 d0 3b 86 47 c1 3c 6b 9c 87 3c
       -0.014728432 0.006348777 0.023593675 0.016554078
000300 47 c9 76 bc 05 94 54 bc cc a1 7a bb 8c 83 62 bc
       -0.015062637 -0.012974744 -0.003824341 -0.0138253085
000310 94 5e 15 bb e0 e6 56 bc d0 39 41 3c af 6b 17 3c
       -0.0022791969 -0.013116568 0.011793569 0.009241982
000320 5f d0 b5 bb ae 03 da 3b 86 95 97 3c a2 8c 8f bb
       -0.0055485214 0.0066532707 0.018503916 -0.0043807784
000330 24 34 ab bc 20 93 4f bb dd 9a 97 3b 6e f7 83 bb
       -0.020898886 -0.0031673387 0.0046266154 -0.0040272987
000340 95 63 48 3b 71 2d a5 bc ba 22 80 bb 7d 08 79 3c
       0.0030576934 -0.02016327 -0.0039103897 0.015199778
000350 5c 61 a6 bc 2e 53 9b 3c ad 79 a2 bc fc ad 18 3c
       -0.020310096 0.018960562 -0.01983341 0.009318825
000360 d0 99 b8 bb 66 00 a5 bc 7e f2 08 bc db e3 ae bc
       -0.0056335703 -0.020141792 -0.008358596 -0.021348884
000370 1b 1b 2a ba bf 42 8f 3c c5 ec 53 3c c4 01 8e 3b
       -0.00064890244 0.017487882 0.012934868 0.0043337066
000380 c8 dd 7a bc bf b6 ac ba 89 fd 59 3c 46 9c 18 bc
       -0.015311666 -0.0013177021 0.013305076 -0.009314602
000390 20 54 23 bc ef fb 19 bc 27 f1 85 bc 25 7e 56 bc
       -0.009968787 -0.009398445 -0.016350342 -0.013091599
0003a0 36 0d 28 3c 5c 61 d9 3b 0a 79 87 ba 62 96 4c 3b
       0.010257056 0.0066339206 -0.0010335755 0.0031217565
0003b0 fd ce ba bb 32 37 80 3c e9 93 63 bc ea e0 61 bc
       -0.0057009445 0.01565132 -0.013890245 -0.013786534
0003c0 8b ae 84 3c 8c 48 41 bc 87 16 43 bc 96 68 55 bc
       0.01619651 -0.011797082 -0.011907226 -0.0130254235
0003d0 04 03 b5 3a 54 cf 84 bc 04 c8 c7 bc 71 99 6f 3c
       0.0013810103 -0.016212143 -0.024387367 0.014623986
0003e0 f8 72 fb bb 2b fe a2 bc fa f4 79 3c b0 ce b6 bb
       -0.0076736175 -0.019896587 0.015256161 -0.0055788383
0003f0 db 27 05 bc df c5 68 3c 4d 99 9a 3c eb 2f 69 bc
       -0.008127178 0.014207332 0.018871928 -0.014232616
