PEFT-PT/modelo_juridico_prompt_tuning/checkpoint-412/adapter_model.safetensors (safetensors, 71800 bytes, 1 tensors)

prompt_embeddings f4 [20, 896]
00000000: 7ea9 723c 041b 933c f736 b03d 5c30 3039
00000010: a554 043d 236e a0bc f9f9 f5bc 93ec 893c
00000020: 1ba2 333c 6adf 6abd 1dd0 8cbd a3f9 08bd
00000030: 0459 ba3c e07a 373c 11ee cb3c 1bd9 003c
00000040: 93dc 4d3d 27da a3bd 5ceb 8f3d e7d6 48bd
00000050: 9ce0 893d 9151 fd3d eca9 403d fb29 353d
00000060: c81a 2abd 4962 563d 818b f7ba 8bb1 153d
00000070: 25c9 913c b638 0ebd 13ef 6e3b 4cff b63c
00000080: f5a4 adbd 3e41 883b 7fef 50bd 1326 a2bc
00000090: ff64 03bd db88 9bbd 1a3c 07bd 5002 9bbd
000000a0: 3a84 133c 628b 113d b8cb 623c 72cd c83d
000000b0: 55e2 cabd 3d92 a5bb b8fa d93b 3aa4 ebbc
000000c0: 8520 b3bc 28d9 c53c 267a 063d ea4a b8bc
000000d0: b5df afbd 759a a9bc 9d66 de3b 3645 bb3d
000000e0: e96f 9cbc d0fa fa3c 860c ec3c 2b1d b4bc
000000f0: 87be cabc 3d24 7ebc 701e 99bd 8131 26bc
00000100: 8a10 48ba 6c67 21bd d194 adbd 6a89 1a3d
00000110: 4044 9a3a 0df6 9e3d 7cbd 073c c8f4 823c
00000120: 4814 493d 7643 063d 9f90 013c 9a63 ea3c
00000130: 1ea5 1d3d 5278 973d 938a 443c 4efb 84bd
00000140: fbca cfbb e243 5fbd ca3e 103d b2a5 60bd
00000150: 29c6 d3bd 1ff2 243c 70b0 f7bc f570 6bbd
00000160: 46cc 87bc d3ab 033d 3789 80bc 811c 3d3d
00000170: c06c 083d d991 12bd d49b f13d 92bf 84bd
00000180: b24d 003d 15a1 863c 6bea 94bd 7dbd 6fbd
00000190: 39e5 573d 8629 d13b 740d 9fbd 6bc3 37bd
000001a0: cdc9 29bd 153f af3c 210a 4b3d bbad 973c
000001b0: fa5c 463d 57ec 353d ae79 b7bd 33ad 1b3d
000001c0: 0294 14bc 7b4e c7bc 4222 e3bc ce1b 29bd
000001d0: c3af 8f3c 2e62 243c 845c f13c 00a3 9b3d
000001e0: eb93 7cbc a2c8 d13c fb8d 823c 8d39 363c
000001f0: 1469 d93a 1262 b53c a3f7 6bbd 5623 52bd
00000200: 4160 1f3c 2f91 4b3d 0a14 bf3d ce5c dcbd
00000210: d559 36bd 4910 ae3c 8305 b83d b7f4 47ba
00000220: e932 873d 86ee acbc f09a 0ebc ed88 233d
00000230: 60c7 9bbc b053 923c 1047 c3bc a39f 13bd
00000240: c749 0cbd 3c84 c33a 5174 70bc 668f 1a3a
00000250: bdd3 a6bd 6537 843d df62 eabb 4f73 cfbd
00000260: 57d5 f23a a970 93bc 3c2e 66bd b97d 233d
00000270: 9ece 653c 33ee 863d b554 79bc 699d b3bd
00000280: 5837 243a fa25 babc 66f6 40bc 75ee 603d
00000290: 7f7a 373d deea 06bd 213e 4d3d a15e 313d
000002a0: 82d8 da3d 9433 bbbb 6ca1 23bd 518d 5fbd
000002b0: 2491 1d3d c54d 4d3d 2c24 bc3d 8515 943d
000002c0: 41b3 e13c e92a 243d 1b3c 253b d3cf adbc
000002d0: 1570 e33c 95c2 75bb 7427 11bd 4723 c6bc
000002e0: ab69 2c3b 85e3 973c b56b 22bc fcae 603d
000002f0: 9651 4bbd 8742 a9bd c671 683d d5bc a5bc
00000300: fb52 d33b 8e0d 3c3d 5c92 67bd 9ca6 843d
00000310: 576d f8bb 676b f3bb 2da6 1c3d 6dda 883b
00000320: a30f 62bd 4dcc febd 6827 403d f15a 523c
00000330: dc97 89bc 740c 11bd df7a 223d c0c3 0d3d
00000340: 2634 71bd 685d 263c 64dd 1b3c 1e48 d43d
00000350: bd30 e63c 1355 5e3d 6761 97bd cc1d 03bd
00000360: 28d2 1abd 9c9c 4abc 788f efba 1c35 4fbc
00000370: d65a 2f3d 999a 933d 40b9 47bc a823 c0bd
00000380: 014f 0dbd 3744 803c 94da 98bb 2482 cb3b
00000390: 2cbd 86bd 1a56 51bd f357 933d 47c5 6a3a
000003a0: a970 a03d cd21 7abc 5413 e5bc fbdf 933d
000003b0: e747 003d 559a 023d bc47 8cbc 21ed e53b
000003c0: 005a 333d 6e04 7bbd 1379 b2bd e80a f4bc
000003d0: dcda 99bd 5294 a3bc 3656 d1bc 2385 9dbc
000003e0: 75fb f33b ecf2 70bd 51c9 9f3d cc6c e03c
000003f0: 7226 29bd 72d4 82bd b887 613d 6b2e 81bd
0.014810918 0.017957218 0.08604234 0.00016802683 0.032307286 -0.019583767 -0.030026423 0.01683644
0.010963942 -0.05734197 -0.06875632 -0.033441197 0.022747524 0.011198729 0.024893792 0.007864262
0.050259184 -0.08000594 0.07027313 -0.04903307 0.06732294 0.12369073 0.04703705 0.04422949
-0.041529447 0.052339826 -0.001888618 0.03654627 0.017796108 -0.034722053 0.0036458417 0.022338532
-0.08478729 0.004158168 -0.05100965 -0.019793546 -0.03207874 -0.075944625 -0.0330163 -0.075688004
0.009003693 0.035533316 0.013842516 0.098048106 -0.09906451 -0.0050528334 0.0066522025 -0.028764833
-0.021866092 0.0241514 0.032831334 -0.02249666 -0.085875906 -0.020703534 0.006787135 0.0914406
-0.019096332 0.030637175 0.028814565 -0.021986565 -0.024749054 -0.01551157 -0.074765086 -0.010143639
-0.0007631859 -0.03940527 -0.0847565 0.037728705 0.0011769608 0.07761774 0.008284923 0.015985861
0.049091607 0.03277918 0.0079080155 0.028611947 0.038487546 0.07395996 0.011995929 -0.06493245
-0.006341336 -0.054508097 0.03521613 -0.05484552 -0.103405304 0.010067492 -0.0302355 -0.05748077
-0.016576897 0.032146286 -0.01569043 0.04616976 0.033306837 -0.035783622 0.117973 -0.06481852
0.031324096 0.016434232 -0.07271274 -0.05853032 0.052708838 0.006383124 -0.07766238 -0.0448641
-0.041452218 0.021392385 0.049570207 0.018515458 0.048428513 0.044414844 -0.089587554 0.038006973
-0.009068491 -0.024329415 -0.027726296 -0.041286282 0.017539864 0.0100331735 0.02946306 0.07599449
-0.015416126 0.025608364 0.015936842 0.01112212 0.0016587102 0.02214149 -0.05760921 -0.05130323
0.009727539 0.049699005 0.09329994 -0.107598886 -0.044519264 0.021248 0.08985426 -0.0007627713
0.06601507 -0.02110983 -0.008703932 0.039925504 -0.019015968 0.017862171 -0.023837596 -0.036040913
-0.034250047 0.0014916728 -0.0146761695 0.0005896002 -0.081458546 0.06455878 -0.0071528996 -0.10129415
0.0018526715 -0.017998056 -0.056196436 0.03991482 0.014026312 0.06588402 -0.01521795 -0.08770258
0.00062643504 -0.022723187 -0.011777496 0.05491491 0.044794556 -0.03293883 0.05010808 0.043303136
0.10685827 -0.0057129357 -0.039948866 -0.05457813 0.038468495 0.050122995 0.09186587 0.07230667
0.027551295 0.040079985 0.0025212828 -0.021217262 0.027763406 -0.0037500013 -0.035438016 -0.024186743
0.00263081 0.018541107 -0.009913375 0.054854378 -0.049638353 -0.08264642 0.056749128 -0.020231644
0.006449101 0.045911364 -0.056536064 0.06477091 -0.0075813937 -0.007428575 0.038244415 0.004176429
-0.055190694 -0.12441311 0.04691258 0.012839065 -0.016796045 -0.035412267 0.03966796 0.03461051
-0.058887623 0.010154106 0.009513233 0.10365318 0.028099412 0.05428035 -0.07391625 -0.03201084
-0.037798077 -0.01236644 -0.001827701 -0.01264694 0.042811237 0.072072215 -0.012190163 -0.09381801
-0.034499172 0.015657527 -0.0046647284 0.0062105823 -0.065790504 -0.051107503 0.07194509 0.0008955788
0.07833988 -0.015266848 -0.027963318 0.07220455 0.03131857 0.031885464 -0.01712405 0.0070167934
0.043787003 -0.06128352 -0.08714499 -0.029790357 -0.07512447 -0.019968186 -0.025553804 -0.019228524
0.0074457475 -0.05882542 0.0780207 0.027395628 -0.04129643 -0.06388177 0.055061072 -0.06307682
