PEFT-PT/modelo_juridico_prompt_tuning/checkpoint-309/adapter_model.safetensors (safetensors, 71800 bytes, 1 tensors)

prompt_embeddings f4 [20, 896]
0.019849373 0.028228922 0.09032696 -0.009835127 0.022717295 -0.031336285 -0.022062568 0.019347351
0.017056072 -0.06942631 -0.07772438 -0.027948255 0.012451579 0.008710124 0.019280763 0.0116318315
0.059630338 -0.07993383 0.07073468 -0.04725139 0.069866315 0.12558605 0.045574453 0.036133293
-0.04330487 0.05580891 -0.0025854602 0.023202494 0.029585307 -0.034940083 0.0012890546 0.017778154
-0.07766057 0.008473356 -0.050917108 -0.014698889 -0.026202295 -0.06663569 -0.032103363 -0.08154777
0.0074275914 0.030661544 0.0033838581 0.094381794 -0.09864941 -0.0031835171 0.007533427 -0.037626535
-0.02927139 0.020138256 0.0435548 -0.023232754 -0.07578243 -0.014349631 0.014764948 0.08024762
-0.012527286 0.035689436 0.030238805 -0.021795468 -0.021466168 -0.027316846 -0.07431576 -0.013435811
0.0027467697 -0.031461503 -0.08240965 0.039801113 -0.0015936063 0.08062068 0.0093339225 0.025103513
0.047004413 0.04012551 0.014601956 0.02422242 0.036692865 0.07286513 0.010165623 -0.062246628
-0.008585704 -0.04776168 0.040829595 -0.044212885 -0.09753419 0.014131183 -0.022568977 -0.04617563
-0.0111065805 0.033658713 -0.013084488 0.03895984 0.031645775 -0.02651527 0.12515372 -0.053147428
0.021376418 0.019119514 -0.07331195 -0.06331872 0.06310978 0.012395022 -0.07551096 -0.04508483
-0.04367959 0.02612675 0.041326378 0.024316385 0.043287694 0.046078674 -0.084032476 0.034896914
-0.011740577 -0.012676633 -0.019017445 -0.048851274 0.0109866215 0.002525743 0.03186331 0.07055889
-0.028375793 0.019094665 0.020591162 -0.009740571 -0.0126046715 0.019775957 -0.056182984 -0.055882584
0.008504178 0.05525267 0.09440372 -0.093930095 -0.02761655 0.02284307 0.08988203 -0.001642128
0.06031541 -0.010902761 -0.0029869152 0.048638176 -0.023968369 0.012748004 -0.025887093 -0.03451209
-0.035227742 0.0046450235 -0.022183094 0.0015667989 -0.07197598 0.06504241 -0.007831685 -0.08910493
-0.005978355 -0.022976259 -0.051628035 0.032954417 0.012661711 0.06514103 -0.022750823 -0.08451088
-0.0020620439 -0.014205899 -0.009122552 0.060434133 0.04763523 -0.030171193 0.048148464 0.043261457
0.100963004 -0.0021855577 -0.037648562 -0.05104942 0.039514475 0.04890201 0.09620774 0.062395837
0.021320306 0.04162939 -0.0036610994 -0.004988281 0.02652791 -0.013032422 -0.032731 -0.022729846
-0.00021950025 0.01961262 0.0012649937 0.04844861 -0.059191335 -0.07774337 0.047823217 -0.009085665
0.0036047108 0.035352502 -0.061315157 0.056786764 -0.0073848404 -0.019004423 0.034531623 0.0021052042
-0.03994422 -0.12586145 0.042573906 0.0015749317 -0.024498168 -0.037347443 0.037352484 0.02464533
-0.04999456 0.007942288 0.0074786143 0.109575704 0.025392326 0.053643778 -0.071883686 -0.029721444
-0.039023723 -0.009611088 0.010576631 -0.014385611 0.030207507 0.0800184 -0.015264075 -0.103683636
-0.03734586 0.010705914 -0.0048540737 0.00092791003 -0.063087255 -0.051853023 0.064414784 0.0015324192
0.060996417 -0.015193759 -0.027008103 0.07189326 0.025608674 0.029565543 0.00042951756 -0.0017616426
0.044657495 -0.060530774 -0.07083771 -0.03410388 -0.07661331 -0.019165836 -0.029064793 -0.022691203
-0.002317818 -0.053015828 0.07957576 0.027439453 -0.043092407 -0.057003252 0.04123757 -0.053988345
00000000: 279b a23c 5740 e73c 57fd b83d 8323 21bc
00000010: 9f19 ba3c 7a5a 00bd 8fbc b4bc 567e 9e3c
00000020: 2db9 8b3c 622f 8ebd f62d 9fbd bdf3 e4bc
00000030: b501 4c3c e8b4 0e3c b1f2 9d3c 7093 3e3c
00000040: f13e 743d 59b4 a3bd 58dd 903d ac8a 41bd
00000050: 1216 8f3d a199 003e 47ac 3a3d 8100 143d
00000060: 7360 31bd e297 643d d370 29bb 2813 be3c
00000070: e35c f23c 551d 0fbd 7ff5 a83a 7ea3 913c
00000080: 810c 9fbd d5d3 0a3c 758e 50bd 9cd3 70bc
00000090: 32a6 d6bc 4b78 88bd d17e 03bd 8402 a7bd
000000a0: 2763 f33b eb2d fb3c b8c3 5d3b 3e4b c13d
000000b0: b408 cabd 8ea2 50bb f7da f63b 481e 1abd
000000c0: 8eca efbc fcf8 a43c 8566 323d 9e52 bebc
000000d0: d233 9bbd b71a 6bbc aee8 713c dd58 a43d
000000e0: 3f3f 4dbc 162f 123d 5fb7 f73c 698c b2bc
000000f0: d1d9 afbc 94c7 dfbc dc32 98bd e021 5cbc
00000100: 2603 343b c7dd 00bd 64c6 a8bd 7e06 233d
00000110: 8ee0 d0ba 741c a53d 4fed 183c e2a5 cd3c
00000120: b387 403d a65a 243d 0b3d 6f3c 196e c63c
00000130: 424b 163d 503a 953d b78d 263c 52f6 7ebd
00000140: 0dab 0cbc c0a1 43bd ef3c 273d 9218 35bd
00000150: 01c0 c7bd 7a86 673c 93e2 b8bc a822 3dbd
00000160: 60f8 35bc b8dd 093d 5260 56bc 5a94 1f3d
00000170: 009f 013d 8d36 d9bc 4c28 003e 1eb1 59bd
00000180: 991d af3c 87a0 9c3c 9324 96bd 3fad 81bd
00000190: b33f 813d 7e14 4b3c 7da5 9abd dfaa 38bd
000001a0: 5fe9 32bd c407 d63c d945 293d 2833 c73c
000001b0: 704e 313d febc 3c3d 3819 acbd 11f0 0e3d
000001c0: 8d5b 40bc a7b1 4fbc 79ca 9bbc 4618 48bd
000001d0: 3b01 343c f086 253b 1a83 023d 2e81 903d
000001e0: 5a74 e8bc 6a6c 9c3c ccae a83c ea96 1fbc
000001f0: d383 4ebc 3001 a23c 2120 66bd 23e5 64bd
00000200: 1c55 0b3c a050 623d bd56 c13d 6c5e c0bd
00000210: 1a3c e2bc 6421 bb3c 1214 b83d ac3c d7ba
00000220: 4b0d 773d 7ea1 32bc 1fc0 43bb d338 473d
00000230: 5059 c4bc 01dd 503c 2b11 d4bc 8d5c 0dbd
00000240: f74a 10bd 4835 983b 52b9 b5bc 0c5d cd3a
00000250: 2568 93bd f434 853d 7850 00bc a57c b6bd
00000260: 14e6 c3bb b538 bcbc eb77 53bd 36fb 063d
00000270: 1173 4f3c a968 853d ef5f babc 0a14 adbd
00000280: 5b23 07bb dcbf 68bc c276 15bc c889 773d
00000290: 291d 433d 9429 f7bc 5337 453d ed32 313d
000002a0: b1c5 ce3d 933b 0fbb 6135 1abd 3219 51bd
000002b0: eed9 213d 794d 483d 9008 c53d c792 7f3d
000002c0: eca7 ae3c 9483 2a3d 0eef 6fbb bc74 a3bb
000002d0: 0f51 d93c f185 55bc f110 06bd f133 babc
000002e0: a629 66b9 a5aa a03c 25ce a53a 0d72 463d
000002f0: 9d72 72bd ea37 9fbd 47e2 433d 0bdc 14bc
00000300: 033d 6c3b c9cd 103d 9a25 7bbd 3d99 683d
00000310: 88fc f1bb 2aaf 9bbc 0871 0d3d 77f7 093b
00000320: 8d9c 23bd d3e1 00be fa61 2e3d f06d ce3a
00000330: 62b0 c8bc a2f9 18bd ebfe 183d 01e5 c93c
00000340: 19c7 4cbd 5f20 023c 2a0f f53b 3a69 e03d
00000350: 9103 d03c 94b9 5b3d c137 93bd 637a f3bc
00000360: 57d7 1fbd d377 1dbc 9b49 2d3c a0b1 6bbc
00000370: bc75 f73c b0e0 a33d 2c16 7abc 1658 d4bd
00000380: f9f7 18bd dc67 2f3c ec0e 9fbb fd3e 733a
00000390: e433 81bd d663 54bd e6eb 833d 75db c83a
000003a0: 61d7 793d 3fef 78bc 1940 ddbc c63c 933d
000003b0: 48c9 d13c 7033 f23c df30 e139 ebe6 e6ba
000003c0: c7ea 363d 1eef 77bd 5c13 91bd 83b0 0bbd
000003d0: 70e7 9cbd ac01 9dbc 4a19 eebc e7e2 b9bc
000003e0: 89e6 17bb 2027 59bd 9ef8 a23d b4c8 e03c
000003f0: aa81 30bd 3e7c 69bd bae8 283d e222 5dbd
