PEFT-PT/modelo_juridico_prompt_tuning/checkpoint-309/adapter_model.safetensors (safetensors, 211664 bytes, 2 tensors)

base_model.score.weight f4 [9, 896]
0	0xbce0fa65	-0.027463147
1	0x3bdebecb	0.0067976466
2	0x3cfe90a2	0.031074826
3	0xbcb914c3	-0.022592908
4	0x3bd1737f	0.006391942
5	0xbc45fce1	-0.012084217
6	0xbcebe070	-0.028793544
7	0x3cd6c05a	0.026214767
8	0xbc6a751f	-0.01431015
9	0xbcbd81a7	-0.023133112
10	0xbce28871	-0.027652951
11	0x3bb614b0	0.0055566654
12	0xbc1067d3	-0.008813816
13	0x3c908a08	0.017643943
14	0x3c670217	0.014099619
15	0x3cb1f3a5	0.021722624
16	0x3d15e862	0.03659857
17	0xbc1436ab	-0.009046237
18	0xbc2ea385	-0.010659103
19	0x3c3fec82	0.011714103
20	0x3c9e63f3	0.019334769
21	0xbb01abe8	-0.0019786302
22	0x3a969cae	0.0011490786
23	0xbce4a80c	-0.027912162
24	0x3bceff3f	0.006317049
25	0xbbf84782	-0.007576884
26	0xba8a980f	-0.0010573881
27	0x3b4ec975	0.0031553183
28	0xbc18c327	-0.009323872
29	0x3c1538fc	0.009107824
30	0x3bda87da	0.006669027
31	0x3d37f061	0.044906978
32	0xbb21948c	-0.0024655191
33	0xbc534c34	-0.012896586
34	0x3d0e2b8a	0.03470949
35	0x3b08ee37	0.002089394
36	0x3cdeace8	0.027182057
37	0xbc63f778	-0.013913982
38	0x3cbc7adc	0.023007803
39	0xbd1f92e7	-0.038958456
40	0x3b9a683b	0.0047121323
41	0x3bf2e36c	0.0074123647
42	0x3cca10b9	0.024666177
43	0x3c414552	0.011796312
44	0x3b209f16	0.0024508885
45	0xbc5117a2	-0.012761982
46	0x3b2001cb	0.0024415131
47	0x3c8b19c1	0.016980054
48	0x38707c29	5.7336092e-05
49	0x3cd6b875	0.026211003
50	0x3d282997	0.04105529
51	0xbb97e5a5	-0.00463553
52	0xbc6baa3f	-0.014383852
53	0x3bd348f3	0.006447905
54	0x3d1f03fd	0.038822163
55	0x3a96ce84	0.0011505638
56	0xbcdc5a8c	-0.026898645
57	0x3ce21f51	0.027602823
58	0x3c4c0c0d	0.012454045
59	0x3cdd58f5	0.027019957
60	0x3b87bc70	0.0041423365
61	0x3ce4b7d2	0.027919684
62	0x3c1054c0	0.0088092685
63	0x3c7efb4b	0.015562843
64	0xbc1a510b	-0.009418736
65	0x3cf8d151	0.030373247
66	0x3c2d0545	0.010560338
67	0xbcc7f675	-0.024409512
68	0xbc9588e9	-0.01825376
69	0x3c857d30	0.016295046
70	0xbd191739	-0.037375662
71	0xbbc73b2e	-0.006080053
72	0xbcf2b9c0	-0.029629588
73	0x3b5038ba	0.0031772093
74	0x3cd5a159	0.026077913
75	0xbcfa75ba	-0.030573715
76	0x3b48beca	0.0030631297
77	0x3bc09a2c	0.0058777537
78	0xbd7bbf6f	-0.061461862
79	0xba092683	-0.0005231874
80	0x3b94a488	0.004536215
81	0x3bd884d5	0.0066076317
82	0xbc29c6fa	-0.010362381
83	0x3d1468b2	0.036232658
84	0xbce076de	-0.02740043
85	0x3be9e43e	0.0071378043
86	0x3cac41cf	0.021027474
87	0xbcacaac4	-0.021077521
88	0x3d04312d	0.03227346
89	0x3c191bde	0.009345023
90	0x3c7a2a93	0.01526894
91	0xbd16601d	-0.036712755
92	0xbc88d164	-0.016701408
93	0x3bbf0b78	0.0058302246
94	0xbc8ad9cc	-0.016949557
95	0xbcdd669c	-0.027026467
96	0xbc2f9689	-0.010717043
97	0x3b84acd3	0.0040489226
98	0x3d0b1392	0.03395421
99	0x3bf69e5d	0.0075262026
100	0x3b9fc82f	0.0048761587
101	0x39dd3ee2	0.00042199256
102	0x3c677c27	0.014128721
103	0x3ca75b0d	0.020429159
104	0x3be4bfa2	0.006980852
105	0xbac167b3	-0.0014755636
106	0x3c2287ad	0.009920043
107	0xbc2c81b1	-0.010528968
108	0x3d2707aa	0.040778793
109	0x3c645122	0.013935359
110	0xbc785c43	-0.015158716
111	0xbc9f46d5	-0.019442955
112	0xbd2514ad	-0.04030292
113	0xbc398449	-0.011323043
114	0x3c209e51	0.009803371
115	0xbcf83306	-0.030297767
116	0x3b18406e	0.0023231762
117	0xb9d7b568	-0.00041143154
118	0x3ca6f3bf	0.0203799
119	0x3ccadc89	0.024763362
120	0xbc477ba0	-0.012175471
121	0x3cad31fc	0.021141998
122	0x3ce015cd	0.027354145
123	0x3b096628	0.002096543
124	0x3c810931	0.015751453
125	0x3cbdadcb	0.02315416
126	0xbd42a870	-0.047523916
127	0xbc6ee02f	-0.014579817
128	0x3b84b9f5	0.004050488
129	0xbc5add66	-0.01335845
130	0xbcd8086a	-0.0263712
131	0x3d234b2d	0.039866615
132	0x3d2e4d7a	0.042554356
133	0x3c954b95	0.018224517
134	0x3c99e97b	0.01878809
135	0xbca7b62d	-0.02047261
136	0x3c90dee7	0.017684413
137	0x3cd67d65	0.02618284
138	0xbb6f9141	-0.0036555084
139	0x3ab64a63	0.0013907667
140	0xb95d1043	-0.0002108226
141	0x3cd14e68	0.025550082
142	0x3c69cf66	0.014270639
143	0x3ba9b6d4	0.0051792655
144	0xbce0383e	-0.027370568
145	0x3be3171a	0.006930244
146	0xbba48a79	-0.00502139
147	0x3d16b7eb	0.03679649
148	0xbca56c6e	-0.020193305
149	0x3c38cff9	0.011280053
150	0x3d16ac19	0.03678522
151	0x3cd04182	0.025421862
152	0xbd12407c	-0.03570603
153	0x3aa6b357	0.0012718242
154	0x3b16f856	0.0023036203
155	0xba80fc3a	-0.0009840794
156	0x3cc4bacd	0.024014855
157	0xbbabe47f	-0.0052457447
158	0xbbce9662	-0.006304548
159	0xbb694757	-0.00355955
160	0x3cce08ab	0.025150618
161	0x3c4c982a	0.012487451
162	0xbbcbe16a	-0.00622194
163	0x3b2c4e46	0.0026291772
164	0xbcbe4a79	-0.02322887
165	0x3ce5917f	0.02802348
166	0xbcc4bba3	-0.024015253
167	0x3c8da351	0.01728979
168	0xbcc5d7db	-0.02415078
169	0xbbe4044a	-0.006958519
170	0xbc87a3da	-0.016557623
171	0x3b88d613	0.0041759103
172	0xbca72ab2	-0.0204061
173	0xbca11eff	-0.0196681
174	0x3c1ce38a	0.009575734
175	0x3aa3235f	0.0012446454
176	0x3cc51fb4	0.024062969
177	0xbba297d2	-0.004961946
178	0x3a233d4d	0.0006227091
179	0x3aea3825	0.0017869516
180	0xbc72952a	-0.014806071
181	0xbd023683	-0.031790268
182	0x3cd017c9	0.025401967
183	0x3b3557a6	0.002767065
184	0xbd2d2f91	-0.04228169
185	0xbb96bb68	-0.0045999773
186	0x3bf144af	0.007362924
187	0x3c8095e4	0.015696473
188	0xbc266a05	-0.010157113
189	0xbcfdf10c	-0.03099873
190	0xbae392e2	-0.00173625
191	0xbce78b54	-0.028264679
192	0xbc16dd90	-0.009208098
193	0x3c11b3d2	0.00889297
194	0xbc81596a	-0.015789706
195	0x3c4e16a5	0.012578641
196	0x3c636240	0.013878405
197	0x3bf4f1ab	0.007475098
198	0xbc6daa07	-0.01450587
199	0x3c15d50e	0.0091450345
200	0x3c525690	0.012838021
201	0xbba2d09e	-0.0049687168
202	0xbd1bd48e	-0.038044505
203	0x3b25fb8d	0.0025326938
204	0xbca31ada	-0.019910265
205	0x3d13fecc	0.036131665
206	0xbc856e06	-0.016287815
207	0xbd1ea773	-0.03873391
208	0xbbcaeb87	-0.006192628
209	0x3c8df6fc	0.017329685
210	0x3d157294	0.036486223
211	0xbbe2bfeb	-0.006919851
212	0xbb8ad67e	-0.0042369952
213	0x3ccc23aa	0.02491935
214	0xbce1625b	-0.02751272
215	0xbcc9aaee	-0.024617638
216	0xbc99bd35	-0.018766979
217	0xba40428a	-0.0007334134
218	0x3c94867f	0.018130539
219	0x3d40bc58	0.04705462
220	0x3c90b2f4	0.017663456
221	0xbbde145b	-0.006777329
222	0xbd6494e0	-0.05580604
223	0xba8f3573	-0.0010925963
224	0xbc7ed7cb	-0.015554379
225	0xbcc13c25	-0.02358825
226	0xb92f112f	-0.00016695702
227	0x3c7ae3f6	0.015313139
228	0x3b6cc6e4	0.003612929
229	0x3c8f56c1	0.017497422
230	0xbd24a0e4	-0.0401925
231	0x3c96eca6	0.01842339
232	0xbab3f491	-0.0013729503
233	0xbd3f6f4a	-0.046736993
234	0xba8235f2	-0.000993429
235	0x3c11b990	0.008894339
236	0x3cdb95c5	0.026804814
237	0x3c991b60	0.018689811
238	0xbad73061	-0.0016417616
239	0xbd08a396	-0.033359133
240	0x3c414949	0.011797258
241	0x3ce0eb77	0.027456028
242	0x3cac1a0c	0.021008514
243	0x3b51f205	0.0032035124
244	0xbbfbda1a	-0.007685912
245	0x3cb6c6f5	0.022311667
246	0x3cf5a51e	0.02998596
247	0xbc0c0dfb	-0.008548255
248	0xbba8800d	-0.005142218
249	0xbd1b0dd4	-0.037854984
250	0x3d06dd20	0.032925725
251	0x3cec4b1b	0.028844407
252	0x3c86b753	0.016444838
253	0x3be0af37	0.0068568247
254	0x3c3a039e	0.0113534015
255	0x3c49b53c	0.012311276

prompt_embeddings f4 [50, 896]
0	0x3ce09a44	0.02741731
1	0xbbe1ce9a	-0.006891084
2	0xbc8fb2ab	-0.01754125
3	0xbc787997	-0.015165708
4	0xbc34c1be	-0.01103252
5	0x3ca950e2	0.02066845
6	0x39f36d5f	0.0004643006
7	0xbc899df1	-0.016798945
8	0xbbae6ba4	-0.0053228904
9	0x3b35ebe7	0.0027759017
10	0xbbc376e7	-0.005965102
11	0xbca6989b	-0.02033644
12	0xbcf216f4	-0.02955196
13	0x3a200863	0.00061047653
14	0x3c968cd0	0.018377692
15	0x3ca2106c	0.019783221
16	0x3c373c57	0.01118382
17	0x3c029fb6	0.007972648
18	0x3b10dc0b	0.0022103812
19	0xbc8f95aa	-0.01752742
20	0x3c2f0c77	0.010684124
21	0x3ca495ae	0.020090904
22	0x3b8d4be8	0.0043120272
23	0x3c22c315	0.0099342065
24	0xbcd9bb04	-0.026578434
25	0xbc8b2909	-0.01698734
26	0xbc0f7ecf	-0.008758261
27	0x3cb594c7	0.02216567
28	0xbc317d10	-0.01083304
29	0xbca84eac	-0.020545326
30	0x3c923e3c	0.017851941
31	0x3bfe81f9	0.007766959
32	0xbadd3eaa	-0.0016879637
33	0x3c31fe27	0.010863817
34	0x3bdf9e24	0.0068242718
35	0x3c2ca682	0.010537745
36	0xbc03acac	-0.008036774
37	0xbbbe778a	-0.00581259
38	0xbcd9121e	-0.026497897
39	0xbca6e79d	-0.020374114
40	0xbc3ea8ed	-0.011636955
41	0xbc377576	-0.011197438
42	0x3b88bd4d	0.004172957
43	0x3b19c157	0.0023461187
44	0xbcff56c4	-0.031169303
45	0xbc8d7ccb	-0.01727142
46	0xbc9cd4d8	-0.01914446
47	0xbc072d72	-0.008250581
48	0xbcfdf6d8	-0.031001493
49	0x3ca4dc27	0.020124508
50	0x3c7c3166	0.015392637
51	0x3b1ffab7	0.0024410912
52	0xbc4f3fc9	-0.012649485
53	0xbcb93b26	-0.022611212
54	0xbc38a47d	-0.011269686
55	0x3cabaea1	0.020957293
56	0xbc14b6e0	-0.009076804
57	0x3a9495f6	0.0011336196
58	0x3c5cfc97	0.0134879565
59	0xbbffd52c	-0.0078073945
60	0xbae0a4e2	-0.0017138983
61	0xbc1c6478	-0.009545438
62	0xbba787cd	-0.0051126243
63	0xbcee9635	-0.029124359
64	0x3b57e562	0.003294312
65	0xbc43bc1c	-0.011946704
66	0x3c0f673c	0.00875264
67	0x3c96f39b	0.018426707
68	0x3cc42b6f	0.023946492
69	0xb991feb1	-0.00027846315
70	0xbb3ec4e2	-0.002910905
71	0xbc7800d9	-0.015136921
72	0xbc2cfcfe	-0.010558365
73	0x3c12f239	0.008968883
74	0xba94a06f	-0.0011339317
75	0xbbd6665f	-0.0065429653
76	0xbb716a39	-0.0036836995
77	0x3c203640	0.009778559
78	0x3bd2a3a0	0.006428197
79	0x3c1a2036	0.009407094
80	0x3b93c3ab	0.0045094094
81	0xbcb31c5b	-0.021864107
82	0x3bf77a55	0.007552425
83	0xbbae83a8	-0.0053257532
84	0xbcf7fdbf	-0.030272363
85	0x3b83a145	0.0040170276
86	0xbc69551c	-0.014241483
87	0xbc95ac92	-0.018270764
88	0xbcb7501b	-0.022377064
89	0x3b902751	0.004399218
90	0xbc2ba917	-0.010477326
91	0xbb5898e1	-0.0033050107
92	0x3bdb8429	0.0066991043
93	0xbcd0e873	-0.025501465
94	0x3cf54e7b	0.029944649
95	0xbc95975d	-0.018260652
96	0x3b358810	0.0027699508
97	0x3c086fe4	0.008327458
98	0xba46a87e	-0.0007578208
99	0xba06aa97	-0.0005137114
100	0x3bb640b5	0.005561913
101	0x3c4cb4eb	0.012494306
102	0x3ccd0ec2	0.025031451
103	0x39c7521f	0.00038017423
104	0xbbc5988d	-0.0060301484
105	0x3c922068	0.017837718
106	0xbc664812	-0.014055269
107	0x3c296747	0.010339565
108	0xb67ae4a3	-3.7385987e-06
109	0xbbf14fab	-0.0073642335
110	0x3c8551c1	0.016274335
111	0x3b68eada	0.0035540373
112	0xbc94da89	-0.018170612
113	0x3c3859b1	0.011251853
114	0x3b9c46ce	0.0047691828
115	0x3c8c36c4	0.017115958
116	0xbaf2d07b	-0.0018525267
117	0xbce0d60f	-0.027445821
118	0x3c85fc31	0.016355606
119	0xb9bfcdb0	-0.00036583608
120	0xbbe6b357	-0.007040422
121	0x3b81a7a1	0.0039567505
122	0x3c0ff3d0	0.008786157
123	0xbc18b3c8	-0.009320207
124	0xbd00eab2	-0.031473823
125	0x3c40ae7c	0.01176035
126	0xbc43be11	-0.011947171
127	0xbc7f689e	-0.0155889075
128	0xbc990795	-0.018680373
129	0xbc9792e6	-0.018502664
130	0x3bdf57be	0.0068158796
131	0xbb5c4b5e	-0.0033614258
132	0x3ba52300	0.0050395727
133	0x3b9e792c	0.004836222
134	0x3c78562e	0.015157266
135	0x3b40f2cf	0.00294416
136	0x3a93a45f	0.0011264196
137	0xbc35c4dd	-0.011094299
138	0xbc292805	-0.010324483
139	0x3c12b25a	0.008953655
140	0xbc3772cb	-0.011196802
141	0x3cd09eef	0.02546641
142	0x3c469b56	0.012121996
143	0xbc7b0b8e	-0.015322579
144	0x3b745d6b	0.0037287127
145	0x3cdec021	0.027191224
146	0x3c0f4858	0.008745275
147	0xbc8d5d41	-0.017256381
148	0xbc938b76	-0.018010836
149	0xbc6f022e	-0.014587922
150	0x3c75ca30	0.015001819
151	0x3cdce4d7	0.026964588
152	0x3cb80d1b	0.022467187
153	0xbc9cad46	-0.019125592
154	0x3aa537b5	0.0012605103
155	0x3b7febd4	0.0039050477
156	0x3c363d0c	0.011122953
157	0x3ca3804c	0.019958638
158	0x3a26fdbe	0.0006370208
159	0xbc80abde	-0.015706953
160	0xbbadedf5	-0.0053079077
161	0xbb27537c	-0.0025531938
162	0xbaff3902	-0.0019471946
163	0x3cff1866	0.031139564
164	0x3c0d5b88	0.00862778
165	0x3c017d88	0.007903464
166	0x3ca99966	0.020703029
167	0xbb172a58	-0.002306601
168	0x3c069b8b	0.008215795
169	0x3bb8560e	0.005625493
170	0xbc816697	-0.015795989
171	0xbb07535a	-0.0020649047
172	0x3c989071	0.018623563
173	0x3cb8fda7	0.022581888
174	0x3c36fa15	0.011168023
175	0x3c37744d	0.011197162
176	0xbb18507e	-0.0023241336
177	0xbd025b95	-0.03182562
178	0xbb85bd7f	-0.0040814276
179	0xbce5a699	-0.028033542
180	0x3d0455b8	0.03230831
181	0xbc87788d	-0.016536975
182	0x3b69ecc2	0.0035694097
183	0xbb7a0a27	-0.0038153024
184	0xbb5ebebc	-0.0033988198
185	0x3bf7eac7	0.0075658294
186	0x3cceb439	0.025232421
187	0x3c7f63c9	0.0155877555
188	0xbc602bbf	-0.013682305
189	0x3bd0f756	0.006377141
190	0x3cc361e5	0.02385039
191	0x3c82ff52	0.015990887
192	0xbc7bd454	-0.015370447
193	0xbc56083c	-0.013063487
194	0xbb50f9ce	-0.0031887176
195	0xbc6d6be8	-0.014491059
196	0xbb01341d	-0.00197149
197	0xbc4f1ac9	-0.012640663
198	0x3c49c352	0.012314634
199	0x3c2fe8e8	0.0107366815
200	0xbba284b1	-0.0049596657
201	0x3bace9dd	0.005276902
202	0x3c9b2199	0.018936919
203	0xbba2ae39	-0.0049646166
204	0xbcae2fa8	-0.021262959
205	0xbb18647e	-0.0023253257
206	0x3b7e0c55	0.0038764675
207	0xbb6364c1	-0.0034697505
208	0x3b4183ec	0.0029528094
209	0xbc9f8f63	-0.019477552
210	0xbb93551a	-0.004496229
211	0x3c89fb1c	0.016843371
212	0xbca057f1	-0.019573184
213	0x3ca9c1eb	0.02072235
214	0xbca6ea41	-0.020375373
215	0x3c114ca4	0.00886837
216	0xbba1e3d1	-0.004940488
217	0xbca044c0	-0.019564033
218	0xbc021394	-0.007939238
219	0xbca772d3	-0.020440495
220	0x39e6f304	0.0004405008
221	0x3c92d4c8	0.017923728
222	0x3c5db54b	0.013531993
223	0x3b999adc	0.00468765
224	0xbc63cd4b	-0.013903926
225	0x39f2fa72	0.00046344433
226	0x3c61c1aa	0.013779083
227	0xbc1268b7	-0.008936099
228	0xbc23acd5	-0.009989937
229	0xbc2a27b9	-0.010385447
230	0xbc899255	-0.01679341
231	0xbc4cbe46	-0.012496537
232	0x3c3d5ff2	0.01155852
233	0x3bb26007	0.0054435763
234	0xba8dae61	-0.0010809415
235	0x3b8385a5	0.0040137344
236	0xbbdac666	-0.006676483
237	0x3c87a003	0.016555792
238	0xbc54f2be	-0.012997327
239	0xbc6a4bbd	-0.014300284
240	0x3c847a40	0.016171575
241	0xbc45401d	-0.012039212
242	0xbc36d550	-0.011159256
243	0xbc70b47c	-0.014691468
244	0x3a804f3a	0.0009789236
245	0xbc80ff99	-0.015746878
246	0xbcbfc524	-0.023409434
247	0x3c7e1108	0.01550699
248	0xbbe33c57	-0.0069346833
249	0xbc9b0dee	-0.01892754
250	0x3c7f7d72	0.015593873
251	0xbbbc8b78	-0.0057539307
252	0xbbfcef24	-0.0077189375
253	0x3c7914b7	0.015202693
254	0x3c95f89c	0.018307023
255	0xbc60e994	-0.013727564
