PEFT-PT/modelo_juridico_prompt_tuning/checkpoint-1133/adapter_model.safetensors (safetensors, 211664 bytes, 2 tensors)

base_model.score.weight f4 [9, 896]
00000000: 8f36 12bd fa5e cd3b b5b2 103d 176b aabc
00000010: 2dcc 8539 27ad 65bc e784 e0bc 8127 e43c
00000020: ef2d 57bc 7aed d6bc 0627 d7bc 12cf b63c
00000030: 13eb 0bbc b32d 9a3c 61ac 9f3c d99e e23c
00000040: 4902 123d d134 84bc e202 4dbc 415a 243c
00000050: 654a 9f3c ac3a 10bb 979c 823b 0abd 05bd
00000060: bb43 bf3b 2ca4 70bb e04b 1a3b 35ae c1b9
00000070: e4d2 26bc 23a6 cf3b 6e98 f1bb ab5e 2c3d
00000080: d5ad 4a3a 161f 84bc 107b 153d aba8 2b3b
00000090: f6c3 e73c 0d79 87bc 6522 ad3c 2505 1dbd
000000a0: 2ac9 393c f0e0 823c f30c c43c 7559 0d3c
000000b0: 44f1 663a 4708 49bc 1571 373b 7c17 c73c
000000c0: d83f 163c 46a9 c03c a487 2e3d b653 f8bb
000000d0: 248f 87bc a2f7 243c 6bd8 1c3d 3d78 0eb8
000000e0: 427b d3bc 702e 893c 6629 a03c f691 d63c
000000f0: 0f2d 9f3b 7cf0 f13c 7d41 253c 4264 5f3c
00000100: 7b99 0abc 6bbc c43c eac9 063c 5001 fabc
00000110: 3dbc 5fbc b115 f83c ff23 4cbd b9f6 2cbc
00000120: b75d 9abc af0e fb3b 6c63 053d ca6f f3bc
00000130: ea21 b53b e99d 4e3b c208 8bbd 75aa 073b
00000140: 5234 973b 4caf 013c 6eda 4cbc 580a 243d
00000150: 7365 bebc 5f82 073c d548 d83c 3b38 aabc
00000160: 8513 c43c 32db c73c 710d 863c 261f 10bd
00000170: 566f 70bc fbc0 22ba ce54 83bc 90f1 d2bc
00000180: f591 17bc 14de 793b f407 1b3d 0916 2f3b
00000190: f3ff 8c3b f60a 55ba c63b 893c e3d2 923c
000001a0: 2917 003c a1cb 05bb 6e55 bd3b 9e42 4bbc
000001b0: 3c48 293d 0195 1b3c ff08 79bc 8456 99bc
000001c0: 5604 3abd 2f0b 39bc 4d8a dd3b 65cb d4bc
000001d0: ae76 443b 2cd8 23b9 c474 bb3c 6eed b43c
000001e0: 6d55 7dbc 29ef db3c b4d1 d33c 93a5 f23a
000001f0: 929e 873c 14c8 bb3c 7263 4cbd 8dec 5ebc
00000200: db99 aaba f22f 89bc 126b dbbc 937b 203d
00000210: cbf8 2a3d fe23 b83c d1d6 373c 867b c0bc
00000220: c458 933c d843 013d c0b3 8abb 4fbf 82ba
00000230: f488 5b3b d8de 933c d363 343c ecff 8e3b
00000240: aeec d6bc 31a4 623c 777d 94bb 9ede 123d
00000250: dc5c aebc 8cf2 3a3c 9a39 3c3d 2fb2 e83c
00000260: a564 35bd 6a13 983a 4e6c 4a3b 72b2 5ebb
00000270: c0fe 623c bd90 f4bb 4196 e4bb 1cf5 20bb
00000280: 6605 d53c a685 ff3c b8de edbb 0451 a03b
00000290: 7de1 49bc 3355 d93c 9f5b d7bc d5a3 393c
000002a0: 684a cdbc e663 10bb 71fa 54bc 7c8b 1b3b
000002b0: 3775 31bc ea8d a5bc d1c3 b63b 8a08 a73a
000002c0: 2154 303c b009 a4ba 3ae3 65bc 3a27 103b
000002d0: 0c29 75bc 54e7 17bd 0bf9 f33c 32ee 3d3b
000002e0: bc19 38bd 0757 28bc ecdd b53c 93aa 803c
000002f0: e1c3 3dbc 0fe5 e9bc 8fd1 3fbb f751 d9bc
00000300: af40 6abc d748 4c3c d487 abbc 85f3 693c
00000310: 8db5 933c eb92 123c 6c71 5abc ec5e 143c
00000320: 3b3a 6e3b 522f 17bc 7cbb f8bc 88ff 833b
00000330: 8bcc 9bbc 3e5c 2c3d 8b14 6ebc 8d21 20bd
00000340: 79cc cbbb ff9b 8e3c 2f42 0d3d 325c 11bc
00000350: f439 95bb 3ab6 c03c 36b7 d0bc b02c cbbc
00000360: d5fa 92bc 0106 ac3a e353 833c 4927 463d
00000370: 1eea bc3c 978f b5bb 799b 6dbd b9ed c2bb
00000380: bf29 7bbc 8283 bfbc d38a 09b8 88bd 383c
00000390: 2dc7 ba3a f710 2a3c 211c 23bd bcd4 8f3c
000003a0: d381 aebb a3df 3abd 1f9e 15bc 6141 0f3c
000003b0: 6c9b f53c b39c a23c 8211 c8bb a5a5 06bd
000003c0: 925d 0e3c 01a9 de3c 377e b73c 4413 683b
000003d0: 4697 fabb f088 d93c 36a0 053d 51a6 bcbc
000003e0: 167a 77bb 740f 2ebd b96e f13c de8f 023d
000003f0: 3ee5 3d3c 162b 443c 6805 8d3c b544 563c
-0.035696562 0.0062674256 0.03532668 -0.020803018 0.0002551986 -0.0140183335 -0.027407123 0.027850868
-0.01313351 -0.026236285 -0.026263725 0.022315536 -0.008539933 0.01882062 0.019491376 0.027663635
0.03564671 -0.016138466 -0.012512894 0.010031284 0.019444654 -0.0022007627 0.003985952 -0.032650985
0.0058369315 -0.0036718948 0.002354376 -0.00036941623 -0.010182116 0.0063369437 -0.0073729074 0.04208247
0.00077315915 -0.016128104 0.036494315 0.0026193063 0.028291684 -0.016537214 0.021134565 -0.038334984
0.011339465 0.0159764 0.023931956 0.008627285 0.0008809755 -0.01227004 0.0027990986 0.02430319
0.009170495 0.023518216 0.042609826 -0.0075783385 -0.016547747 0.010068806 0.03829233 -3.396742e-05
-0.02581561 0.016745776 0.01955099 0.026192646 0.0048576663 0.029533617 0.010086414 0.013634743
-0.008459444 0.024015626 0.008226851 -0.030518204 -0.013655719 0.03028378 -0.049839016 -0.01055687
-0.018843515 0.0076616625 0.03256552 -0.029716391 0.0055277245 0.0031527227 -0.0678878 0.0020700966
0.0046143914 0.007915329 -0.01250325 0.040048927 -0.023241734 0.008270829 0.026401917 -0.020778766
0.023935089 0.024396513 0.016363831 -0.035185955 -0.014674982 -0.0006208566 -0.016031649 -0.025749952
-0.009251107 0.0038126754 0.03784938 0.0026716015 0.0043029725 -0.00081269385 0.016752135 0.017922824
0.007818022 -0.0020415562 0.0057780063 -0.0124060195 0.041328654 0.0094959745 -0.015199899 -0.018718012
-0.04541429 -0.01129417 0.0067608715 -0.025975892 0.0029977965 -0.00015625422 0.022882827 0.022085872
-0.015462262 0.026847439 0.02585683 0.001851248 0.016555104 0.022922553 -0.049899526 -0.013606203
-0.0013015823 -0.016746495 -0.026784454 0.03918035 0.041741174 0.0224781 0.01122065 -0.0234964
0.017986663 0.03155884 -0.0042328537 -0.0009975227 0.0033498378 0.018050596 0.011010128 0.0043640044
-0.026235905 0.013833092 -0.004531558 0.035856836 -0.021284513 0.011410367 0.04595337 0.028405277
-0.044285435 0.0011602466 0.0030887309 -0.0033980873 0.013854682 -0.007463543 -0.0069759195 -0.002456016
0.02600355 0.031191658 -0.007259216 0.0048924703 -0.012321827 0.026529884 -0.026288806 0.0113305645
-0.025059894 -0.00220322 -0.012999163 0.0023734262 -0.010831169 -0.020209271 0.0055775424 0.0012743634
0.010762245 -0.0012515094 -0.014031226 0.0021996037 -0.0149634 -0.037085846 0.029781839 0.0028981087
-0.044946417 -0.010274655 0.022200547 0.015706336 -0.011582346 -0.028551606 -0.0029269194 -0.026528342
-0.014297648 0.012468538 -0.020938791 0.014279251 0.018030906 0.008946161 -0.013332706 0.009055834
0.0036350626 -0.009227591 -0.030362837 0.0040282644 -0.019018432 0.042080157 -0.014531265 -0.039094497
-0.0062194434 0.01740837 0.034486946 -0.008872079 -0.0045540277 0.023524392 -0.025477987 -0.024801582
-0.017941872 0.0013124348 0.016031211 0.04837731 0.023060855 -0.005540799 -0.0580096 -0.005948749
-0.015329777 -0.023378137 -3.2792635e-05 0.0112756565 0.0014250033 0.010380021 -0.039821748 0.017557494
-0.005325535 -0.045623433 -0.009131937 0.008743615 0.029981337 0.01985011 -0.0061056027 -0.032872815
0.008689301 0.027180197 0.022399051 0.0035411874 -0.0076474277 0.026554555 0.032623492 -0.023028525
-0.0037761978 -0.042495206 0.029471742 0.031875484 0.0115903 0.011973163 0.017214492 0.0130779045

prompt_embeddings f4 [50, 896]
00000000: 4e0e ea3c 2aab e6bb 8eb9 8bbc d584 45bc
00000010: 5ea9 46bc d0c1 b73c 3081 8fba b029 92bc
00000020: e9eb d1bb 9d37 993b c9c5 dabb 5072 aebc
00000030: 49b2 00bd da3a 0dba 590d a63c 4052 993c
00000040: 69ec 243c d3dc e33b 040a 283b d69d 9dbc
00000050: 7618 383c 765f 9d3c 98f5 373b 641d fd3b
00000060: 1f2d f8bc ec78 91bc 7d21 32bc bb29 e63c
00000070: 1639 5cbc f6c0 b6bc 8095 993c 8282 dc3b
00000080: f36c 42bb 5c20 2d3c e517 f33b 6728 253c
00000090: d16b 17bc ea6f c6bb c793 e9bc a321 9bbc
000000a0: 9ad6 23bc 4ab2 40bc 0835 b13b f74c 2039
000000b0: b25a 05bd 437a 91bc 3f79 91bc 2791 14bc
000000c0: 3864 f0bc 6b26 a53c 16ac 8d3c b987 33bb
000000d0: d9e5 64bc e8a7 b1bc 45b4 64bc 55ba a53c
000000e0: 296b 0fbc 7350 783b 54fd 3e3c b39c dabb
000000f0: 7168 5bbb 0e13 40bc b712 a2bb 5db6 f2bc
00000100: eaa7 323b 38bd 19bc 808a 2f3c e666 8b3c
00000110: 47f8 f73c ec16 37bb 75bf 08ba 004a 8ebc
00000120: dec2 6dbc c088 383c 86dd b7ba 3e2c 07bc
00000130: 0bc2 ffbb 0653 333c b37a 183c 2758 393c
00000140: a555 fc3b 3b58 abbc 604f 153c 451c d5bb
00000150: 4450 0abd 05aa 863b 86f3 5bbc 4e58 99bc
00000160: 4cc5 e8bc 7c6b 8f3b ac0f 4bbc d471 81bb
00000170: 18d5 e23b d016 bfbc 1a3e f03c 812d 8bbc
00000180: b0b4 193b 5bdb 033c c647 8e3b e3aa 9c3a
00000190: 9dc1 e03b 95aa ea3b b27e c33c 60e9 3abb
000001a0: eb17 9bbb 7585 9f3c 6773 68bc 9e93 1d3c
000001b0: 9800 a73a a24f e5bb bc94 843c 1062 ab3a
000001c0: 289b a3bc 6315 283c c209 d23b 40b0 a73c
000001d0: 5166 9fbb 8861 f3bc b6a9 863c 544c e1ba
000001e0: 5564 c4bb 14bd 6b3b 46a4 cd3b 9946 04bc
000001f0: 160d 03bd da10 813c 581f 4cbc c289 45bc
00000200: eb66 8ebc 5a1a a3bc 0855 bf3b 44f9 1fbb
00000210: d47b 7b3b f75e b83b 5592 753c 84f6 443b
00000220: 2c65 a33a 6d37 57bc acb6 3dbc 461a 203c
00000230: 5621 34bc 05df d63c 3967 803c b27a 85bc
00000240: 91bc 223b 16b6 d73c 59cf cc3b 7a2e 93bc
00000250: 460f 8bbc 105f 4fbc 0715 703c c619 f53c
00000260: 0db1 b43c 90c1 86bc 3ca7 853b 1a05 cf3b
00000270: e4ee 613c be51 bc3c d787 973a 4ae1 68bc
00000280: 5f97 b0bb 13df adba 9912 04bb 0c8b 0e3d
00000290: a2ef fb3b 1eff 1d3c 7407 a03c 97e7 483b
000002a0: 4c9d 223c 8308 b43b 6b80 94bc ad3a 8ebb
000002b0: fbf4 923c bfe2 b43c c81b 3a3c 92df 5d3c
000002c0: 523d d5bb 892b 01bd ec73 cfbb d828 febc
000002d0: b7a9 043d da62 7fbc 4fec 2d3b 93b7 ebbb
000002e0: 4786 56bb f187 953b 5b41 c73c 2c5c 5d3c
000002f0: 2cbd 81bc 51b9 ba3b 6e0d c83c 4f08 773c
00000300: 2987 51bc 047e 56bc 17b7 19bc 0b9d 6cbc
00000310: 0a55 82bb e338 43bc e9ce 113c f5a1 053c
00000320: 09e2 cabb 7c41 ea3b f7c1 b23c c450 87bb
00000330: 5c4a b6bc 283e 7abb 290b 123c e1f4 8dbb
00000340: ec1d 213b 664e b3bc 5cce bcbb 73bf 5e3c
00000350: 6b73 9ebc acac 8e3c 7129 adbc f919 0e3c
00000360: 00a7 bfbb 1988 b1bc 1ec9 03bc 10cf a9bc
00000370: d6ee d5ba be9e a13c 63d5 603c 450f 633b
00000380: a60d 5abc 7cb0 9fba a193 4f3c 6f41 31bc
00000390: 33bc 23bc 0a05 18bc 9e87 92bc 938c 40bc
000003a0: 540f 3a3c 337e cd3b e59c 6b39 d537 163b
000003b0: 1815 9bbb c10d 7e3c e676 7ebc cef2 58bc
000003c0: ebe4 6b3c f954 3abc f123 2fbc 29e9 31bc
000003d0: 0593 913a 1db5 8bbc 7f55 c8bc d5fd 733c
000003e0: 73ee 04bc 60eb c2bc fdb6 893c a683 f5bb
000003f0: 5511 09bc 10e5 313c 32b8 8d3c 9533 58bc
0.028571274 -0.0070394473 -0.017056253 -0.012055595 -0.012125341 0.022431284 -0.0010948535 -0.017842144
-0.0064062965 0.004675819 -0.00667641 -0.021294743 -0.031420026 -0.0005387493 0.020270037 0.018715978
0.01006613 0.0069538145 0.0025640735 -0.019240301 0.011236301 0.019210558 0.002806997 0.007724451
-0.030294953 -0.017757855 -0.010872242 0.02809607 -0.013441345 -0.022308808 0.018748045 0.006729425
-0.002966699 0.010566797 0.00741862 0.010080433 -0.009242014 -0.0060558217 -0.028512849 -0.018936938
-0.0099998955 -0.011761257 0.005407933 0.0001528746 -0.032557197 -0.017758494 -0.01775801 -0.00906781
-0.029344663 0.02015992 0.017293971 -0.002739413 -0.013970816 -0.02168651 -0.013958995 0.020230452
-0.008753576 0.0037889748 0.011657078 -0.006671512 -0.0033479 -0.011723293 -0.0049460786 -0.029627973
0.002726073 -0.009383492 0.010714173 0.01701684 0.030269755 -0.0027937246 -0.00052165176 -0.01736927
-0.014511792 0.0112630725 -0.0014027811 -0.008250294 -0.007805114 0.010945087 0.0093065975 0.011312521
0.0077006393 -0.020916095 0.009113163 -0.006503614 -0.033767954 0.0041096234 -0.01342476 -0.018718865
-0.028414391 0.004376827 -0.012393873 -0.003950337 0.0069223754 -0.023326308 0.029326487 -0.016989471
0.0023453645 0.008047904 0.004342052 0.0011952784 0.006859018 0.0071614482 0.023864124 -0.002852045
-0.004733076 0.019472817 -0.01418767 0.009617714 0.0012741266 -0.0069980184 0.016184203 0.001307549
-0.019971445 0.010259005 0.0064098546 0.020469785 -0.004864492 -0.029709592 0.016438346 -0.0017188885
-0.005993406 0.0035970854 0.0062756864 -0.008073472 -0.0319949 0.015755106 -0.012458645 -0.01205677
-0.01738306 -0.019910026 0.005838994 -0.0024410048 0.0038373368 0.005626555 0.014988502 0.0030054161
0.0012466065 -0.013135773 -0.011579197 0.009771889 -0.010994276 0.02622939 0.01567422 -0.016293857
0.0024831633 0.026331943 0.0062503037 -0.017966498 -0.016975056 -0.012656942 0.014653451 0.029919516
0.02205708 -0.01644972 0.004078774 0.006317747 0.013789866 0.022988196 0.0011560869 -0.014213869
-0.0053891386 -0.0013265334 -0.0020152687 0.034800574 0.0076884786 0.009643344 0.019534804 0.0030655616
0.009925198 0.0054941787 -0.01812764 -0.004340491 0.017939081 0.022080777 0.011359163 0.013542073
-0.006507554 -0.03153566 -0.0063309576 -0.031025335 0.032388415 -0.015587533 0.0026538556 -0.0071935146
-0.0032733844 0.0045633246 0.024323156 0.013510745 -0.015837274 0.005698361 0.024420466 0.0150776645
-0.012788572 -0.013091568 -0.009382031 -0.014441739 -0.0039774226 -0.011915418 0.008899429 0.008156289
-0.0061914963 0.0071489196 0.021821005 -0.004129501 -0.022252254 -0.003818402 0.008913794 -0.0043321704
0.0024584485 -0.02188797 -0.0057619046 0.01359545 -0.019342145 0.01741632 -0.021137925 0.008673185
-0.0058487654 -0.021671342 -0.008043556 -0.020728618 -0.0016321789 0.019729014 0.01372275 0.0034646553
-0.013308918 -0.0012183334 0.012669475 -0.010818823 -0.009993601 -0.009278545 -0.017886933 -0.0117522655
0.011356194 0.0062711476 0.00022469794 0.0022921462 -0.004732739 0.015506209 -0.015531277 -0.013241483
0.01439784 -0.011372798 -0.010689721 -0.010858812 0.0011106437 -0.017054135 -0.02445483 0.014892061
-0.008113491 -0.023793876 0.016810888 -0.0074925004 -0.008365949 0.010857835 0.017299745 -0.013195892
