PEFT-PT/modelo_juridico_prompt_tuning/checkpoint-618/adapter_model.safetensors (safetensors, 211664 bytes, 2 tensors)

base_model.score.weight f4 [9, 896]
000000 09 d2 f9 bc 4a 09 c5 3b 87 ab 03 3d e3 14 b5 bc
       -0.03049566 0.0060130702 0.032146003 -0.022104686
000010 94 ec 62 3b 3f 49 41 bc 6b 42 e9 bc e6 2a da 3c
       0.0034625875 -0.011797248 -0.028474053 0.026631784
000020 3e 00 64 bc b7 c3 c9 bc be f1 d6 bc cb cf 89 3c
       -0.013916073 -0.024629457 -0.026238319 0.016822716
000030 0f 2e 0c bc be 55 97 3c 50 d3 8b 3c df b4 c8 3c
       -0.008555903 0.018473502 0.017068535 0.024500309
000040 56 05 12 3d a3 1e 6a bc dd 0f 37 bc 99 a8 1f 3c
       0.03564962 -0.014289531 -0.011173216 0.009744787
000050 be 8e 9c 3c fc 68 0a bb 5e 3b 04 3b 34 be fd bc
       0.019111034 -0.0021119704 0.0020176987 -0.030974485
000060 f0 52 b7 3b d5 31 82 bb c9 c7 72 3a 25 a9 06 3a
       0.0055946037 -0.0039732256 0.00092613377 0.0005136899
000070 b1 06 25 bc 49 b6 0a 3c 90 ea 04 3a 40 08 32 3d
       -0.010072396 0.008466312 0.0005070353 0.0434649
000080 62 65 aa 38 db 9a 65 bc 47 2b 11 3d 0f 2d f5 3a
       8.125116e-05 -0.014013971 0.035441663 0.0018705445
000090 eb 3a e5 3c 03 87 7f bc ce 32 b0 3c 2b 0d 1b bd
       0.027982196 -0.015596154 0.0215086 -0.037854355
0000a0 df 19 14 3c 3b 2c 23 3c 70 47 c2 3c a0 16 28 3c
       0.009039371 0.009959276 0.023715705 0.0102593005
0000b0 ed 4a 90 b9 e2 f0 4d bc c2 8b 25 3b 19 c8 b4 3c
       -0.00027521644 -0.012569638 0.0025260304 0.02206807
0000c0 c9 8b 9f 3b 67 6b bf 3c e2 d2 29 3d 42 2a c4 bb
       0.0048689586 0.023366643 0.04146088 -0.005986483
0000d0 f8 3c 84 bc 41 40 09 3c b3 f9 1e 3d 46 c8 38 3a
       -0.016142353 0.008377136 0.03881235 0.0007048886
0000e0 64 9e ce bc c6 74 ad 3c 5b 4d 95 3c 6c cd de 3c
       -0.02522201 0.021173846 0.018225363 0.027197562
0000f0 a0 be 8e 3b c6 25 ec 3c e0 aa 1d 3c e5 b8 75 3c
       0.0043562204 0.028826606 0.009623259 0.014997696
000100 d1 d4 13 bc 5b 1d ed 3c 75 97 14 3c 2d b1 e4 bc
       -0.009022907 0.028944662 0.009069313 -0.027916515
000110 c7 94 82 bc ab 59 ce 3c f0 bf 29 bd e0 b1 09 bc
       -0.015940083 0.025189241 -0.04144281 -0.008404225
000120 c1 26 b1 bc 29 53 f0 3b a9 a9 f5 3c 79 03 f4 bc
       -0.021624925 0.007334132 0.029988127 -0.029786812
000130 e1 a3 9b 3b 1d b9 94 3b c6 7b 86 bd cb 72 14 3a
       0.0047497605 0.004538669 -0.06566577 0.00056628574
000140 7a 9a 94 3b c9 0e f6 3b 26 17 3b bc 31 f8 1c 3d
       0.0045350166 0.0075090867 -0.011419093 0.03832263
000150 48 d2 dc bc 88 89 01 3c 41 dd c4 3c 26 c3 ae bc
       -0.026955739 0.007906325 0.024031283 -0.021333288
000160 cc c3 e2 3c 21 f4 9c 3c a1 76 80 3c 95 ef 11 bd
       0.027681254 0.019159378 0.015681567 -0.035628874
000170 de ab 7c bc 07 ae 80 3a cf 54 86 bc 85 3a dc bc
       -0.015421836 0.0009817489 -0.016397862 -0.026883373
000180 f4 1c 1e bc 4a 9c 7f 3b 89 d7 16 3d b9 91 8c 3b
       -0.009650458 0.0039003068 0.036826644 0.0042898324
000190 fd 65 42 3b ec ca 22 ba 74 d9 8c 3c be bb 9f 3c
       0.002966284 -0.0006210047 0.017193533 0.019498702
0001a0 49 31 e6 3b 1a 8c 9b ba 34 1f 12 3c 42 d5 31 bc
       0.007024918 -0.0011867315 0.008918572 -0.010854067
0001b0 4c be 2a 3d c1 09 16 3c a4 47 7f bc ee f5 92 bc
       0.041685387 0.009157599 -0.015581045 -0.017939534
0001c0 4b 30 35 bd f6 ae 31 bc cd 72 d0 3b 72 7f f2 bc
       -0.04423551 -0.010844937 0.0063613416 -0.029601786
0001d0 76 ed 32 3b c5 8f 98 38 6b 23 ad 3c 2e c3 ba 3c
       0.0027302182 7.274704e-05 0.021135053 0.022798147
0001e0 d6 35 6c bc 83 40 c9 3c ec 19 d7 3c 3c ce f5 3a
       -0.014417132 0.024566894 0.026257478 0.0018753479
0001f0 33 b4 83 3c 2d 07 d6 3c f0 27 4a bd 8c 9d 64 bc
       0.016077137 0.026126469 -0.049354494 -0.013953578
000200 3e cc 2e 3a 9f 22 7b bc c8 3a e7 bc c3 67 1f 3d
       0.00066680077 -0.0153280785 -0.028226271 0.038917314
000210 a3 66 2f 3d 7b fa a7 3c 1e b7 89 3c c6 1b b6 bc
       0.04282249 0.02050518 0.01681095 -0.02223004
000220 20 af 94 3c 49 ff e7 3c ce 99 87 bb 69 0b ac 39
       0.018149912 0.028319972 -0.004138208 0.00032814898
000230 ea db 09 3b 23 e7 b9 3c 04 ca 32 3c 7f 71 99 3b
       0.002103562 0.022693222 0.010912422 0.0046827192
000240 2f 18 d7 bc 12 f4 18 3c 99 37 9a bb ca 76 12 3d
       -0.026256649 0.009335535 -0.004706335 0.035757817
000250 b5 1c aa bc df c9 1e 3c 75 23 2c 3d 87 56 dd 3c
       -0.020765642 0.0096916845 0.042026002 0.027018799
000260 fc 6a 2e bd a0 ed c9 ba c5 96 b8 39 60 1a 25 bb
       -0.042582497 -0.0015405901 0.00035207547 -0.0025192723
000270 cb ce 97 3c 9f 56 eb bb b0 21 d9 bb 46 f6 33 bb
       0.018531224 -0.007181957 -0.0066263303 -0.0027460023
000280 a7 18 d1 3c cc bc b7 3c 25 9b db bb 07 85 87 3b
       0.02552445 0.022428893 -0.0067018443 0.004135731
000290 f4 cb ab bc 39 aa e0 3c 09 0f df bc ef fa 40 3c
       -0.020971276 0.027424918 -0.027228849 0.011778577
0002a0 a0 e1 c3 bc 63 83 ba bb aa a1 84 bc 57 38 32 3b
       -0.023911297 -0.005691932 -0.016190369 0.0027194226
0002b0 60 6b 6d bc 4c 8f 9f bc 04 17 36 3c 78 8f dd 3a
       -0.014490932 -0.019477509 0.011113886 0.0016903719
0002c0 b4 05 92 3c 04 16 9b bb db 6a c0 bb bf 13 c6 3a
       0.017824985 -0.004732849 -0.005872113 0.0015112086
0002d0 25 06 72 bc 04 61 11 bd e7 40 e6 3c 01 82 31 3b
       -0.014771973 -0.035492912 0.02810712 0.0027085545
0002e0 bd f4 31 bd e8 b0 ef bb cf 85 70 3c eb ad 7d 3c
       -0.04344629 -0.00731479 0.01468034 0.01548336
0002f0 42 32 26 bc f5 88 ea bc 45 8f 19 bb 13 8c dc bc
       -0.010143818 -0.02862976 -0.0023431343 -0.026922261
000300 57 a7 53 bc 71 2c 3c 3c 40 99 8d bc 89 d4 71 3c
       -0.012918315 0.011485205 -0.01728499 0.014760145
000310 71 8b 8b 3c d4 cb e7 3b b1 8f 62 bc af 10 0c 3c
       0.017034264 0.0070738588 -0.013828204 0.0085489
000320 a0 8a db 3b 67 41 eb bb 54 a4 0d bd ce 8b 3f 3b
       0.006699875 -0.0071794274 -0.034580544 0.0029227617
000330 61 03 8d bc 11 4c 23 3d 42 8f 74 bc 6b 69 1f bd
       -0.017213525 0.039867464 -0.014926733 -0.038918894
000340 f8 8d d2 bb 43 9c 8d 3c 25 96 10 3d 29 09 09 bc
       -0.0064256154 0.017286425 0.03529944 -0.008364
000350 ce d7 8d bb 89 47 c3 3c 29 c7 d6 bc e8 30 d1 bc
       -0.0043287044 0.023837822 -0.026218014 -0.025536016
000360 8b b8 9d bc f5 55 98 3a 54 bc 81 3c f3 d6 44 3d
       -0.019253036 0.0011622297 0.015836872 0.048056554
000370 69 07 b6 3c fb 34 be bb a7 da 6a bd 2f cb 55 bb
       0.02222033 -0.0058046556 -0.05733743 -0.0032622328
000380 fa ea 78 bc 21 5c c5 bc 69 54 66 39 59 ff 69 3c
       -0.0151927415 -0.024091782 0.00021965955 0.014282071
000390 ca ab 32 3b 3a 46 5a 3c 40 c2 28 bd 57 cf 94 3c
       0.0027263039 0.013322407 -0.041200876 0.018165274
0003a0 90 bf 06 bb 45 f3 3e bd db 88 8a bb f0 af 05 3c
       -0.0020560957 -0.04661872 -0.00422774 0.008159623
0003b0 6b d7 eb 3c f6 01 a8 3c 10 9c e8 bb 80 24 06 bd
       0.028789243 0.020508748 -0.007098682 -0.032749653
0003c0 05 5b 11 3c e1 a1 de 3c 3f 4f b0 3c be aa d3 3b
       0.008871798 0.0271768 0.021522162 0.006459563
0003d0 b4 39 f2 bb 64 d1 c8 3c 99 4f f9 3c 9c e1 88 bc
       -0.0073921327 0.024513908 0.030433463 -0.016709141
0003e0 55 e7 8e bb 8d 33 26 bd 6a 15 fb 3c 7b 1c f5 3c
       -0.004361073 -0.040576506 0.03064986 0.029920807
0003f0 d8 8f 81 3c 37 d0 11 3c 78 76 7d 3c d5 00 5a 3c
       0.01581566 0.00889974 0.01547014 0.013305862

prompt_embeddings f4 [50, 896]
000000 fb c5 e9 3c 1e 39 df bb 97 22 8f bc 51 80 51 bc
       0.028536787 -0.006812229 -0.017472548 -0.012786941
000010 37 20 3f bc 31 50 b2 3c 23 09 0f 3a a4 77 8d bc
       -0.011665395 0.021766754 0.00054563786 -0.017268963
000020 51 22 cf bb 41 27 37 3b 7b 59 d2 bb e0 7f ab bc
       -0.0063212295 0.002794698 -0.0064193583 -0.020934999
000030 2f 40 ff bc ac 03 bd b9 58 d9 a1 3c 99 a7 a1 3c
       -0.031158535 -0.00036051625 0.019756958 0.019733237
000040 bc c0 30 3c e7 78 07 3c 02 2d 28 3b 64 57 94 bc
       0.010788139 0.008268571 0.0025661592 -0.018108077
000050 dd ae 3e 3c 1d 83 9d 3c 80 8e 67 3b b8 fc 0f 3c
       0.01163837 0.019227559 0.003533274 0.00878828
000060 2a d7 f1 bc 0f 92 90 bc 29 1b 1e bc 78 d7 cc 3c
       -0.029521544 -0.017647771 -0.00965003 0.025005087
000070 b3 4d 47 bc ec 46 ab bc 40 01 98 3c 52 38 ea 3b
       -0.012164521 -0.020907842 0.018555284 0.007147827
000080 78 05 1a bb 23 a8 37 3c e0 27 f4 3b 4b 65 39 3c
       -0.0023501795 0.0112095205 0.0074510425 0.011315654
000090 33 9a 0c bc 91 a0 a2 bb dc a6 e1 bc da bf a0 bc
       -0.008581686 -0.0049629887 -0.027545385 -0.019622732
0000a0 27 4f 2f bc 45 57 43 bc 0f a8 b4 3b 05 e9 1a 3b
       -0.010700024 -0.011922662 0.005513198 0.0023637426
0000b0 ea 8c 04 bd 01 1f 8f bc c6 67 98 bc ab 7a 2d bc
       -0.03236095 -0.017470839 -0.01860417 -0.010588328
0000c0 1c ad f8 bc b4 01 a6 3c ea 2d 87 3c 0c 9c 05 39
       -0.030355982 0.020264484 0.016501386 0.00012742
0000d0 26 59 5c bc 70 6d b8 bc 27 d0 5b bc 40 b7 a3 3c
       -0.013448989 -0.022513121 -0.013416327 0.019984841
0000e0 41 d1 16 bc 91 2f 36 3b 31 9c 54 3c 69 fd 02 bc
       -0.009205163 0.0027799348 0.012976692 -0.007994988
0000f0 11 35 2b bb 6e ea 22 bc 22 d9 b3 bb e4 45 f8 bc
       -0.002612416 -0.009943588 -0.0054885307 -0.030306764
000100 e8 bc 45 3b 69 d0 2a bc 98 8b 1f 3c e7 69 90 3c
       0.0030172411 -0.010425665 0.009737872 0.017628623
000110 c0 f3 d4 3c ae cc 99 ba e2 b4 23 ba d4 9a 7b bc
       0.025995135 -0.0011733973 -0.000624491 -0.015356738
000120 61 b5 51 bc 61 61 27 3c 11 8a ab ba 25 7b ed bb
       -0.012799592 0.010216088 -0.0013087412 -0.007247346
000130 a6 10 b2 bb 70 79 28 3c 39 93 f0 3b f5 8b 15 3c
       -0.0054341136 0.010282859 0.007341769 0.009127607
000140 b8 90 f6 3b 39 61 ab bc b3 72 0d 3c 37 9a c4 bb
       0.007524576 -0.020920383 0.008633303 -0.005999829
000150 1d 22 03 bd 9b e2 67 3b 3a 5c 5f bc 8b 97 a2 bc
       -0.032014955 0.003538287 -0.013632828 -0.019847652
000160 d2 09 d2 bc db f9 97 3b e1 dc 3d bc ea cd 84 bb
       -0.025639448 0.0046379394 -0.011588306 -0.004052867
000170 81 e0 bd 3b 24 4a c5 bc a1 bf f0 3c 7b 22 9b bc
       0.005794585 -0.024083205 0.02938825 -0.01893734
000180 bf 22 36 3b ad 3f 13 3c e3 8b f0 3a d0 01 c8 39
       0.0027791706 0.008987349 0.0018352236 0.00038148323
000190 c9 91 d6 3b b2 f1 18 3c 9e 94 c5 3c 34 bb ca ba
       0.0065481407 0.009334968 0.024118718 -0.0015467168
0001a0 3f 8c be bb 71 49 94 3c c4 ee 68 bc f9 4e 1a 3c
       -0.0058150585 0.018101426 -0.014217082 0.009418243
0001b0 19 39 93 b9 12 f3 db bb e6 20 82 3c 9b ad 1e 3b
       -0.00028080566 -0.006712326 0.015884828 0.0024212364
0001c0 d5 ae a2 bc 37 f8 35 3c 32 e2 a7 3b 82 83 a8 3c
       -0.019858757 0.011106542 0.0051234 0.02057052
0001d0 3a ff 85 bb 7a d0 ef bc f2 d9 8d 3c 10 9e b1 ba
       -0.0040892633 -0.029274214 0.017315838 -0.0013551135
0001e0 e7 c2 d0 bb 93 e7 89 3b 9b 1f cd 3b b5 07 16 bc
       -0.0063708904 0.004208514 0.006259871 -0.009157111
0001f0 62 be 01 bd 58 aa 6b 3c cc 73 3f bc 00 14 57 bc
       -0.031675704 0.014383875 -0.011685323 -0.013127327
000200 05 c7 9b bc b2 65 9b bc 74 c5 d2 3b b2 d0 7d bb
       -0.019015798 -0.01896939 0.0064322297 -0.0038729128
000210 53 f9 98 3b ec a8 8b 3b c3 c8 7f 3c 2e 4a 68 3b
       0.0046683936 0.0042620804 0.01561183 0.0035444605
000220 75 60 cd 3a c3 f6 44 bc 1e c1 3b bc 13 52 19 3c
       0.0015669005 -0.012021723 -0.011459617 0.009357947
000230 f1 f5 31 bc db 1c d5 3c 5e 77 4c 3c ad 89 82 bc
       -0.01086186 0.026014736 0.012479631 -0.01593479
000240 58 ae 75 3b 58 12 d8 3c 50 44 f6 3b 8d 64 8c bc
       0.003748795 0.026375934 0.0075154677 -0.01713779
000250 14 80 95 bc 06 8b 64 bc d8 09 6e 3c dd 37 ea 3c
       -0.018249549 -0.013949161 0.014528714 0.02859109
000260 53 1d b3 3c 89 40 9a bc 04 ea 14 3b 15 ed a0 3b
       0.021864569 -0.0188296 0.0022722492 0.004911075
000270 e2 b0 3b 3c c4 99 ad 3c 7d 60 45 3a 35 b9 7c bc
       0.011455746 0.021191485 0.00075293315 -0.015425016
000280 25 76 bd bb 7a 10 a3 ba b7 27 05 bb d8 c5 07 3d
       -0.005781906 -0.0012440823 -0.0020317861 0.033147663
000290 89 bf fb 3b 99 48 0f 3c 60 74 a5 3c 52 f3 68 39
       0.007682745 0.008745336 0.020197093 0.00022215888
0002a0 b7 0b 04 3c 88 2c b9 3b 7c f7 8e bc c8 88 3d bb
       0.008059434 0.0056510605 -0.017451994 -0.002892064
0002b0 88 f9 97 3c 78 ad b5 3c 91 4f 2e 3c 3f f7 6b 3c
       0.018551603 0.022177443 0.010639087 0.01440221
0002c0 1a 1e aa bb 0f 1d 01 bd 78 5d ba bb 5f a6 ed bc
       -0.0051915767 -0.031521853 -0.005687412 -0.029009996
0002d0 81 b9 03 3d 29 a8 82 bc e6 a8 96 3b af 59 b7 bb
       0.032159332 -0.015949326 0.004597771 -0.005595408
0002e0 d1 b3 7f bb 9d 9b c5 3b a3 8a ca 3c 95 f4 5e 3c
       -0.003901709 0.0060305134 0.02472431 0.013608118
0002f0 51 98 79 bc 6c 90 b3 3b 8c ef c6 3c da 23 80 3c
       -0.015234069 0.005479863 0.024284147 0.015642095
000300 13 53 57 bc 47 ff 49 bc 77 5e bd bb 07 cd 75 bc
       -0.013142365 -0.012328929 -0.0057790834 -0.015002496
000310 b9 75 22 bb ca 2f 53 bc ed eb 31 3c 46 02 0c 3c
       -0.0024789406 -0.012889812 0.010859472 0.008545464
000320 07 c4 bf bb 60 17 ce 3b 27 7e a1 3c 46 d4 8f bb
       -0.0058522257 0.0062894076 0.019713474 -0.0043893186
000330 19 40 ae bc 8e 45 5a bb a5 d9 d5 3b fc 5c 80 bb
       -0.021270799 -0.0033305618 0.0065261894 -0.0039173346
000340 72 cb 30 3b 3f ff ad bc 2c 85 ad bb 1e d2 6f 3c
       0.0026976732 -0.021239875 -0.0052954163 0.014637498
000350 9d 73 a1 bc a8 30 90 3c a1 e2 a2 bc a8 34 19 3c
       -0.019708449 0.017601326 -0.019883456 0.009350933
000360 af b3 bc bb 4a 21 a5 bc 92 8c 08 bc e4 f5 a8 bc
       -0.0057587246 -0.020157475 -0.008334296 -0.020625062
000370 17 98 84 ba a6 30 96 3c 0e de 53 3c 55 72 8d 3b
       -0.0010116127 0.018333744 0.01293136 0.004316608
000380 11 c7 62 bc ea 60 60 ba f0 b0 50 3c a6 8a 1f bc
       -0.013841406 -0.0008559363 0.012737498 -0.009737646
000390 60 8e 24 bc 4b 43 28 bc 36 ec 88 bc 8c 84 4c bc
       -0.0100437105 -0.01026995 -0.016714197 -0.0124827735
0003a0 68 73 33 3c ef 34 d3 3b 80 a5 84 b9 70 f1 41 3b
       0.010952808 0.006445519 -0.0002530031 0.002959337
0003b0 db 95 ac bb e0 f2 7f 3c f9 59 60 bc c7 70 5e bc
       -0.0052668876 0.015621871 -0.013693326 -0.013576693
0003c0 b2 7a 7f 3c d3 5c 45 bc 40 18 3a bc 4e c5 39 bc
       0.015593218 -0.012046057 -0.011358321 -0.011338545
0003d0 ce ee ea 3a ea be 86 bc 58 01 c8 bc 73 f1 6b 3c
       0.0017923953 -0.016448457 -0.024414703 0.014400828
0003e0 d3 65 04 bc 8b 5e a9 bc 66 5a 83 3c 71 1e d2 bb
       -0.008080917 -0.020674964 0.016034316 -0.0064123203
0003f0 f7 fe 04 bc 74 fb 57 3c a9 96 97 3c 1f 0e 5a bc
       -0.008117429 0.01318251 0.018504458 -0.013309031
