PEFT-PT/modelo_juridico_prompt_tuning/checkpoint-824/adapter_model.safetensors (safetensors, 211664 bytes, 2 tensors)

base_model.score.weight f4 [9, 896]
000000 eb 48 0d bd 26 76 ca 3b eb 5a 09 3d 7c 57 af bc
       -0.034493368 0.006178635 0.03353397 -0.02140402
000010 28 81 1a 3b 67 94 55 bc 03 df e2 bc a4 8a e0 3c
       0.0023575518 -0.01303587 -0.02769423 0.027409859
000020 b7 52 5b bc eb a7 d1 bc f8 f7 d0 bc 39 1b a1 3c
       -0.01338642 -0.025592765 -0.025508866 0.019666301
000030 9e a5 03 bc 81 c6 98 3c 40 e6 98 3c 8b 45 e0 3c
       -0.008035092 0.018649342 0.01866448 0.02737691
000040 1c 9a 11 3d eb 68 67 bc e4 2f 43 bc fc 69 16 3c
       0.03554736 -0.0141241355 -0.0119132735 0.009180542
000050 c9 ca 9f 3c 2e bc 18 bb f3 00 64 3b a1 0f fc bc
       0.019505875 -0.0023305523 0.0034790605 -0.030769171
000060 cb f8 c4 3b 67 cd 7e bb e4 00 c4 3a 62 4e 13 b9
       0.0060111037 -0.0038879754 0.0014953879 -0.00014048212
000070 70 cc 2b bc 24 3b de 3b 1a 8f 9b bb a9 39 2d 3d
       -0.010485753 0.0067819525 -0.0047472836 0.042291317
000080 df d1 47 3a 51 e2 79 bc da e8 12 3d b9 1c 29 3b
       0.0007622521 -0.015251712 0.035866596 0.0025804474
000090 a4 45 e1 3c 67 03 82 bc 95 e6 af 3c 54 ce 1d bd
       0.027499028 -0.015870763 0.021472255 -0.038526848
0000a0 bd ac 2e 3c 5f a7 65 3c d4 66 c3 3c bb 73 18 3c
       0.010661301 0.014016955 0.023852743 0.009304936
0000b0 9e 12 00 ba 14 78 48 bc 8f 83 27 3b e7 d9 bc 3c
       -0.00048855867 -0.01223566 0.0025560593 0.023053123
0000c0 ff ac f5 3b 42 c7 bd 3c 97 e6 2b 3d 1f b3 f7 bb
       0.0074974294 0.023166303 0.041967954 -0.0075591947
0000d0 86 ae 88 bc ba 72 15 3c 61 31 1e 3d 47 1e b0 39
       -0.016684782 0.009121591 0.03862131 0.00033591894
0000e0 6a ac d1 bc bf 0e 8d 3c bc 8f 9c 3c 1a 68 df 3c
       -0.025594909 0.017218946 0.019111507 0.02727132
0000f0 83 12 97 3b da f3 f4 3c 5b 66 28 3c 03 21 5d 3c
       0.004610361 0.029901434 0.01027831 0.01349664
000100 b2 fb 17 bc d4 26 d3 3c d8 86 11 3c bb 2c f1 bc
       -0.009276317 0.02577535 0.008882247 -0.029440274
000110 3a 47 72 bc ea 1c e9 3c 19 ee 3f bd 9a 5d 25 bc
       -0.01478749 0.02845617 -0.046857927 -0.010093117
000120 7b 6b a3 bc 39 a1 07 3c df bd 01 3d 78 29 f3 bc
       -0.019948712 0.008278185 0.031675216 -0.02968286
000130 a0 7b ae 3b a4 71 89 3b 49 7e 88 bd d0 70 ca 3a
       0.005324796 0.004194455 -0.06664712 0.0015444998
000140 2a 64 9b 3b e9 b1 ff 3b c6 3b 39 bc 98 8b 20 3d
       0.004742165 0.007803191 -0.011305755 0.039195627
000150 1d ae c5 bc 84 87 06 3c 06 53 cb 3c 54 2a a4 bc
       -0.024130875 0.00821102 0.024819862 -0.020039715
000160 2b c8 cb 3c fa 89 b3 3c d0 3b 82 3c ab 38 0f bd
       0.024875721 0.021916378 0.015897661 -0.034966152
000170 3f e1 70 bc 82 f9 d2 b9 a6 aa 83 bc bf c1 d8 bc
       -0.01470214 -0.0004024022 -0.016072582 -0.026459573
000180 cc 8b 1e bc e9 d0 88 3b 2b c9 1d 3d ae 8e 72 3b
       -0.009676885 0.0041752947 0.038521927 0.0037011313
000190 b7 bc 63 3b f9 03 41 ba 81 17 8a 3c 96 cd 93 3c
       0.0034749934 -0.00073629577 0.01685691 0.018042367
0001a0 fc 9e e6 3b 0f 86 e6 ba f1 22 da 3b bd d6 3d bc
       0.0070379954 -0.001758756 0.0066569974 -0.011586842
0001b0 cd 64 2a 3d 7d 0e 0a 3c 2b 38 77 bc 5f 62 9c bc
       0.041600037 0.008426306 -0.015089075 -0.019089876
0001c0 ba 1c 3a bd e2 d7 3a bc 67 78 ed 3b f9 9e dd bc
       -0.045437552 -0.01140401 0.007247019 -0.027053343
0001d0 b9 e1 34 3b 21 c9 a3 b9 ee 01 b8 3c 2d 1e b8 3c
       0.0027600361 -0.00031239635 0.022461858 0.022475326
0001e0 21 9e 70 bc d1 e8 d9 3c 77 09 d7 3c 34 ef c1 3a
       -0.014686138 0.026600273 0.02624963 0.001479602
0001f0 8b 27 86 3c e3 b6 bf 3c d1 0f 4b bd be b0 60 bc
       0.016376277 0.023402637 -0.04957563 -0.013714014
000200 d3 29 aa b8 a8 b0 89 bc ff da dd bc fb f6 23 3d
       -8.114022e-05 -0.01680787 -0.027081965 0.04003046
000210 c3 8b 2f 3d 5f 75 a7 3c 48 c6 52 3c 20 59 bd bc
       0.042857897 0.02044171 0.012864657 -0.023113787
000220 7a 38 94 3c 16 b7 fa 3c a3 f7 94 bb 38 a5 40 b9
       0.018093336 0.03060488 -0.004546122 -0.00018372096
000230 30 e9 41 3b 72 a2 a4 3c 6c b5 36 3c 60 52 a1 3b
       0.0029588453 0.020096991 0.011151653 0.00492315
000240 6f 1e d6 bc ed 71 45 3c 21 0f 9a bb a2 d5 11 3d
       -0.026137559 0.012051088 -0.0047015105 0.035604127
000250 85 4d b3 bc f2 5d 2a 3c 26 29 35 3d 46 45 e4 3c
       -0.02188755 0.010398375 0.044228695 0.027865063
000260 e6 59 38 bd a5 2e 07 3b e4 36 21 3b c9 48 71 bb
       -0.04500761 0.0020627168 0.0024599368 -0.0036817065
000270 ee 72 7d 3c 87 22 d9 bb c1 45 e4 bb e7 fa 17 bb
       0.015469296 -0.0066264304 -0.006966323 -0.002319032
000280 31 6b cf 3c a1 87 dd 3c e9 17 e2 bb 6d ce 8f 3b
       0.025319668 0.027042212 -0.006899823 0.0043886215
000290 c8 11 84 bc 52 36 dc 3c 35 01 e1 bc f4 6f 31 3c
       -0.01612176 0.02688137 -0.027466396 0.010829914
0002a0 5a 2b c8 bc e3 35 6a bb dc 69 77 bc d5 29 22 3b
       -0.024434734 -0.0035737685 -0.015100922 0.0024744172
0002b0 b9 18 48 bc 73 24 a2 bc a1 c7 e2 3b c9 ae 52 3a
       -0.012212926 -0.019792771 0.0069207703 0.0008036909
0002c0 e1 48 3c 3c 34 8f f4 ba 19 98 33 bc 85 2e 1e 3b
       0.011491985 -0.00186584 -0.010961556 0.0024136615
0002d0 57 3f 71 bc d8 03 1b bd 9b da ec 3c d1 f9 2e 3b
       -0.014724574 -0.037845463 0.028912833 0.0026699195
0002e0 4e 11 34 bd 56 77 0e bc ca 51 a0 3c ae 2a 82 3c
       -0.043961816 -0.008695444 0.01957025 0.015889492
0002f0 53 af 3c bc 16 7c ef bc e0 9e 26 bb e6 5d d6 bc
       -0.01151641 -0.029233973 -0.0025424287 -0.026167821
000300 47 3e 44 bc 6c fa 44 3c bc 5f a1 bc 33 04 6a 3c
       -0.011977739 0.012022596 -0.01969897 0.014283228
000310 0b 28 92 3c 7f 8d 0d 3c 73 ee 53 bc 32 f9 12 3c
       0.01784136 0.008639692 -0.012935269 0.008970546
000320 5b 22 a8 3b f6 96 0a bc 9c 84 06 bd c1 bb 5e 3b
       0.0051310486 -0.008458843 -0.03284131 0.0033986422
000330 65 9a 8e bc 65 72 29 3d 61 60 7c bc 2b 6c 20 bd
       -0.017407605 0.04136886 -0.015403838 -0.039165657
000340 04 e7 c8 bb f2 e1 8d 3c e5 50 0d 3d 1b 2f 0f bc
       -0.006131055 0.017319653 0.034500975 -0.008739258
000350 8c b1 9b bb db 8e c2 3c 45 61 d8 bc 64 aa c1 bc
       -0.00475139 0.02374976 -0.02641357 -0.023640819
000360 6d db 9b bc 73 32 ca 3a 86 b3 85 3c c5 24 46 3d
       -0.019025529 0.0015426412 0.016320955 0.04837491
000370 6d 3c bb 3c f8 3e d1 bb fb 67 6d bd 56 75 a7 bb
       0.022855962 -0.0063856803 -0.05796049 -0.005110423
000380 d2 a8 77 bc 93 a8 c1 bc 8a dd 56 b9 f0 dd 3f 3c
       -0.0151159335 -0.023639953 -0.0002049116 0.011710629
000390 6b 8c 0f 3b 15 bf 41 3c 4b ae 24 bd 28 9c 8f 3c
       0.0021903764 0.011825343 -0.04020528 0.017530516
0003a0 77 68 73 bb bd a1 3e bd b9 95 08 bc f0 49 0a 3c
       -0.0037141123 -0.046540964 -0.008336478 0.00844048
0003b0 12 ec f6 3c b9 52 b1 3c cb d0 c4 bb f7 e4 06 bd
       0.030141864 0.02164589 -0.0060063354 -0.0329332
0003c0 48 d7 18 3c d1 b7 dd 3c d2 63 b4 3c 74 76 71 3b
       0.009328671 0.02706519 0.022020254 0.0036844285
0003d0 6b 58 f8 bb ce e5 d2 3c 35 27 03 3d 13 f4 ae bc
       -0.0075788996 0.025744345 0.032019813 -0.021356618
0003e0 b8 c7 6b bb 89 ce 2e bd 60 e9 f4 3c 5b 1c fe 3c
       -0.0035977196 -0.042677436 0.029896438 0.03101938
0003f0 8e a3 60 3c 0f 4e 36 3c 25 a4 89 3c bb f3 5a 3c
       0.0137108695 0.011127009 0.016801903 0.013363774

prompt_embeddings f4 [50, 896]
000000 4b ec e7 3c b0 15 dc bb 10 7c 8a bc d6 14 4f bc
       0.028310915 -0.0067164525 -0.01690486 -0.012639245
000010 75 45 3c bc 1f 9f b5 3c a2 71 32 b8 17 4f 94 bc
       -0.011491169 0.022170601 -4.2544336e-05 -0.01810412
000020 6d 14 ce bb d8 5c 6a 3b 54 af c9 bb 1e 5e ab bc
       -0.006289056 0.0035760906 -0.006154934 -0.020918902
000030 b5 82 f9 bc f1 06 17 ba 35 c7 a5 3c 3f 73 99 3c
       -0.030457834 -0.0005761227 0.02023659 0.018731711
000040 e3 b1 21 3c e4 3d ec 3b 8c 4b 37 3b c1 46 9b bc
       0.009869072 0.0072095264 0.0027968613 -0.018954637
000050 0d c8 34 3c 17 fb 9f 3c bc d8 19 3b d5 1c 02 3c
       0.011034024 0.019528909 0.002347513 0.007941444
000060 97 dd f4 bc 7a ef 92 bc ac b3 32 bc 6b 4d e1 3c
       -0.029890819 -0.017936457 -0.010907095 0.027502736
000070 f9 b8 4e bc 9a e8 ac bc c1 39 99 3c b8 6a f1 3b
       -0.012617343 -0.021107007 0.018704297 0.007367458
000080 02 e4 10 bb e1 65 26 3c 9a 8b 04 3c 06 a6 23 3c
       -0.002210856 0.010156126 0.008089924 0.009988314
000090 c2 1e 0d bc 87 0f ad bb a6 a5 e8 bc 94 c0 9c bc
       -0.00861329 -0.005281392 -0.0283993 -0.019134797
0000a0 80 c8 21 bc 35 a8 42 bc 75 d2 9b 3b 28 f1 8d 3a
       -0.009874463 -0.011880924 0.004755313 0.0010829316
0000b0 88 8e 05 bd e1 90 93 bc 4e d8 94 bc 16 59 16 bc
       -0.03260663 -0.01801342 -0.018169548 -0.009176513
0000c0 f8 02 f4 bc 75 ca a7 3c 91 0d 88 3c 4d bd af ba
       -0.029786572 0.020482281 0.016608031 -0.0013407856
0000d0 b2 ed 64 bc 3a 1a b6 bc bc fd 50 bc 6c 58 a6 3c
       -0.013972687 -0.022229303 -0.0127558075 0.020305835
0000e0 45 b4 17 bc 21 18 3c 3b 14 85 3d 3c 9e e9 d2 bb
       -0.009259288 0.0028700905 0.011567373 -0.0064365407
0000f0 c5 57 50 bb f5 25 3b bc e1 69 9f bb 20 41 f9 bc
       -0.0031790596 -0.011422624 -0.0048649167 -0.030426562
000100 fb f1 62 3b af fa 19 bc a9 7a 2d 3c 59 11 92 3c
       0.0034629095 -0.0093981465 0.0105883265 0.017830538
000110 e7 4b e4 3c 30 4b 1e bb 0d 68 b1 b9 7a d2 88 bc
       0.027868224 -0.0024153702 -0.00033837595 -0.016701926
000120 e7 3d 60 bc a4 d8 31 3c bf fd e4 ba 8f 75 f3 bb
       -0.013686634 0.010854874 -0.0017470642 -0.0074297856
000130 89 82 dd bb 86 0f 32 3c 51 fb 0c 3c 0c 26 2c 3c
       -0.006759946 0.010867959 0.00860484 0.010507118
000140 08 9f e8 3b e4 3f a5 bc 2f 4a 17 3c 28 e2 cf bb
       0.007099036 -0.020172067 0.009233995 -0.0063440986
000150 71 5a 05 bd 0a 54 87 3b 90 d9 60 bc f7 cb 98 bc
       -0.032556955 0.0041298913 -0.013723746 -0.018651946
000160 33 02 e7 bc bb 31 89 3b 2a e3 48 bc 7a 49 69 bb
       -0.02819929 0.0041868365 -0.012261191 -0.0035596774
000170 5e b3 e0 3b 7c ac c4 bc e7 2d f2 3c a4 99 92 bc
       0.0068573197 -0.024008028 0.029562904 -0.017895527
000180 4c 56 34 3b 79 c2 0d 3c 0b 3c 5d 3b bd 71 05 3a
       0.0027517257 0.008652323 0.0033757712 0.00050904957
000190 96 a0 e5 3b 58 8f f5 3b 6f 66 c4 3c 12 5f 14 bb
       0.0070076687 0.0074938945 0.023974625 -0.0022639674
0001a0 84 69 ae bb 24 86 9d 3c 35 cf 6a bc 29 31 27 3c
       -0.005322637 0.019229002 -0.014331629 0.010204592
0001b0 46 6c 5a 3a c9 9c ef bb d1 c5 8b 3c ea ab f6 3a
       0.0008332174 -0.0073123914 0.0170621 0.0018819545
0001c0 71 dc a2 bc 17 ae 26 3c 65 e9 cc 3b ec 9a ab 3c
       -0.019880505 0.010173342 0.0062534087 0.020947896
0001d0 31 3a 70 bb 26 77 f6 bc 5a 14 89 3c f9 c4 15 bb
       -0.0036655779 -0.030086111 0.016733337 -0.0022853
0001e0 eb 17 c7 bb 13 7f 8c 3b a8 ae d8 3b 4f 17 04 bc
       -0.0060758493 0.0042876094 0.0066126175 -0.008062198
0001f0 1e dd 00 bd 21 2a 74 3c 15 ef 43 bc 2e 80 44 bc
       -0.031460874 0.014902622 -0.011958857 -0.011993451
000200 40 e0 96 bc 80 81 a1 bc bf 7d cb 3b b3 fa 3c bb
       -0.018417478 -0.01971507 0.0062100585 -0.0028835952
000210 2a a6 89 3b da cc b3 3b 72 42 80 3c 86 92 4f 3b
       0.0042007165 0.0054870667 0.015656684 0.0031673028
000220 72 d3 05 3b ef 2b 50 bc 83 99 44 bc 30 ab 22 3c
       0.002042022 -0.012705787 -0.011999491 0.00992851
000230 e8 0c 36 bc 5d df d7 3c 36 c4 6e 3c a0 8f 86 bc
       -0.0111114755 0.026351625 0.0145731475 -0.016425908
000240 6c 23 51 3b cf 66 db 3c d4 ad de 3b a1 9e 8d bc
       0.0031911982 0.026782421 0.0067956243 -0.017287554
000250 2d 94 8e bc 54 98 4f bc ab 87 6e 3c 42 26 f7 3c
       -0.01740464 -0.012670595 0.014558713 0.03016961
000260 1f 1e af 3c 36 53 92 bc 01 cd 3a 3b 77 8b af 3b
       0.021376668 -0.017861944 0.002850354 0.0053572017
000270 89 27 53 3c cc 47 b9 3c f6 1f f6 39 58 f8 69 bc
       0.012887844 0.022617243 0.0004694459 -0.014280401
000280 fd 8f a5 bb d9 93 b9 ba ff 97 14 bb 03 17 0b 3d
       -0.005052565 -0.0014158442 -0.0022673605 0.033957493
000290 1d ed 00 3c ee cc 20 3c 5c 21 9f 3c a5 3a dd 3a
       0.007869032 0.009814484 0.019425087 0.0016878439
0002a0 87 73 1e 3c b5 69 b1 3b 57 f6 90 bc 20 5c 40 bb
       0.009671099 0.0054142126 -0.017695589 -0.0029351786
0002b0 53 32 98 3c 22 78 bb 3c f6 10 2a 3c 70 18 61 3c
       0.018578684 0.022884432 0.01038002 0.0137387365
0002c0 f3 d9 c0 bb 91 41 04 bd 5a b0 c3 bb f8 a3 fb bc
       -0.0058853566 -0.03228909 -0.0059719505 -0.030717835
0002d0 86 87 04 3d cb 5f 79 bc 63 f5 3a 3b 22 d0 dd bb
       0.032355808 -0.015220593 0.002852761 -0.006769196
0002e0 42 92 54 bb 37 6e b3 3b f4 28 ca 3c ca a6 51 3c
       -0.003243581 0.005475785 0.024677731 0.012796113
0002f0 77 c7 78 bc 92 ec b7 3b 5c 94 c9 3c 61 7b 7e 3c
       -0.015184275 0.005612918 0.024606876 0.0155323455
000300 46 2e 53 bc d9 7f 5a bc fc 39 09 bc 26 0d 75 bc
       -0.01288945 -0.013336145 -0.008375641 -0.014956748
000310 65 03 82 bb 82 52 44 bc 40 4f 25 3c f2 76 0a 3c
       -0.00396769 -0.011982562 0.010089695 0.00845121
000320 fd f4 b6 bb 2d c4 d7 3b 83 9f af 3c f8 e6 8b bb
       -0.005583404 0.0065846653 0.021438366 -0.004269477
000330 37 61 b7 bc 56 46 4a bb 2c 6a ed 3b 7e f1 81 bb
       -0.022385223 -0.0030864677 0.0072453227 -0.0039655557
000340 f5 84 0a 3b ad de b6 bc 88 48 aa bb 81 5b 55 3c
       0.0021136377 -0.022322977 -0.0051966347 0.0130223045
000350 7e 07 a2 bc 26 66 91 3c b9 f6 aa bc 46 55 1a 3c
       -0.019778963 0.017748903 -0.0208696 0.009419745
000360 02 ec a7 bb 21 f8 b1 bc f4 89 0f bc 3e 9d a7 bc
       -0.00512457 -0.021724762 -0.008760918 -0.020460721
000370 80 b8 f9 ba 69 8e 9d 3c 72 fc 5e 3c bd cb 76 3b
       -0.0019052178 0.019232946 0.013609992 0.0037658059
000380 d3 d2 59 bc 0e 41 e1 b9 fd 60 50 3c 3d 4d 2a bc
       -0.013294893 -0.00042963814 0.012718436 -0.010394392
000390 ff e9 19 bc 19 ba 1b bc 48 58 97 bc e1 e8 4b bc
       -0.009394168 -0.009504818 -0.018474713 -0.012445659
0003a0 f0 4e 32 3c b5 45 d1 3b 52 cc e7 39 3d ee 1a 3b
       0.010883078 0.0063864836 0.00044211984 0.0023640536
0003b0 81 ea ba bb 2c 73 83 3c f7 69 6f bc bf 51 5a bc
       -0.0057042246 0.01604613 -0.014612666 -0.013325154
0003c0 99 98 70 3c b2 00 42 bc 56 a8 28 bc 2d 75 33 bc
       0.01468482 -0.011840986 -0.010294041 -0.01095323
0003d0 99 11 b1 3a c0 ed 86 bc 01 2d c2 bc 79 dd 6f 3c
       0.0013509273 -0.01647079 -0.0237031 0.014640206
0003e0 c2 d7 fe bb 76 f5 bb bc 88 dc 89 3c af a7 f1 bb
       -0.007777185 -0.022944193 0.01682879 -0.007374726
0003f0 52 ee fa bb 4c 8b 4b 3c bd fe 8f 3c 16 64 57 bc
       -0.0076578045 0.012423348 0.017577523 -0.013146421
